DQN_SEED_1.pth (torch_old, 19560 bytes, 6 tensors)

Linear1.weight f4 [64, 4]
000000 06 2d 66 bd cc 55 bd 3d fc cd 36 bf b4 5c 56 3e
       -0.05619528 0.0924488 -0.7140806 0.20933801
000010 a0 d8 ef be d8 48 ae be f3 94 64 be aa 87 08 be
       -0.4684496 -0.3403995 -0.22322445 -0.13333002
000020 d8 d4 bb 3e e1 75 47 be bc 78 86 bf eb 51 55 be
       0.36685824 -0.19478561 -1.0505595 -0.2083203
000030 30 39 e6 3e a3 ed 20 3e c5 76 b3 3e 9f 0c 8b 3d
       0.44965506 0.15715651 0.3505155 0.06789517
000040 2f 9e 59 3e 89 52 18 3e 82 07 52 3f a3 21 86 3d
       0.21251749 0.14875235 0.82042706 0.065493844
000050 a5 01 38 be eb 47 80 be 26 a8 e9 be 53 ff 56 be
       -0.17969377 -0.2505487 -0.456361 -0.20995836
000060 a5 99 d0 be 34 71 4a be 32 4b 06 3d 22 1a 81 bd
       -0.4074222 -0.19769746 0.032786556 -0.063038126
000070 39 0a e4 bd 31 48 8f 3e 0e 64 78 3f 92 9a d4 3e
       -0.11134762 0.27984765 0.9702767 0.41524178
000080 3b f6 e0 3e 3d 8b 46 be 46 b2 a8 bf 2c 68 ad be
       0.4393786 -0.19389053 -1.3179405 -0.3386854
000090 38 d2 0e 3f e7 76 9a 3e 43 ca a6 3f 29 7f a2 3e
       0.5578952 0.3016884 1.3030475 0.3173764
0000a0 f9 53 34 3f f9 5f ba be 92 c3 91 3f 9b 0f 05 be
       0.7044063 -0.36401346 1.1387808 -0.12994234
0000b0 f7 6e 62 be 29 fe 0e 3e 32 26 90 be b7 39 a9 3d
       -0.22112642 0.13964142 -0.2815414 0.08262961
0000c0 63 f3 a5 bd 8b e1 e8 bd 90 f4 ec bf 4a f7 6c be
       -0.08103063 -0.11371144 -1.8512135 -0.23141208
0000d0 b2 ed c0 bc 73 bc 9c bb 93 ab 0d 40 b2 8b 67 3e
       -0.023550842 -0.004783207 2.213597 0.22611883
0000e0 da 60 90 3e ca 3e c0 be 32 8a 8e be 89 2c b2 be
       0.28198892 -0.37547904 -0.2783981 -0.34799603
0000f0 cc 46 89 bd b7 eb 9b bd 48 d1 0e 3c f9 91 54 be
       -0.067029566 -0.076133184 0.008716889 -0.20758809
000100 b8 41 aa 3d 6a 73 37 3e 52 51 83 bf 58 b5 f7 3c
       0.08313316 0.1791512 -1.0259192 0.030237839
000110 2c e1 9d 3c b8 80 38 be 9a d6 58 3f d0 c8 8b be
       0.01927241 -0.18017852 0.84702456 -0.27301645
000120 ca ba ca bc 46 cd 0f bd 52 ee 07 40 52 73 57 3e
       -0.024747271 -0.035107873 2.123921 0.21040085
000130 dc ae 87 3e 76 ad 80 3e e8 c5 bf bf 55 6e 46 be
       0.26500595 0.2513234 -1.4982271 -0.19378026
000140 dc 90 8e be 17 72 df be 3d 4c 91 bf a8 e4 b4 be
       -0.27844894 -0.4364173 -1.1351391 -0.353307
000150 80 45 b1 3e ce 28 88 3e 65 f2 b1 3e 57 ec 33 3e
       0.34623337 0.26593632 0.34755245 0.17570625
000160 e6 b8 52 be 13 fd b2 3d 70 74 6f be 6b 29 d5 be
       -0.20578346 0.08739676 -0.23384261 -0.41633162
000170 88 11 fb 3d 48 86 9f 3e c3 c3 b1 bf fb 23 98 3d
       0.12259203 0.31157136 -1.3887867 0.07428738
000180 59 e1 db 3d 9b 36 77 3e bb 3e b3 bf b8 34 2b 3c
       0.10736341 0.24141924 -1.4003519 0.010449581
000190 2b 1a 7d 3e c9 1b 99 3e 5f 33 30 3f bb ad 8f 3e
       0.24717014 0.2990401 0.68828386 0.28062233
0001a0 17 0a aa bd 3e 5e 02 bf 2f 91 94 3f cf be 96 be
       -0.08302706 -0.5092505 1.1606807 -0.2944245
0001b0 af 13 3d 3e 44 59 b5 3e a4 37 3b 3f a4 12 9d 3e
       0.1846454 0.35419667 0.73131776 0.30678284
0001c0 7e db ad 3e ab 74 32 be 19 65 ad 3f 3a fc 25 3e
       0.33956522 -0.17427318 1.3546478 0.16209498
0001d0 12 a9 9d 3d 5a 7e 0a 3c 5b 7f fc bf ac c4 78 be
       0.07698263 0.008452976 -1.9726366 -0.24293774
0001e0 9d 0c 3b be ed 5e d5 be e3 33 b4 bf d0 58 de be
       -0.1826653 -0.41673985 -1.4078335 -0.43427134
0001f0 11 95 f8 3d 2f 47 de bd d4 7c 84 bf a1 90 31 3c
       0.12137807 -0.10853421 -1.0350595 0.010837705
000200 8f d3 27 bd 4c b3 b9 3e 51 69 51 3f 7f 50 b7 3e
       -0.040973242 0.36269605 0.81801325 0.358036
000210 98 e3 7e 3e 00 c0 3a 3e c2 ca 5c 3f ec 25 69 3e
       0.24891508 0.18237305 0.86246884 0.22768372
000220 8f a4 af 3e 73 ea 09 bd 30 f3 a5 bf 42 fc c6 3d
       0.34305236 -0.033670854 -1.296484 0.09716083
000230 aa a6 7c be 64 fb c1 be b0 f0 aa bf 1b e2 b3 be
       -0.24672952 -0.37887108 -1.3354702 -0.35133442
000240 6e 7a 16 3e 75 76 9a bd c0 57 2e 3f 9d cd 41 3d
       0.1469514 -0.07542125 0.68102646 0.04731523
000250 b3 76 5d 3d ca 6f 94 3d 4a 2c 96 be 39 ca a1 3e
       0.05406828 0.072478846 -0.29330665 0.31599596
000260 75 f2 84 3c 81 53 03 bc 9f 47 c8 bf 80 f3 3a be
       0.016228894 -0.008015514 -1.5646857 -0.1825695
000270 f8 64 41 be 24 6b 79 be 26 1c 99 bf fa 7c b3 be
       -0.18886173 -0.24357277 -1.1961715 -0.35056287
000280 7a 0a 92 be 88 e2 44 3d 94 1d 0d 3f 89 30 1c 3e
       -0.28523618 0.0480676 0.5512326 0.1525289
000290 9a 41 d4 be bf 33 9d bd e9 b8 31 bf 7c b1 04 be
       -0.414563 -0.076758854 -0.69422776 -0.1295833
0002a0 7d b3 5d be d9 0a 21 be e8 02 59 bf 0f 10 66 3e
       -0.216505 -0.15726794 -0.8477006 0.22467063
0002b0 04 45 b1 3d 6c 28 97 3d 44 7c 01 40 4d eb 94 3e
       0.08655742 0.07380757 2.0232096 0.2908577
0002c0 27 aa 67 be 16 22 09 3d c9 32 d1 be 53 93 04 3f
       -0.22623502 0.033479773 -0.40859058 0.517873
0002d0 ff 08 2d 3d 47 4a ce 3c 1b 32 f4 bf 29 1d a5 bd
       0.042244907 0.025181903 -1.9077791 -0.080622025
0002e0 69 e6 8a 3d 09 17 40 3e e9 da a9 be 65 09 82 3e
       0.067822285 0.18758787 -0.33174828 0.25397792
0002f0 a0 cb b6 3d 74 e8 d6 bd 11 bc 14 bf 53 43 f3 be
       0.08925557 -0.10493556 -0.58099467 -0.47512302
000300 37 e7 72 3e 8c 22 01 be 89 ec 9d 3d 2a d2 00 bf
       0.23721014 -0.12610835 0.07711131 -0.50320685
000310 74 ef 94 3e 47 4d 8b 3e 43 f7 87 3f cb 72 90 3e
       0.29088938 0.27207395 1.0622333 0.2821258
000320 94 4c 27 3e bb fa a7 be e4 90 ec 3e 0b 2c 6d be
       0.16337806 -0.3280848 0.46204293 -0.23161332
000330 b2 82 3d 3e de c1 9a be 5c 40 ab 3f 61 c2 02 3d
       0.18506888 -0.30226034 1.3379016 0.031923655
000340 ea 1f 3c bd 51 cb 0d 3e 20 bd 81 3f 3b d6 b9 ba
       -0.045928873 0.1384709 1.0135841 -0.0014178226
000350 26 ec c9 bd ea cd 5a 3e bd e7 a2 3f 24 cc 33 3d
       -0.09859495 0.21367612 1.2726971 0.043895856
000360 d0 db 77 3e 4e 86 c1 be ac eb 87 bf 7e f5 9d 3d
       0.24204946 -0.3779778 -1.0618796 0.077128395
000370 86 fb 21 bd 77 0b c1 3c c1 d0 cb bf a8 34 8d be
       -0.039546512 0.023565037 -1.5923082 -0.27579236
000380 2b 8c ad be 6c 8a 0a be f7 db 20 3f 33 34 71 3e
       -0.33896002 -0.13529366 0.6283564 0.23555069
000390 39 af e9 3e 2a 4f d1 3e c9 7e 9d 3d a3 42 40 3e
       0.45641497 0.4088071 0.07690198 0.1877542
0003a0 aa e1 c0 3e ae fd c8 3d 48 64 83 bf b8 f8 3d 3d
       0.37672168 0.098140106 -1.0264978 0.046379775
0003b0 ca 67 38 be 0d 8f 13 3e 3f 5b ca 3e 5d 57 21 be
       -0.18008342 0.14410038 0.3952274 -0.15755983
0003c0 8f 04 59 be ca 1f f6 be 3d 29 92 bf a6 d5 fe be
       -0.21193145 -0.48071128 -1.1418835 -0.49772376
0003d0 91 ba b5 ba 07 a1 89 bc 2b 6f e4 bf 93 6a 3a be
       -0.0013864805 -0.016800417 -1.7846426 -0.18204717
0003e0 16 ae e9 bd 4b 65 d2 bc 79 2f 90 3f 8d f5 f3 be
       -0.114101574 -0.025683066 1.1264488 -0.47648278
0003f0 e0 9a 0e 3f 40 c7 99 3e 72 7d 39 bf a2 d3 09 3e
       0.5570507 0.30034828 -0.7245704 0.13459638

Linear1.bias f4 [64]
000000 40 15 d4 bd 64 66 17 bd 8e 19 a7 be e7 9a 29 be
       -0.103556156 -0.03696288 -0.32636684 -0.16562997
000010 f1 2f 96 3e 19 35 2d 3e 25 1b 86 be 65 7e 09 3f
       0.2933345 0.16914786 -0.26192585 0.5370849
000020 6d 7e 8c bd f9 af 92 be 0d 4f 72 3e f9 4f 0e bf
       -0.06860051 -0.2864988 0.23662968 -0.5559078
000030 90 77 14 3f 5f 89 de be f1 f0 14 be 3b fe 35 be
       0.5799494 -0.4346418 -0.14545037 -0.17772762
000040 5d ee 9c bd 41 b4 16 bc 4b 7c 05 bf e4 0b 22 bf
       -0.07662652 -0.009198249 -0.5214278 -0.63299394
000050 83 16 30 bf bb 93 48 bf e4 a5 82 bf 14 a0 6c be
       -0.6878435 -0.7835042 -1.0206876 -0.2310794
000060 b4 5b 37 be ae b8 0d be 8f 91 70 3e 71 ad ff be
       -0.17906076 -0.13839981 0.23493026 -0.49937013
000070 f9 4b 12 bf 24 b2 c0 be 2d 07 3b be 6d 7d 97 3e
       -0.57147175 -0.3763591 -0.18264456 0.2958788
000080 7b ba d2 be f5 83 f6 be 58 1e 37 be 5f f3 db be
       -0.41157898 -0.4814755 -0.17882669 -0.42959115
000090 df e5 ac 3e ad 67 9c bb de ea 8b be ce 12 fb be
       0.33769128 -0.0047731013 -0.27327627 -0.49037784
0000a0 e6 4f 27 be 09 66 74 be 23 61 08 bf ee 05 e2 be
       -0.16339073 -0.23867048 -0.5327322 -0.4414515
0000b0 79 3a 87 bc c4 68 ba be 7c f2 8c be 88 3b 49 bf
       -0.016507374 -0.36408055 -0.2752875 -0.7860646
0000c0 62 df f2 be 35 74 24 bf 7b 22 ff be 64 77 90 be
       -0.47436053 -0.6423982 -0.49830994 -0.28216088
0000d0 38 f6 19 be 57 e6 d4 3e 1b 66 59 be 77 47 eb be
       -0.15035331 0.41581985 -0.21230356 -0.4595296
0000e0 54 3b fb be cd fe 22 be ec 79 a7 3c cb 41 56 bf
       -0.490687 -0.15917511 0.020443879 -0.8369414
0000f0 70 ea 8f be 64 76 07 3f b1 31 59 3d b0 4a 63 3e
       -0.2810855 0.52915025 0.053025905 0.2219646

Linear2.weight f4 [64, 64]
000000 a8 e8 b0 bd b6 ac bd bc a0 9f d8 bc be ee a9 bd
       -0.08638126 -0.023153644 -0.026443303 -0.082974896
000010 60 8e 73 bb e6 ce 57 bd da d0 8f bd b7 cf e9 bc
       -0.003716372 -0.052687548 -0.07022257 -0.028541429
000020 48 b0 0c be c4 9a 99 bd 16 66 2c 3b 78 59 3f 3d
       -0.13739121 -0.07500222 0.0026305965 0.046716183
000030 90 2d 85 3d 06 e4 02 be 26 92 05 bd df 1e 6a bd
       0.06502831 -0.12782297 -0.03261008 -0.057158347
000040 5c 2c dc bd 29 b1 a6 bd 67 fe db bc 86 be 5f 3c
       -0.107506484 -0.08139259 -0.026854707 0.013656264
000050 c0 ac 82 bd 48 a6 01 be d8 03 e4 bd 3c 08 e9 3d
       -0.06380606 -0.12661088 -0.11133546 0.11378524
000060 f0 f3 38 bd f3 05 83 bd b1 73 ad bd 47 05 92 bd
       -0.045154512 -0.06397619 -0.08469332 -0.07129913
000070 a0 e4 24 be cc 2e ae bd cd 73 94 3d 32 1e ac bc
       -0.16102839 -0.085050195 0.0724865 -0.021010492
000080 99 0a 86 bd 7f fe ab bd f8 bc 3a 3d 46 89 b8 3d
       -0.0654499 -0.08398151 0.04559037 0.09010558
000090 d9 4b 6d 3d e2 24 ad bc 60 c0 59 3d a0 8d 24 bc
       0.057933662 -0.021135751 0.05316198 -0.010043532
0000a0 7f e0 23 bd ae 4b 04 be 9a ed 9b 3d 84 3e 31 bd
       -0.040009018 -0.12919495 0.07613678 -0.04327251
0000b0 98 1e d4 3c 84 84 89 3b a0 cb ff bd 40 2f 7b bd
       0.025893494 0.0041967053 -0.1249001 -0.061324358
0000c0 3a 21 e8 3c 6c 05 16 bd a8 35 f7 bd 28 61 cd 3c
       0.028336156 -0.036626264 -0.12070781 0.025070742
0000d0 fb 5b ac bc bb a0 bf bd ef bc a9 bc 6f 15 97 3c
       -0.021039953 -0.09356829 -0.020719973 0.018442838
0000e0 c0 d3 3c bd 53 cd cc 3d 02 2c 73 3a 27 a2 13 3c
       -0.046100378 0.100001 0.0009276272 0.009010828
0000f0 20 a9 c4 bc 7c bd 12 be 98 7b af 3d 95 4a 8c bd
       -0.024006426 -0.14330095 0.085684955 -0.06850163
000100 82 c9 0d be bb bc d6 bc 36 6a 7f 3d 45 58 ed 3c
       -0.138464 -0.02621304 0.06235715 0.028972754
000110 db 9e bf bd 91 9d 22 be 67 ce 8e bd 19 06 75 bd
       -0.09356471 -0.1588042 -0.06972962 -0.05982027
000120 4b 84 95 3d 78 b8 3f be 24 6b 9c 3d 00 34 2f 3b
       0.073006235 -0.18722713 0.07637623 0.0026733875
000130 4a c8 95 3d e6 a6 b7 3b 6b 0e 06 3e 06 65 2c 3c
       0.07313593 0.0056046126 0.13091438 0.010522133
000140 33 fb 16 be 25 92 b4 bc 6f 7d e7 bd 2e 00 30 be
       -0.14744262 -0.022042343 -0.113032214 -0.17187569
000150 55 2b e9 bc 51 d6 5c be 63 3e aa bd 3e 57 22 be
       -0.028463045 -0.2156613 -0.083126806 -0.15853593
000160 79 a7 ba 3c 9f 00 ae bd 61 74 cf bd 5b fc c0 bc
       0.022784935 -0.08496212 -0.101296194 -0.023557832
000170 5b fc 2b 3d e6 23 fe bc d8 3b 4a bd b3 1a 2c 3d
       0.04198871 -0.031022977 -0.049373478 0.04201765
000180 35 46 5e be 1b 42 4a bc f8 7b d1 bd 8f d9 48 3d
       -0.2170647 -0.012344862 -0.10228723 0.049035605
000190 6f dc 37 be 02 81 3c 3d 6b 57 12 3d b7 0d 00 3d
       -0.17955182 0.04602147 0.0357279 0.03126308
0001a0 c0 41 0e be 94 f3 29 bd 81 0b c7 bd 5d 9c 0c be
       -0.13892269 -0.04149206 -0.09718991 -0.13731523
0001b0 9a 96 00 bd cb 9b 9f bd e7 5d c3 bd 06 c6 cd bd
       -0.031393625 -0.07793387 -0.09539395 -0.100475356
0001c0 e0 73 38 bd 82 61 d8 bd 8f dd 90 3d 31 74 ba bd
       -0.045032382 -0.10565473 0.07073509 -0.09104193
0001d0 68 a2 1c bc be b7 12 be e2 05 d0 3d 61 ba 55 3d
       -0.009560205 -0.14327905 0.10157372 0.052179698
0001e0 99 fc f2 bd ea b8 6f 3d bd 2b 20 be d6 e3 2e 3d
       -0.118645854 0.058525957 -0.15641685 0.04269775
0001f0 22 38 09 be 1c 73 22 bb 9c 1f e8 bd 80 a1 9c 3c
       -0.13400319 -0.0024787849 -0.11334154 0.019119978
000200 9e a6 05 be 45 e1 3f be 78 89 2b 3d 57 7a e6 3c
       -0.1305184 -0.18738277 0.041879147 0.028134508
000210 f2 57 7b 3d b8 3f a8 bd b7 a4 5b 3d a0 a8 f1 3b
       0.061363168 -0.082152784 0.05362388 0.007374838
000220 0d b5 eb bd d4 76 c5 bd b4 c1 26 3d 98 41 8c bd
       -0.11509142 -0.09641805 0.040712073 -0.068484485
000230 8a 3b 4e ba fd f0 08 be f9 ac 13 3c a6 01 19 39
       -0.00078671484 -0.1337318 0.009013408 0.00014591831
000240 dd 53 b4 bd af 75 99 bc 22 42 b6 bd 80 da df bc
       -0.08805058 -0.018732874 -0.088993326 -0.027325869
000250 b9 80 31 bd 95 0d 0f be cc d3 02 bd 91 1f 68 bd
       -0.04333565 -0.13970025 -0.031940266 -0.05667073
000260 2e fa f3 3d 72 45 94 3d 89 ab ea 3c 0a d5 89 3d
       0.11912952 0.07239808 0.028646247 0.06730087
000270 3d 49 14 be e4 43 2b 3d a8 b7 3c 3d ad 73 1b be
       -0.14481063 0.041812792 0.046073586 -0.15180846
000280 d4 88 4f 3d 62 af ce bd 28 f4 94 3c 79 a8 44 bb
       0.0506676 -0.10092045 0.018182829 -0.0030007644
000290 dc 87 0c 3d 5b e5 c1 bd 62 6c 0e be d2 09 91 3d
       0.034309253 -0.09467574 -0.13908532 0.07081951
0002a0 22 a7 8c bc c3 8d 82 bc 02 56 12 3a b7 ae 8d bd
       -0.017169539 -0.015936738 0.0005582274 -0.0691809
0002b0 2c bf 8a 3d c5 a3 03 be 40 c0 21 3c ef 91 45 3c
       0.067747444 -0.12855442 0.009872496 0.012058719
0002c0 8d b8 25 3d 88 ad 7f bd a2 ce 01 be ae a5 c4 3c
       0.040459204 -0.06242135 -0.1267648 0.024004783
0002d0 90 89 07 be d8 d3 18 be 59 e4 11 be 5c 49 78 bd
       -0.1323607 -0.14924562 -0.14247264 -0.060616836
0002e0 d5 40 87 bd fc 99 97 bd a4 b1 9e bd 46 af e2 bd
       -0.066041626 -0.07402417 -0.07748726 -0.11068587
0002f0 88 74 03 3d b7 ea be bd 79 c5 1d be da 23 c8 3c
       0.032093555 -0.09322112 -0.15407361 0.024431158
000300 4e 0c 22 be ab 74 b9 be c8 2f 66 bf e2 75 9b bc
       -0.15825006 -0.36221823 -0.8991666 -0.01897711
000310 aa 93 00 bd b0 57 b4 bf ab 0e 31 3e 47 51 9a 3d
       -0.031390823 -1.408926 0.17290752 0.07535034
000320 ef 1e 9e bf 2a f3 b4 be f2 77 b2 3d ae 47 1f be
       -1.235319 -0.3534177 0.08714284 -0.15554687
000330 47 0f c0 3e 28 e9 67 bf 8d e0 ee 3d d4 3a 37 bd
       0.37511656 -0.90590143 0.116639234 -0.044733837
000340 69 05 37 be a8 e7 11 bf 19 7f c5 3e ee 10 0d 3f
       -0.17873158 -0.56994104 0.3857353 0.5510396
000350 1c 61 0c 3e 59 54 a1 3e ed 66 9b 3e 7c de 51 be
       0.1370892 0.31509665 0.30351964 -0.20495027
000360 62 b3 9b 3e f1 c0 1d 3e b5 b4 7b be fb cc 18 3e
       0.30410296 0.15405633 -0.24580653 0.14921944
000370 37 4a e9 3e f5 e9 49 3e 84 01 c7 bc 12 17 65 be
       0.45564434 0.19718154 -0.024292715 -0.22372082
000380 87 72 82 3d e9 0a d1 3e d1 6b ee 3d 79 41 83 3f
       0.063695006 0.40828636 0.11641658 1.0254356
000390 09 1c 13 3c 0b fe cb 3c b8 4c da 3e cb 55 4f 3e
       0.008978852 0.02490141 0.42636657 0.20247571
0003a0 4e c9 7e be fc 01 b9 be b5 25 78 3e fb 4f 0a 3d
       -0.24881479 -0.36134326 0.24233134 0.03376768
0003b0 76 9d e4 bd 18 79 5f 3f 7d c5 5a 3a af ea df bd
       -0.11162846 0.8729415 0.0008345468 -0.10933434
0003c0 fa dd 0b 3e fa 16 86 3e e8 82 ee bc 48 30 7d bf
       0.13658896 0.26189405 -0.029115155 -0.98901796
0003d0 6d 52 f7 3e 56 71 cf 3d 09 72 8c be d6 fe 22 3f
       0.48305073 0.10129039 -0.27430752 0.636701
0003e0 5f 20 3f bd dd 2f 50 3d 46 36 cd 3d 39 53 4f be
       -0.04666173 0.050826896 0.100201175 -0.2024659
0003f0 f0 a2 94 3e 82 b8 57 3c da b8 01 3e 4f 3e 2c 3c
       0.2903056 0.013166549 0.12668172 0.010512902

Linear2.bias f4 [64]
000000 3c f2 9c bd 29 3b 1a be 28 43 11 be 64 78 a0 3d
       -0.0766339 -0.1506163 -0.14185774 0.07835463
000010 5e 34 81 3e 49 80 66 bd 40 c7 60 bc 48 06 4d be
       0.25235265 -0.056274686 -0.01371938 -0.20021927
000020 35 04 71 3e 6f cb 94 3c 4a b8 12 be a2 6b f7 bd
       0.23536761 0.018163411 -0.14328113 -0.12081076
000030 e0 23 84 bd 14 89 aa bd b7 b7 70 3d 6a 62 0a be
       -0.06452155 -0.08326927 0.058768954 -0.13514104
000040 2d 86 ca bd c4 94 c0 3c 92 aa 80 3e 55 f1 64 bd
       -0.09888873 0.023508437 0.25130135 -0.055894215
000050 ab 57 b0 bd c8 a6 e2 bc 97 66 b5 bc de f4 bd 3e
       -0.08610471 -0.027667418 -0.022143645 0.3710088
000060 d2 4d 15 be bc 79 32 bd 80 ca e2 bd e6 b3 ba 3c
       -0.14580467 -0.043573126 -0.1107378 0.02279086
000070 56 46 25 be ce ad 3c bb 53 d2 8f 3e 44 95 54 bd
       -0.16140112 -0.002879012 0.28090152 -0.051900163
000080 fb 97 ee bd 1b 63 36 be c4 b3 06 bc fa 66 af bd
       -0.11650082 -0.17811243 -0.00822157 -0.08564563
000090 ea 1c f7 3d 68 7d 80 3e 28 5c 70 3c 47 d5 83 3c
       0.12066062 0.25095677 0.014670409 0.01609291
0000a0 bc 00 38 be 4e d8 fe bd ba 8b b6 bd 0c ca 05 3e
       -0.1796903 -0.124436006 -0.089133695 0.13065356
0000b0 b7 82 99 3d 32 43 4d bb 55 41 17 be 9a b8 03 be
       0.07495635 -0.003132057 -0.14771016 -0.12863389
0000c0 35 fc 19 be 93 03 44 bd 5b 4e 3d 3b d2 fd 3c bd
       -0.15037616 -0.04785497 0.0028885815 -0.0461405
0000d0 90 37 d0 bd 65 51 20 be 2c 79 28 3d 3a 79 1e be
       -0.10166848 -0.1565605 0.041131184 -0.15475932
0000e0 76 89 95 3c 3b 1a b8 bc 31 61 4b be 7c b6 99 be
       0.018254023 -0.022473445 -0.19861294 -0.30022037
0000f0 0e 8a 94 bb 1e 32 05 be 93 39 ea 3c e2 6b 0b be
       -0.004533059 -0.130074 0.028591907 -0.13615373

Linear3.weight f4 [2, 64]
000000 af 81 25 bd 68 b2 57 3c d2 a2 ca bc e8 4b 08 3e
       -0.04040688 0.013165094 -0.024735842 0.13310206
000010 d9 35 12 3e b8 de 19 3d f0 f8 9c bc 10 00 80 be
       0.14278354 0.037565917 -0.019161671 -0.25000048
000020 03 53 52 3e a9 75 26 3b fd 50 07 3d b3 52 4c 3c
       0.20539479 0.002539972 0.03303622 0.012470889
000030 2f 34 83 3b 15 bd 9e bd bb c9 18 bd 08 b4 0f bc
       0.0040040235 -0.07750908 -0.03730176 -0.00877095
000040 84 90 c2 bd b5 c3 78 bd da 71 af bd df 18 ab bf
       -0.095002204 -0.060733516 -0.08566637 -1.3366965
000050 a8 f9 37 3f c0 50 9a bc 0c 91 62 3c 08 d7 6d 3e
       0.7186532 -0.018837333 0.013828527 0.23226559
000060 87 1a 12 3c 70 ba b8 3c 55 d9 15 3c f9 8f 1e be
       0.008917457 0.022549838 0.009146054 -0.15484609
000070 33 76 80 3d 0e dc f5 be 10 3c 6e 3e ac cb 33 bc
       0.06272545 -0.4801945 0.232651 -0.010973852
000080 6b d3 1c bd 5b 26 4e bf e0 d7 04 bc d4 de 9e be
       -0.03828756 -0.80527276 -0.008108109 -0.3102938
000090 6a a8 f5 bd 39 0a ab bc 76 17 d5 bd 46 a9 af bc
       -0.11995013 -0.020878898 -0.104048654 -0.02144302
0000a0 af d4 d2 be c8 d2 dc bd f7 48 88 bc d5 dc 60 3e
       -0.4117789 -0.10782391 -0.016636355 0.2195924
0000b0 39 89 39 bf 7d d5 44 bc d0 27 a2 bd 3d 49 ee bc
       -0.7247501 -0.01201379 -0.0791775 -0.029087657
0000c0 39 5e b1 bc e7 46 db 3d 00 8a 05 3d 39 ba b4 3b
       -0.021651374 0.10706883 0.03260231 0.0055153635
0000d0 fd 8f 59 be 35 13 0d bf 41 e6 51 bc e4 80 37 3d
       -0.21246333 -0.5510743 -0.012811244 0.044800654
0000e0 51 9b 29 bf bd d4 e5 3c 08 43 17 be 6f 6a af 3e
       -0.6625262 0.028055543 -0.14771664 0.3426089
0000f0 f8 7d 33 3d c8 2e 9f 3d 2c f9 db 3c a0 d5 83 bd
       0.043821305 0.07772595 0.026852213 -0.0643723
000100 e8 6b 93 bd b2 be 6a bd b5 3f 79 bd 78 10 ea 3d
       -0.07198316 -0.057310767 -0.06085177 0.114289224
000110 f6 c2 17 3e 57 46 ff 3c 51 1c d5 3d 3e 3d aa be
       0.14820465 0.03116147 0.104057916 -0.3324985
000120 45 6c 83 3e 77 c9 4b 3d cc 43 ef 3d b6 6c 2c ba
       0.2566854 0.04975268 0.11682853 -0.00065774785
000130 76 59 a4 3d 08 02 2c 3e 92 69 ea 3c 60 3c b6 3b
       0.08024876 0.1679765 0.028614793 0.0055613965
000140 c9 1b e1 3b b1 dd 77 bd 31 b1 f4 3d 8c 8f bc be
       0.0068697673 -0.060514156 0.11947859 -0.36828268
000150 5a f3 9b bf a9 7a 1d 3d ef 38 5c bd dc 9f 51 3e
       -1.218364 0.038447056 -0.053765234 0.20471138
000160 96 6c 92 3d 6c ec 34 bc 26 c9 db 3c 1e f6 c4 be
       0.071496174 -0.0110426955 0.026829313 -0.38469023
000170 19 31 85 3d 15 2e 86 bf 22 8a a3 3d 81 7c d8 3c
       0.06503505 -1.0482813 0.07985331 0.026426556
000180 30 4d 2f bc f4 d5 08 3f d3 54 12 3d 41 de 75 be
       -0.010699555 0.53451467 0.035725426 -0.24010564
000190 44 53 3d 3e 49 e5 8f 3e 06 51 87 3d 04 e4 58 bd
       0.18488795 0.28104618 0.06607251 -0.052951828
0001a0 cc 1f 9a bf 40 ed fa 3d 07 64 05 bd 4a 9d 9b bd
       -1.2040954 0.12252283 -0.032566097 -0.0759836
0001b0 10 c4 2a 3d 4d b3 5a 3d ac 95 9f 3d ea a4 2d bb
       0.041690886 0.05339365 0.077922195 -0.0026496002
0001c0 9d 93 66 3c 3b f0 b4 bd 8b d4 af bc 3f f5 9b 3c
       0.01407328 -0.08834883 -0.021463653 0.01903784
0001d0 c9 74 59 bf 76 7c cf be 51 e4 03 3b 5c e0 a6 bc
       -0.84943825 -0.40524644 0.00201251 -0.020370655
0001e0 f9 79 f8 3c f4 06 58 3d 9b cf 24 be a7 41 90 3e
       0.030331599 0.052741006 -0.1609482 0.2817509
0001f0 3c 91 19 3d 55 91 eb 3c fc 9f 2a 3c 04 cf c1 3d
       0.037492022 0.028755823 0.01041412 0.09463313

Linear3.bias f4 [2]
000000 12 7d 02 3f 4b 2c bb 3e
       0.5097209 0.3655723
