DQN_POMDP_SEED_1.pth (torch_old, 19047 bytes, 6 tensors)

Linear1.weight f4 [64, 2]
000000 b8 ef 02 3e 92 ca ed bd c6 67 88 be 83 62 31 3f
       0.12786758 -0.11610903 -0.26641673 0.6929094
000010 2a d2 22 bf 95 52 cb 3e cd 00 5a bd 81 30 11 3f
       -0.63601935 0.39711443 -0.05322342 0.56714636
000020 34 6b 6e 3e b4 f7 c7 be d6 de 38 3e f5 5f 5b be
       0.23283082 -0.3905617 0.18053755 -0.21423323
000030 49 e4 94 3e b4 5d a3 be 27 ec 8e 3d 1d db d1 be
       0.29080418 -0.31907427 0.06978636 -0.40987483
000040 2b f1 60 3d 74 73 95 bc 37 83 6b 3f 2a 59 71 3e
       0.054917496 -0.018243529 0.9199709 0.2356917
000050 51 d3 86 be 49 a8 da be c0 bb f2 bd 79 29 9c be
       -0.26333097 -0.42706516 -0.11852217 -0.3050039
000060 8e 07 68 be 10 ae 0a 3d ae 89 88 3f 5c bc 04 3f
       -0.22659132 0.033857405 1.0667017 0.51849914
000070 e5 55 29 bf 0d 84 d2 3e 2a e0 dd 3d 3d 9c 87 3f
       -0.6614669 0.41116372 0.108337715 1.0594555
000080 85 cd 0e 3f 78 7f 68 bf 56 e9 44 bf 39 a9 80 bf
       0.5578235 -0.908195 -0.7691854 -1.0051643
000090 d1 e7 5e 3f 57 94 8a be c9 1a 13 3f df 35 02 bf
       0.87072474 -0.270663 0.57462746 -0.5086345
0000a0 28 6a 38 3f a3 6c 15 be b9 43 21 3f ba 03 da 3d
       0.7203698 -0.14592223 0.6299396 0.10645242
0000b0 59 f2 b0 be d1 78 af 3e e5 5c 02 bf cd a1 b1 3e
       -0.34559897 0.34271863 -0.50922996 0.34693757
0000c0 a2 7a 3f be b6 80 84 bd a5 cc 95 bf 11 99 18 bf
       -0.18699124 -0.06469862 -1.1703078 -0.5960856
0000d0 5a 74 c4 3e bc 01 30 be ad e7 55 3f 3e 26 43 3f
       0.3837002 -0.17188162 0.83556634 0.7623023
0000e0 a0 9d 07 bd 9a a7 f1 be 1e 4f 10 3f f5 70 7a 3e
       -0.033109307 -0.47198182 0.56370723 0.24457152
0000f0 3c 97 1b bf 57 a8 0f 3f fb 23 64 3f bc 64 95 3f
       -0.6077764 0.5611624 0.891174 1.1671367
000100 bb f1 ca be f8 5f ee bd 90 3a b6 bb 1f 29 a2 3e
       -0.3963755 -0.11639398 -0.0055611804 0.31671998
000110 73 47 2d bf c4 f2 00 bf 2f 71 95 3e 78 cc 0e be
       -0.6768715 -0.5037043 0.29187915 -0.13945186
000120 a6 d8 b0 3e 50 1e 25 3d 41 17 b9 3d bf 6a 1d 3f
       0.3454029 0.04031211 0.090376385 0.61491007
000130 19 a4 de 3e 45 fb 04 3f 44 01 7e bf 64 0b c3 be
       0.43484572 0.51945907 -0.9922068 -0.38094628
000140 cc 8e fe be aa 94 08 bf 20 23 30 3d a8 c6 f6 bd
       -0.4971832 -0.53351843 0.043002248 -0.120496094
000150 89 31 2d 3f 80 30 6a be 6b 71 bf bf 65 50 fb 3e
       0.6765371 -0.22870064 -1.4956487 0.49084774
000160 fd 13 bc bd aa 9e 04 3f d9 6a 51 3e 2b 80 48 bf
       -0.091835 0.518046 0.20450915 -0.7832057
000170 7f af db 3d 5e 45 93 3e f3 72 d1 be e7 14 27 bf
       0.107268326 0.2876386 -0.40908012 -0.6526627
000180 ac 70 ec 3d f2 a7 ff 3e 06 56 25 bf ef 7a 0d bf
       0.11544928 0.4993282 -0.64584386 -0.55265707
000190 38 9e 78 3f 9a 72 dd be 9f c6 bb 3e 27 6b 16 3f
       0.9711642 -0.43251497 0.36674973 0.5875725
0001a0 96 24 4c bf 65 2a 58 bf 27 38 6e 3f 45 20 a1 bd
       -0.79743326 -0.8443969 0.9305443 -0.07867483
0001b0 8e 29 f8 3e 34 0d 16 3e 33 7a e1 3e 88 15 81 3f
       0.48469204 0.14653474 0.44038543 1.0084696
0001c0 fa bd 0b 3f 17 e4 ef be 8e 1e ac bd a9 b5 45 3f
       0.54586756 -0.46853706 -0.08404265 0.77230316
0001d0 03 23 03 3f 8e e9 e0 3e d2 01 03 bf 50 5a 02 bf
       0.512253 0.43928188 -0.5117465 -0.50919056
0001e0 dc fa 3e bf 90 ec 1e 3f 56 e7 4a 3f 53 4c f3 bc
       -0.7460153 0.62079716 0.7925924 -0.02969948
0001f0 82 ad 9e 3e f3 a2 10 bf 58 af 8a bf 89 d3 f4 bd
       0.3099175 -0.5649864 -1.0834761 -0.1195441

Linear1.bias f4 [64]
000000 1b e8 4c 3e 0f 45 03 3f 22 58 f0 be c5 08 d9 3d
       0.20010416 0.5127725 -0.4694224 0.10597376
000010 34 98 e2 3e b7 4d 19 3e 4b db b0 3e 53 66 54 3e
       0.44256747 0.14971052 0.34542307 0.20742159
000020 64 51 0f 3e 43 aa 98 3d c0 91 f7 be 35 03 18 bf
       0.13995892 0.0745435 -0.48353386 -0.59379894
000030 c1 e4 a5 be 24 50 a3 bd 76 71 ed be 88 95 46 3e
       -0.32401088 -0.0797427 -0.46375626 0.19392979
000040 36 02 4a 3e de e1 11 be 04 d1 fc 3d 0d 2e f1 3d
       0.19727406 -0.14246318 0.12344554 0.117763616
000050 4b 8d a2 3e f2 0e 2c 3e fb 3e 89 be 63 70 0a 3f
       0.31748423 0.16802576 -0.26805863 0.5407774
000060 28 b1 cb bd 74 b5 b7 bc 4c dc 2a bf 73 31 ca be
       -0.09945899 -0.02242539 -0.66742396 -0.39490852
000070 16 81 d3 be 61 96 96 be 1e 19 ae 3e f2 3c c3 bd
       -0.41309422 -0.29411605 0.34003538 -0.09533109
000080 b8 45 07 bf 02 cd 6f 3d 5c fa fa 3d 0c ab a5 3e
       -0.5284076 0.05854512 0.122547835 0.3235706
000090 4d 58 bb be eb 08 02 3e cd 51 70 be 64 f1 a8 bd
       -0.36590806 0.12698714 -0.23468705 -0.082491666
0000a0 f4 41 10 bf ca 00 a5 be 02 fe 37 bd 6e 3c 01 3e
       -0.56350636 -0.32227165 -0.044919975 0.12620708
0000b0 43 ee e5 3d cb 4e 0b 3e be 95 13 3f 41 74 ff 3e
       0.112270854 0.13604276 0.57650363 0.49893382
0000c0 35 8a 21 3e b7 0d 23 bd 87 aa 8e be a4 11 95 3e
       0.15775378 -0.039808 -0.27864477 0.2911502
0000d0 14 2c 92 bd ca 49 88 3c ae f2 1b bf 7c ad 11 bd
       -0.071373135 0.016636748 -0.60917175 -0.03556584
0000e0 4a a1 14 bf 3c 23 e4 3e ba 7e 1c bf f8 19 0d bf
       -0.5805861 0.44558132 -0.6113087 -0.5511775
0000f0 da 08 5e bc 6b 51 e1 be d6 c5 22 3e aa 27 40 be
       -0.013551915 -0.4400743 0.15895781 -0.1876513

Linear2.weight f4 [64, 64]
000000 1e 09 91 bd ca 74 aa 3b 03 3e 92 3d 54 d2 9b bd
       -0.07081817 0.0052019106 0.07140734 -0.07608476
000010 7a 53 4e 3d cf f4 94 3d bd 25 e3 3d c2 a0 bb bd
       0.05037258 0.07273256 0.110911824 -0.091615215
000020 a6 13 b1 3c 7d a8 f4 bd 60 8f da 3d a8 9b 46 bd
       0.021615814 -0.11946199 0.10671878 -0.04848829
000030 ca 33 9a 3d 90 dc 04 3e 87 f7 11 bd 67 2b be bb
       0.07529409 0.12974763 -0.03563645 -0.005803514
000040 b9 cd a0 3b 99 be 8e 3e 94 75 82 3b b4 b2 a3 3c
       0.0049073366 0.2787979 0.0039813016 0.019982673
000050 29 d8 02 be 39 d3 a3 3d 51 db a9 3d 08 96 cf 3d
       -0.12777771 0.07999272 0.082937844 0.10136038
000060 98 bd c5 3d c1 1e 57 be 64 cc 3d bd bf 1e c7 3d
       0.09655303 -0.21007825 -0.0463375 0.09722661
000070 0e fc c2 bd 9f 03 70 3e 67 a8 c4 bd b5 d1 4d be
       -0.09520732 0.23438881 -0.09602433 -0.20099528
000080 38 4e 7a 3d ad 3f ba bd 2c 25 eb bc a1 a2 a1 3d
       0.06110975 -0.090941764 -0.028704248 0.07892347
000090 56 c6 ca 3d d6 af dd 3d 6c 83 fa 3c 77 11 bf 3d
       0.09901111 0.10824554 0.030580245 0.09329503
0000a0 76 0f fc 3d 88 23 da bc ea b7 35 bc 42 8b 7e 3d
       0.123076364 -0.02662827 -0.011091212 0.062144525
0000b0 64 4d b2 bd a9 ff 88 3d 09 20 93 3d 6b 9f cc bd
       -0.08706167 0.06689388 0.071838446 -0.09991344
0000c0 e1 fa dd bd 92 29 30 be 79 94 1c bd 2d 73 3f bc
       -0.10838867 -0.17203358 -0.038227532 -0.011685175
0000d0 e9 fc a5 be fe 9f 8d bd 66 9f f0 bd 66 c8 eb be
       -0.32419518 -0.06915282 -0.11749153 -0.4605133
0000e0 4b 46 a5 bd 76 82 cb 3d 5e aa e1 3d cc e8 2d bd
       -0.08070048 0.09936993 0.11018823 -0.04245834
0000f0 96 cb 29 be ff 23 da 3d 01 6e 87 bb c5 85 5f be
       -0.16581568 0.10651397 -0.0041329865 -0.21828373
000100 9d 5e 66 3d e5 a9 7e 3d c0 62 ed bb b8 65 ef bc
       0.056242574 0.062173743 -0.007244438 -0.029223308
000110 27 f9 c7 3d 26 7c be 3d bc 12 b2 bd 82 d2 d8 3d
       0.09764319 0.09301023 -0.086949795 0.10587026
000120 f0 9d 80 3c 77 5a cc bd 3a 23 8c 3d 82 1f bf bd
       0.01570031 -0.09978192 0.068426564 -0.093321815
000130 96 86 ec 3d bc 04 81 be d4 ce 10 3d 8c c6 c8 3c
       0.11549108 -0.25198925 0.035353497 0.024508737
000140 2f c0 6f 3c 46 f7 95 3d fd 64 8f bd 17 85 8c bd
       0.0146332225 0.07322554 -0.07001684 -0.068613224
000150 f8 b4 ff bd 07 05 ad bc 80 8b 72 bd fd 65 22 bc
       -0.12485689 -0.021120561 -0.05921507 -0.009912011
000160 b1 1f ac bc df 47 cf bc a4 75 dd 3d c3 9b a0 3d
       -0.021011205 -0.025302825 0.10813454 0.07842209
000170 90 ef 24 bd 73 72 9d bc 3f db fc bd 83 64 d4 3d
       -0.040267527 -0.019219613 -0.123465054 0.103707336
000180 98 fc c1 bc d7 e8 29 3c 14 a0 41 bc 56 3b c4 bd
       -0.023680016 0.010370455 -0.011817951 -0.0958163
000190 a8 2c 90 3d 47 aa 68 3d 34 db 21 3d 7f 26 ad bd
       0.070397675 0.056803014 0.03951569 -0.08454608
0001a0 5c 8d 59 bd 00 a0 e1 3a 77 b4 bb bd 29 b2 af bd
       -0.053113326 0.0017213821 -0.0916528 -0.08578903
0001b0 db 04 02 bd e0 bd 54 bd ea b3 7b 3c ff 41 46 bd
       -0.03174291 -0.05193889 0.015362719 -0.048402783
0001c0 a8 f4 01 bd 71 14 c8 bd e1 56 e1 bd ab 14 c0 3d
       -0.031727463 -0.09769524 -0.11002899 0.09378942
0001d0 1f 30 40 3d 09 0b 84 3e 68 07 a5 bc cc 56 aa 3b
       0.04692089 0.2578967 -0.020145133 0.0051983353
0001e0 58 0c fe bd c2 10 81 bd ac e0 a7 3d f2 bc fa bd
       -0.12404698 -0.063020244 0.0819715 -0.1224307
0001f0 4c 9c dd 3d ee e8 b1 3d c7 36 61 3d 4c 0b 46 3d
       0.10820827 0.08687006 0.05498388 0.048350617
000200 87 86 3f bd 15 c9 ff bc 79 b1 15 bd be 38 80 bd
       -0.046759155 -0.031223813 -0.036546204 -0.06260823
000210 a9 fa f4 3c f7 e4 82 bd c5 d2 be bd 5f 5d 08 3c
       0.02990468 -0.06391328 -0.09317545 0.008323043
000220 a4 cf e1 bd 29 57 56 bd ca d1 82 3d 78 59 3f 3d
       -0.110259324 -0.052329216 0.0638767 0.046716183
000230 4c f1 d9 3d 2e 30 1e be 4b 31 a6 bc 96 64 72 bd
       0.10641727 -0.15448067 -0.020287177 -0.059177957
000240 f1 41 ab bd c2 7c 15 be 47 83 bf 3b ca 70 f8 bb
       -0.08362187 -0.14598373 0.005844507 -0.007581805
000250 b0 7b b1 bd ad 1e dd bd d7 2a 00 be eb a0 cd 3d
       -0.0866617 -0.107968666 -0.12516342 0.10040458
000260 12 b6 82 bc ef 2e 8b bd 88 45 3c bd 91 08 fc bd
       -0.015955959 -0.06796061 -0.045964748 -0.123063214
000270 78 1d ea bd 80 49 96 bd e4 9e 63 3d 81 1f df 3d
       -0.11431402 -0.07338238 0.05557145 0.10894681
000280 c8 9c 34 bd 0a b4 81 bd 47 33 83 3d 46 b8 88 3d
       -0.04409483 -0.06333168 0.06406265 0.06675772
000290 a2 a3 f6 3d d9 bd 3f 3c 8f ed 4b bb bb 3a 95 3c
       0.12042929 0.011702978 -0.0031116938 0.018216481
0002a0 ae aa 95 bd 6c cc fa bd db 23 73 3c 49 2b 11 bd
       -0.07307945 -0.12246022 0.014840092 -0.03544167
0002b0 af b9 ea 3c 0e db 53 bc fb c0 0e be 02 8b a8 bd
       0.028652994 -0.012930645 -0.13940804 -0.08229639
0002c0 60 35 80 3c 9f 3e 1d be c5 41 1c be 0c 5d b6 3c
       0.015650451 -0.1535592 -0.15259464 0.022261165
0002d0 77 95 ba bd aa 19 b8 3d 58 d5 4e 3d 82 d9 40 3e
       -0.091105394 0.0898927 0.05049643 0.18832973
0002e0 c0 d3 3c bd 10 9a b6 3d 12 6e 80 3d 80 93 80 3c
       -0.046100378 0.08916104 0.06270994 0.015695333
0002f0 02 ad 00 3d c0 f8 6a bd 32 82 95 3d 4b b4 d7 be
       0.031414993 -0.057366133 0.073002234 -0.4212974
000300 0a 6f a5 bd 88 22 a4 3d 5c d6 35 3d 70 68 fd 3c
       -0.0807782 0.08014399 0.044393882 0.030933589
000310 08 0a cb bc ac c7 1f bd 70 c5 ad 3c f8 1a c6 3d
       -0.024785057 -0.03900878 0.02121231 0.09673113
000320 18 a4 92 3c 20 19 72 bd b0 4e fe 3d 00 34 2f 3b
       0.017900512 -0.059105992 0.12417352 0.0026733875
000330 5c 5f ca 3d b0 91 f9 3c 9e 77 e5 3d 8e b4 93 3d
       0.098814696 0.030464977 0.11204456 0.072121724
000340 08 84 82 bd 1c d4 b3 3d 00 cd 52 3a e2 7e cd bd
       -0.06372839 0.08780691 0.00080414116 -0.100339666
000350 38 93 d6 bc 96 11 e7 bd 58 a2 84 bd 0e 5c b5 bd
       -0.026193246 -0.11282651 -0.06476277 -0.08855449
000360 74 17 af 3d 58 21 d7 bc 70 ec b0 bc b8 5b 75 3d
       0.08549395 -0.026261017 -0.021597117 0.059901923
000370 74 5e 50 3d a8 f3 a8 bd 94 b0 3c 3d 58 82 59 3d
       0.050871328 -0.08249599 0.046066836 0.05310282
000380 4a 8c cb bd 6c 93 de 3d 68 c5 9b bd d0 37 48 bd
       -0.099388674 0.10867962 -0.07606012 -0.048881352
000390 10 dd d2 bd 76 fa e9 3d d0 fc c2 3c 98 8f d7 3d
       -0.102960706 0.11424725 0.023802191 0.10525435
0003a0 70 bc 05 3c ae 25 8b 3d 64 79 23 bd 06 3b cc bd
       0.008162603 0.06794296 -0.03991069 -0.09972195
0003b0 58 61 a4 3c 40 a3 36 bc e0 c8 4e bc 68 73 7b bd
       0.020065948 -0.01114732 -0.0126211345 -0.061389357
0003c0 c0 96 29 3b c0 09 13 3d f4 b3 38 3d 76 39 ce bd
       0.0025877208 0.03589797 0.04509349 -0.100695536
0003d0 88 5b 77 3d 10 9a 52 3c 56 91 b0 3d 34 eb b4 3d
       0.060390025 0.012854114 0.08621471 0.08833924
0003e0 90 9a c9 bd 8a d7 f5 3d 6e c3 fb bd 68 2a 93 3d
       -0.098439336 0.120040014 -0.12293135 0.07185823
0003f0 90 25 10 3c 6c 48 72 3d aa 6f 8a bd 02 e8 99 3d
       0.008798018 0.059151098 -0.067595795 0.07514955

Linear2.bias f4 [64]
000000 39 cc d3 bd 0a 2a 38 3c b5 85 6d 3c 7a 97 b1 bd
       -0.10341687 0.011240492 0.01449721 -0.0867147
000010 2e 9d 85 bd 00 5c 39 3a c4 86 8f 3c 00 ce 21 ba
       -0.0652412 0.0007070899 0.017520316 -0.0006172359
000020 1f 37 7d 3d 3e c7 d8 3d 5c 6f 01 3d 6e 41 f7 bd
       0.061820146 0.105848774 0.03160034 -0.120730266
000030 8b cc a2 bd bc bf 43 bb aa 01 e7 bc 08 23 ba bd
       -0.0794917 -0.0029868921 -0.028199036 -0.09088713
000040 13 72 10 be 42 95 95 bd e5 65 cc bd 68 01 0b 3c
       -0.14106016 -0.07303859 -0.09980372 0.008484222
000050 55 d6 a9 bd ee 15 87 bd 2a 3b 88 3d b8 55 b1 bc
       -0.08292834 -0.0659598 0.0665191 -0.02164732
000060 90 0a e1 bc 97 9e d8 3d 30 ae b5 bd bc d2 05 3d
       -0.027470857 0.105771236 -0.08871114 0.032671675
000070 fd 53 2a 3c 51 c3 16 be 6b d4 8c 3d 64 4a 90 bd
       0.010396001 -0.14722945 0.06876453 -0.07045439
000080 42 c2 92 bd 0e ec b8 bd 38 4e 06 be f7 46 5a 3d
       -0.07165958 -0.09029399 -0.13115776 0.053290334
000090 39 c8 5b 3d 05 6c 7d bc 4b 49 ac bc 7f 2f 9b 3d
       0.053657744 -0.015467648 -0.021031043 0.075774185
0000a0 3c c8 36 bd 54 8c b0 bd 8e e1 cd bd b0 6b 90 3c
       -0.044624552 -0.086205155 -0.10052787 0.017629474
0000b0 87 80 e9 bd ed cd 1f 3d 7f 0d 1b be 6c 43 06 bd
       -0.11401468 0.039014746 -0.15141867 -0.032779142
0000c0 20 44 0b be ad 3b f1 bd bc cf d0 bd 22 c7 a2 bd
       -0.13600206 -0.117789604 -0.10195872 -0.07948138
0000d0 aa 0b 84 3d e6 d3 59 bd 07 04 0e be 60 0f fe 3d
       0.06447537 -0.053180598 -0.13868724 0.12405276
0000e0 1f 46 16 3c ac 41 d1 bd da ba d3 bd a9 17 92 bc
       0.009171992 -0.10217604 -0.103383735 -0.017833548
0000f0 a8 e3 44 bd 57 0b 4d 3c 50 4f da bd 48 1c 0c be
       -0.048068672 0.012514911 -0.10659659 -0.13682663

Linear3.weight f4 [2, 64]
000000 34 0c d6 3b ee f7 3d 3b de 18 9e 3c 00 0f 0f bd
       0.0065322164 0.002898689 0.019298967 -0.034926414
000010 97 b2 a8 bd ca 1c aa 3d a0 c1 2b 3c be a1 bf 3d
       -0.08237188 0.08306272 0.0104831755 0.09357022
000020 f7 70 bd bb 1f e0 04 3d 08 6f e9 bc a1 4d c9 bc
       -0.0057812887 0.0324403 -0.028495327 -0.02457315
000030 d9 4b 6a ba fc b1 b5 3d a1 a4 04 3e d5 01 60 3b
       -0.0008937694 0.088718385 0.12953426 0.003418078
000040 2c 7b bd 3b a0 91 b8 bb 90 5d a1 3c 12 38 fe bc
       0.0057825055 -0.005632594 0.019697934 -0.031032596
000050 84 c1 44 3d 52 f7 d2 3d 1a 0b 89 3d 45 49 b1 3d
       0.048036113 0.10301079 0.066915706 0.08656553
000060 be 62 54 3d 54 d6 ee 3d 16 b5 81 bd 2c 92 39 bd
       0.05185198 0.116619736 -0.063333675 -0.045305416
000070 a1 bc 4c be e8 65 62 bd 23 08 a6 3d 00 db 4f be
       -0.19993831 -0.055272967 0.08107021 -0.20298386
000080 7c a5 97 3c 17 3d 3a 3d af 40 1b bc 32 f3 be 3d
       0.018511526 0.045468416 -0.009475871 0.093237296
000090 c0 d2 3d bd 56 7d 45 3d 24 39 17 3e 7e 71 d6 bd
       -0.046343565 0.048215233 0.14767891 -0.10470866
0000a0 00 a4 cf ba f4 49 c6 3d 25 9c b9 bd 26 99 84 bd
       -0.0015841722 0.09682074 -0.09062985 -0.06474523
0000b0 75 20 b7 bd 98 4d 0c 3e 54 1b 06 3d d0 48 ab 3c
       -0.089417376 0.13701475 0.032740906 0.020908743
0000c0 3c c0 1c 3d 02 ae be bd 54 eb 67 3d 88 79 76 bd
       0.038269266 -0.09310533 0.05662091 -0.060174495
0000d0 23 bc 4a 3d 6e 6b 02 bd 53 c6 a2 bc 04 82 f7 bd
       0.049495827 -0.031840734 -0.019869959 -0.120853454
0000e0 12 25 5d be 70 c7 14 bd 0e 6a a1 be 65 3b af bd
       -0.21596172 -0.03632301 -0.31526226 -0.085562505
0000f0 64 a6 ca 3d cc b2 99 bd 78 b5 dd 3c a9 b1 1f 3d
       0.09895018 -0.07504806 0.02706407 0.03898779
000100 f9 12 bb 3a 22 29 26 bd 9c 8f 78 bc b0 02 2f 3c
       0.0014272622 -0.04056657 -0.015170958 0.010681793
000110 00 f9 5a bc 00 67 52 3a 00 b3 2e 3d dc 79 e5 bd
       -0.01336503 0.00080262125 0.042651176 -0.112048835
000120 ae c7 8b 3d a0 96 8b 3d 4c c5 dc bd a8 4e e3 bd
       0.06825195 0.06815839 -0.10779819 -0.11098987
000130 8d da a0 bb 4d 3f eb 3d bf d3 8a 3e a5 d8 4a 3b
       -0.004908866 0.11486683 0.27114674 0.0030951884
000140 01 ee 00 bd c1 d5 b8 3d f7 6b ca 3d 4b db db bb
       -0.03147698 0.09025145 0.09883874 -0.0067094914
000150 de 9d d2 bd cb 5d 06 3c a7 67 f1 3d 15 c3 2f 3d
       -0.10284017 0.008201073 0.11787348 0.042910654
000160 ae 82 b0 bd f5 cf 3e 3d 88 07 4a bd 4e 21 a0 3d
       -0.08618675 0.046585042 -0.04932359 0.07818852
000170 28 c7 92 be e2 9f d8 3d 4c b6 a6 3d 7a df 17 be
       -0.2866757 0.1057737 0.08140239 -0.14831343
000180 b0 24 28 bd c0 36 f0 bb ae 6b 7e 3c da 53 c2 bd
       -0.041050613 -0.0073307455 0.0155286025 -0.0948865
000190 10 09 aa 3c ba 33 8a 3d bc cb fa 3d 93 a4 33 3e
       0.020756274 0.06748147 0.122458905 0.17543249
0001a0 30 69 81 bd 4e d8 fe bd 78 ea 49 bd e2 10 91 bd
       -0.06318891 -0.124436006 -0.049295872 -0.07083298
0001b0 5c a2 18 3d f9 4b df 3d 7d 0d b6 bd 80 a9 b4 bd
       0.037264213 0.109031625 -0.088892914 -0.08821392
0001c0 28 00 92 bd c4 b1 27 3d 94 db 00 3d 80 de 1a 3c
       -0.07128936 0.040941015 0.031459406 0.009452462
0001d0 c9 10 e2 bb 72 6d db 3d 1c 0a 8f 3c fc 8e 27 be
       -0.0068989736 0.107142344 0.017460875 -0.16363138
0001e0 8c ce 4b be 48 88 08 3d c9 da 7e be 28 0b 99 3c
       -0.1990301 0.033333093 -0.24888147 0.018682078
0001f0 e8 f8 82 3d 62 55 e7 bd 84 3b b1 3d df 78 6b bd
       0.06395131 -0.11295582 0.0865393 -0.05748832

Linear3.bias f4 [2]
000000 6c b3 cb 3c 1c 03 8f 3d
       0.024865828 0.06983015
