DRQN_POMDP_Random_SEED_1.pth (torch_old, 135709 bytes, 8 tensors)

Linear1.weight f4 [64, 2]
0	0x3e481c0f	0.19541954
1	0xbfc2cdb9	-1.5219032
2	0xbd0b924a	-0.03407506
3	0x3f9a9ad5	1.2078501
4	0xbf778d5c	-0.9670007
5	0x3d181915	0.037133295
6	0x3cf149d7	0.029454155
7	0x3f973506	1.1813056
8	0xbcf036a9	-0.029322939
9	0xbe9d2846	-0.3069479
10	0x3d9bb179	0.076022096
11	0x3ec02f54	0.37536108
12	0x3ae69849	0.0017592992
13	0xbf9f2c1c	-1.2435336
14	0xbcd10894	-0.025516786
15	0xbe4f528b	-0.20246331
16	0x3c8c629d	0.017136866
17	0xbf8781c4	-1.0586476
18	0x3fefc997	1.8733395
19	0x3dd7f37f	0.1054449
20	0xbe45deb3	-0.19323234
21	0xbec67465	-0.38760677
22	0xbdf2bbc0	-0.11852217
23	0xbe9c2979	-0.3050039
24	0xbe204745	-0.15652187
25	0x3ddf51b8	0.109042585
26	0x3f8858f4	1.0652146
27	0x3f8bee9b	1.0932192
28	0xbf4fb15c	-0.81130004
29	0x3eae0851	0.3399072
30	0x3c849501	0.016184332
31	0x3fb9cc10	1.45154
32	0x3f894935	1.0725466
33	0xbfdb0f0f	-1.711397
34	0xbfc12c42	-1.5091631
35	0xbf5c34b2	-0.86017907
36	0x3f51e285	0.81986266
37	0xbf622796	-0.88341653
38	0x3c2541e2	0.0100865085
39	0xbfb83f3b	-1.4394296
40	0x3f378487	0.71686596
41	0xbf92c146	-1.1465232
42	0x3eb921d7	0.3615863
43	0x3e0eeac8	0.1395675
44	0xbf23fdd6	-0.640592
45	0xbe7e58e5	-0.24838598
46	0xbf068502	-0.52546704
47	0x3e87b795	0.2650725
48	0xbef26a0f	-0.4734654
49	0xbf8720f2	-1.0556929
50	0xbfb4444a	-1.408334
51	0xbfdaa9f0	-1.7083111
52	0x3e9ef3ba	0.31045324
53	0xbe03f000	-0.12884521
54	0x3f786680	0.970314
55	0x3fe5abf8	1.7943106
56	0xbd079da0	-0.033109307
57	0xbef1a79a	-0.47198182
58	0x3f0418d2	0.5160037
59	0x3fbb1ee2	1.46188
60	0xbf33c5ee	-0.7022389
61	0x3f1992f8	0.5998988
62	0x3e493353	0.19648485
63	0x3fe81ac9	1.8133174
64	0xbf0e4b27	-0.55583423
65	0x3e55caa5	0.20878084
66	0xbe12b28f	-0.14325927
67	0x3edee132	0.43531185
68	0xbf63c3b5	-0.889705
69	0xbfdab197	-1.7085446
70	0x3ebd8e84	0.37022793
71	0xbf561365	-0.83623344
72	0x3ec30181	0.38087085
73	0x3e6cad9e	0.23113105
74	0x3f0e1325	0.5549796
75	0x3f8de9a1	1.1086923
76	0x3e87d488	0.26529336
77	0x3ec96d9a	0.39341432
78	0xbfa55ff7	-1.2919911
79	0x3fb47f16	1.4101284
80	0xbf0c885b	-0.5489556
81	0xbf96a028	-1.1767626
82	0x3d302320	0.043002248
83	0xbdf6c6a8	-0.120496094
84	0x3ee76a75	0.45198408
85	0xc0058a3b	-2.086562
86	0xbf3291dc	-0.69753814
87	0x3fe8405c	1.8144641
88	0xbee25e25	-0.44212452
89	0x4000a252	2.0099072
90	0x3f942120	1.1572609
91	0xbfe722c3	-1.8057483
92	0x3ca6a90c	0.02034428
93	0xbdbfca7a	-0.09364791
94	0xbedd0ea2	-0.43175226
95	0xbfce3d48	-1.6112452
96	0x3eb67286	0.3563425
97	0x3f9e1bdf	1.2352256
98	0xbe41b9c5	-0.18918522
99	0xc01eab4c	-2.4792051
100	0x3f601eb2	0.8754684
101	0x3ea2a992	0.31769997
102	0x3ef695ad	0.4816107
103	0x3f5b37c6	0.8563198
104	0xbe21fa80	-0.15818214
105	0xbff403ab	-1.9063619
106	0x3f67257a	0.9029156
107	0xc001e66b	-2.0296886
108	0x3f0c4e87	0.54807323
109	0x3e7f57c6	0.24935827
110	0xbbf6b758	-0.0075291805
111	0x3ff19472	1.8873427
112	0x3f5e320b	0.8679511
113	0x3f125259	0.571569
114	0x3ddecdcf	0.108790986
115	0x3f97b006	1.1850593
116	0x3f3fae35	0.74875194
117	0x3f5fd12c	0.87428546
118	0xbf2be0c0	-0.67139816
119	0xbfa96987	-1.3235329
120	0xbf4dfa37	-0.8045992
121	0x3fd7cf74	1.6860185
122	0x3f57e42f	0.84332556
123	0xbedaa1e6	-0.42701644
124	0x3e903111	0.28162435
125	0xc00136f8	-2.01898
126	0xbf6a7dd3	-0.9159824
127	0xbfa85fc9	-1.3154231

Linear1.bias f4 [64]
0	0xbd80220d	-0.06256495
1	0x3e8404c0	0.25784874
2	0xbd8fdb1a	-0.07024212
3	0x3e76c7f2	0.2409971
4	0x3dae1f59	0.08502073
5	0x3dc7fec6	0.09765391
6	0x3e87b6d6	0.2650668
7	0xbdbf3962	-0.09337117
8	0x3e6e901b	0.2329716
9	0x3dc5c771	0.09657181
10	0xbf0c42e0	-0.54789543
11	0xbf180335	-0.59379894
12	0xbec84634	-0.3911606
13	0xbc8c4bfc	-0.017126076
14	0xbeae3398	-0.34023738
15	0x3e96e084	0.29468167
16	0x3d95e642	0.07319309
17	0x3dcb598e	0.099291906
18	0x3ce9fac5	0.028561959
19	0x3ea03444	0.31289876
20	0x3e031d79	0.12804212
21	0x3d87e945	0.066362895
22	0xbd0e6d13	-0.03477199
23	0x3e48de12	0.19615963
24	0x3bfc9b98	0.007708978
25	0x3e217688	0.15767872
26	0xbf3c25a8	-0.7349496
27	0xbb774241	-0.00377287
28	0xbed38116	-0.41309422
29	0xbd961d3f	-0.07329797
30	0x3e577c75	0.2104357
31	0x3d11acd5	0.035565216
32	0xbf0a5544	-0.54036355
33	0x3d46e018	0.048553556
34	0x3e0cdf53	0.13757066
35	0x3e655d9e	0.22398993
36	0xbedf27d5	-0.43585077
37	0x3d1eda6b	0.03878252
38	0xbef7ba78	-0.48384452
39	0xbc9764e5	-0.018480727
40	0xbf0c7eb6	-0.54880846
41	0xbea500ca	-0.32227165
42	0x3db5f1d8	0.08884019
43	0x3d5b2ceb	0.053509634
44	0xbd28148e	-0.041035227
45	0x3d88cb90	0.066794515
46	0xbd681a4c	-0.056665704
47	0x3e397a01	0.18112947
48	0x3e2fea9a	0.17179337
49	0x3cdae50c	0.026720546
50	0xbe8b5d45	-0.27219597
51	0x3e5bc633	0.21462326
52	0x3d7cf925	0.06176104
53	0x3c69fefa	0.014281983
54	0xbf2a4d83	-0.66524523
55	0xbcf82182	-0.030289415
56	0xbe468a12	-0.19388607
57	0x3e5863b8	0.2113179
58	0xbeb9945b	-0.36246
59	0xbea78010	-0.3271489
60	0xbd838e50	-0.06423628
61	0xbe61979b	-0.22030489
62	0x3af5f406	0.0018764741
63	0xbd0917b2	-0.033469863

lstm.weight_ih_l0 f4 [256, 64]
0	0xbd9bcf9f	-0.0760796
1	0xbe0ce9fc	-0.13761133
2	0x3ec09b50	0.37618494
3	0xbe9c2a15	-0.30500856
4	0xbe0347bc	-0.12820333
5	0xbd92d4c8	-0.07169491
6	0x3c884155	0.016632715
7	0xbe912dc8	-0.2835524
8	0xbde3c8df	-0.111222975
9	0xbe1bfc96	-0.15233073
10	0x3dd5652b	0.10419687
11	0xbd469ba8	-0.04848829
12	0x3d984b50	0.0743624
13	0xbe008c1e	-0.1255345
14	0x3eb9bc0f	0.3627629
15	0xbe508baf	-0.20365785
16	0x3d556e01	0.05210686
17	0x3eb7e38e	0.35915798
18	0x3d8ab778	0.06773275
19	0xbd1ee9e2	-0.038797267
20	0xbe08b273	-0.13349323
21	0xbd499d49	-0.049222264
22	0x3e8fc8c5	0.28082862
23	0xbda39e96	-0.07989232
24	0x3e36635b	0.17811339
25	0xbe840b61	-0.2578993
26	0xbd3d9164	-0.046281233
27	0x3ed88436	0.4228837
28	0xbdc2fc0e	-0.09520732
29	0x3ed73ffa	0.42040998
30	0xbe477f28	-0.194821
31	0xbeec4f15	-0.46154085
32	0x3f431ba1	0.76214033
33	0xbe8da679	-0.2766607
34	0xbc84cc5b	-0.016210726
35	0xbc1bcbe0	-0.009509057
36	0xbcbb396a	-0.022854526
37	0xbd0fea79	-0.03513572
38	0xbe9057ee	-0.28192085
39	0xbec050c4	-0.3756162
40	0xbe9d2a01	-0.3069611
41	0xbcda2388	-0.02662827
42	0x3bfae8ad	0.0076571316
43	0xbd7f47d4	-0.06232436
44	0xbe07f4f9	-0.13277043
45	0x3dfed7b8	0.12443489
46	0xbda25dc2	-0.07928039
47	0xbe849a64	-0.2589904
48	0xbe515ef7	-0.20446382
49	0x3bbdde07	0.00579429
50	0x3ea3ed09	0.3201678
51	0xbdebee49	-0.11520059
52	0xbdec51a6	-0.11539011
53	0x3bd4d31d	0.006494893
54	0xbec4b4e9	-0.38419273
55	0xbe6a6e27	-0.22893582
56	0x3e82ceb4	0.25548327
57	0xbd1dd1c3	-0.038530122
58	0x3e546f85	0.20745666
59	0x3e7fb3d8	0.24970949
60	0xbdbac123	-0.09118869
61	0x3e893c9d	0.26804057
62	0x3d3d0f5f	0.046157237
63	0xbe000319	-0.12501182
64	0x3dd92803	0.10603335
65	0xbd6a3433	-0.057178687
66	0x3e464561	0.19362403
67	0xbe7bf4bb	-0.24605076
68	0x3dab4c1d	0.08364127
69	0xbd0729e6	-0.03299894
70	0xbd1966de	-0.037451617
71	0x3e38d38d	0.1804945
72	0x3d8bc5f1	0.06824864
73	0xbebcdda0	-0.36887836
74	0x3d99f124	0.07516697
75	0xbdbf1f82	-0.093321815
76	0x3df8fd62	0.12157704
77	0xbf2311a1	-0.63698775
78	0x3de7b671	0.11314095
79	0xbe514d94	-0.2043975
80	0x3dcd132e	0.10013424
81	0xbf0e6517	-0.55623
82	0x3ccf75b3	0.025324678
83	0x3ba146a4	0.004921751
84	0xbdd6c9a3	-0.10487678
85	0xbe44b7e0	-0.19210768
86	0x3e25a2d8	0.16175401
87	0x3c621b25	0.013800417
88	0xbe23389a	-0.1593956
89	0xbe838146	-0.25684565
90	0x3de82bcd	0.11336479
91	0xbf040dd7	-0.5158362
92	0xbd24ef90	-0.040267527
93	0xbea4a1fd	-0.32154837
94	0x3d5e970e	0.054343276
95	0xbe08c608	-0.13356793
96	0x3e12e98f	0.14346908
97	0xbdc6d5f2	-0.097087756
98	0x3ee4d1bd	0.44691268
99	0xbe04c807	-0.1296693
100	0xbe80c720	-0.2515192
101	0xbe9f7d90	-0.31150484
102	0x3b9a6a06	0.004712346
103	0x3f2404a6	0.6406959
104	0xbda61c85	-0.081109084
105	0x3ae1a000	0.0017213821
106	0x3e133803	0.14376836
107	0x3e4884c8	0.19581902
108	0x3e4afb95	0.19822533
109	0x3e0796fd	0.13241191
110	0xbd22804e	-0.039673142
111	0x3e06eb68	0.13175738
112	0xbe8db16f	-0.27674434
113	0x3f4ce063	0.80029887
114	0x3e35351b	0.1769604
115	0xbdc632c9	-0.09677655
116	0x3e02b428	0.12764037
117	0x3ef553bf	0.47915456
118	0xbea32bbf	-0.31869313
119	0x3e755345	0.23957546
120	0x3ddf0c4a	0.10891016
121	0xbe5fd881	-0.21859933
122	0x3e9bd6ce	0.3043732
123	0x3d97f535	0.074198164
124	0x3ea002a8	0.31252027
125	0xbce9e8f9	-0.028553473
126	0x3e29ede6	0.16594657
127	0xbcf88b7b	-0.030339947
128	0xbe62d471	-0.22151352
129	0xbea42b5b	-0.32064328
130	0x3ea8c378	0.3296163
131	0xbf495414	-0.7864392
132	0xbdab7e63	-0.08373716
133	0xbe6f92cd	-0.23395844
134	0xbcac2fb6	-0.021018844
135	0xbe4db3f5	-0.2008818
136	0xbde271be	-0.11056851
137	0xbe27ad8a	-0.16374794
138	0x3d82d1b4	0.06387654
139	0x3d3f5978	0.046716183
140	0x3dd9f14c	0.10641727
141	0xbf413267	-0.7546753
142	0x3f331bbe	0.69964206
143	0xbf0605b9	-0.5235248
144	0xbdbdda34	-0.092701346
145	0x3ea00ec9	0.3126128
146	0xbe0b1d4d	-0.13585396
147	0x3de7eaaf	0.11324059
148	0xbd30b222	-0.04313863
149	0xbe6e94e9	-0.23298992
150	0xbd84e1a9	-0.06488354
151	0xbd1d0bdd	-0.03834139
152	0xbf14bea7	-0.5810341
153	0xbf459b69	-0.7719026
154	0xbd4fb0c1	-0.050705675
155	0xbf5f4950	-0.8722124
156	0xbdea1d78	-0.11431402
157	0xbf8dcf4d	-1.1078888
158	0xbde777f3	-0.113021754
159	0xbf718f3c	-0.94359183
160	0x3e235919	0.15951957
161	0xbe8b1189	-0.27161816
162	0xbec30dff	-0.38096616
163	0x3d22de2a	0.039762653
164	0x3e30592b	0.17221515
165	0xbeadecfb	-0.33969864
166	0xbdc0d78c	-0.09416112
167	0xbfc1184f	-1.5085543
168	0x3df519fb	0.11967846
169	0xbdfacc6c	-0.12246022
170	0xbec42912	-0.38312584
171	0xbf08ba67	-0.5340943
172	0xbf4b7000	-0.79467773
173	0xbeb22335	-0.34792486
174	0xbe8d550b	-0.27603945
175	0xbdc38bc0	-0.095481396
176	0xbe8d7c44	-0.2763387
177	0xbf93a8dd	-1.1535908
178	0xbe88eeb9	-0.2674463
179	0xbe53c977	-0.20682321
180	0x3e83dcfc	0.25754535
181	0xbec00e3c	-0.3751086
182	0x3daf11c7	0.08548313
183	0xbfb32ba7	-1.3997697
184	0xbf155e0c	-0.5834663
185	0xbe416fa3	-0.18890242
186	0x3edb7fbe	0.42870897
187	0xbe7f5205	-0.24933632
188	0xbf8dde75	-1.1083513
189	0xbe907c7f	-0.28219983
190	0xbde7903e	-0.11306809
191	0xbf19f163	-0.6013395
192	0xbe43bfa2	-0.19116071
193	0x3e3c9b3f	0.18418597
194	0xbd073f5c	-0.03301941
195	0x3e15f5e4	0.14644581
196	0xbdc05755	-0.09391657
197	0xbd8aca48	-0.06776863
198	0xbe2de45d	-0.16981645
199	0x3dc90231	0.09814871
200	0xbe32b380	-0.17451286
201	0x3e0075bb	0.1254491
202	0x3e005183	0.12531094
203	0x3b2f3400	0.0026733875
204	0x3dd9a6d2	0.106275216
205	0x3e19cdd1	0.15019919
206	0x3cb0dcba	0.021589626
207	0x3e951e41	0.29124644
208	0xbe168527	-0.14699231
209	0x3f13e390	0.5776911
210	0xbd82c946	-0.06386046
211	0xbe59a161	-0.21252967
212	0xbdb79901	-0.0896473
213	0xbe0b90f1	-0.1362951
214	0xbdd65c29	-0.10466797
215	0xbd96c555	-0.07361857
216	0xbd5d9c1c	-0.054103956
217	0xbe917d7d	-0.28416052
218	0xbcca2825	-0.024677346
219	0xbf0fb4ed	-0.56135446
220	0x3d505e74	0.050871328
221	0xbf2e66d6	-0.68125665
222	0x3ebf2c20	0.37338352
223	0xbee28ef5	-0.44249693
224	0x3dd31eca	0.10308607
225	0x3ed02af3	0.40657768
226	0xbeb45f81	-0.35229114
227	0xbe4b8a5f	-0.19877003
228	0xbc8d2fb2	-0.017234657
229	0x3d9b1d90	0.07573998
230	0x3e1b301e	0.15155074
231	0xbe8c0dea	-0.27354366
232	0x3e3b895c	0.18314117
233	0x3d8b25ae	0.06794296
234	0xbf2f2783	-0.68419665
235	0x3d2225a8	0.039586693
236	0x3d053630	0.03252238
237	0xbef3f532	-0.47648007
238	0xbd2ffc4d	-0.042965222
239	0xbe899f85	-0.26879516
240	0x3db5126e	0.08841406
241	0xbf85a153	-1.0439857
242	0xbebf3c09	-0.3735049
243	0xbe16ba75	-0.14719565
244	0xbf13337a	-0.5750042
245	0xbebd5e71	-0.36986116
246	0x3e4adde2	0.19811204
247	0xbf08bde4	-0.5341475
248	0xbe95ae4f	-0.2923455
249	0x3e2fe68c	0.1717779
250	0xbf109591	-0.5647822
251	0x3bc2ddf8	0.005946871
252	0xbdfd97fe	-0.12382506
253	0x3d3c148b	0.04591803
254	0xbe051a51	-0.1299832
255	0x3da58556	0.080820724

lstm.weight_hh_l0 f4 [256, 64]
0	0x3cde23f9	0.027116762
1	0xbdee2ad8	-0.116292655
2	0x3d92f1b3	0.07175007
3	0x3ed0d70c	0.40789068
4	0x3eda54de	0.42642874
5	0x3e837508	0.25675225
6	0xbdf7e0b1	-0.12103403
7	0xbe89ee77	-0.26939747
8	0x3ea43ae8	0.32076192
9	0x3d9f20a4	0.077698976
10	0x3ea4e176	0.32203263
11	0xbea81b94	-0.3283354
12	0x3e811341	0.25210002
13	0x3e2d9b70	0.16953826
14	0xbe6cf408	-0.23139966
15	0xbe3c8819	-0.18411292
16	0x3c047744	0.008085076
17	0xbf06e333	-0.5269043
18	0x3cb9eca0	0.02269584
19	0x3ef54967	0.47907564
20	0xbd849f82	-0.06475736
21	0x3f271c9f	0.6527805
22	0x3db2bc78	0.08727354
23	0x3e92296d	0.2854723
24	0x3ed00224	0.40626633
25	0xbf0471cb	-0.51736134
26	0xbe0fb58f	-0.14034103
27	0xbdc5a01a	-0.096496776
28	0x3e662551	0.22475173
29	0xbd861b4a	-0.06548174
30	0xbe09e9ce	-0.13468096
31	0xbd7825aa	-0.060582794
32	0x3ea1bdd7	0.3159015
33	0xbba4fbb1	-0.0050348868
34	0xbf2c3602	-0.6726991
35	0xbe874ac7	-0.26424238
36	0xbeb06958	-0.3445537
37	0x3e7b3989	0.24533667
38	0x3f01fb78	0.50774336
39	0xbe7b43d1	-0.24537589
40	0x3eb09368	0.34487462
41	0xbd36f7fd	-0.044670094
42	0x3e9df793	0.30852947
43	0x3ea3dcc3	0.32004365
44	0xbdf8be10	-0.121456265
45	0x3c9ac95b	0.018894842
46	0xbe5ab21f	-0.2135701
47	0x3c9c1abc	0.019055717
48	0xbed91bd5	-0.42404047
49	0xbf1a52ed	-0.60282785
50	0x3ae2207a	0.001725211
51	0x3da5638e	0.08075629
52	0xbeacc5b4	-0.33744586
53	0xbeb69067	-0.35657045
54	0xbee6dc55	-0.45089975
55	0x3e07e682	0.13271526
56	0x3e6e3aae	0.23264572
57	0xbebcfc72	-0.3691135
58	0xbe50d399	-0.20393218
59	0xbe671c2c	-0.2256934
60	0xbe877d25	-0.26462665
61	0xbe1041d5	-0.14087613
62	0x3ebf4e69	0.3736451
63	0x3d90aa13	0.07063689
64	0x3e6ed152	0.23322037
65	0xbf69a445	-0.9126628
66	0x3ca5d8c4	0.020244963
67	0xbd8d59e5	-0.06901912
68	0xbe747cfc	-0.23875803
69	0x3d14fc4b	0.036373418
70	0xbde58e45	-0.112087764
71	0xbec4984d	-0.38397446
72	0xbd2b3d1a	-0.041806318
73	0xbeef16fd	-0.46697226
74	0x3f4281da	0.7597939
75	0xbef04209	-0.4692538
76	0xbe497fa2	-0.19677594
77	0xbdaae8ac	-0.0834516
78	0xbea14069	-0.31494454
79	0xbec49b42	-0.38399702
80	0x3f203311	0.6257792
81	0x3ed2c85e	0.41168493
82	0x3ef03530	0.4691558
83	0x3e2c5e59	0.16832866
84	0xbefadac6	-0.48995036
85	0x3e425cc8	0.18980706
86	0x3f4391e0	0.7639446
87	0xbc84d601	-0.016215326
88	0xbf6c810c	-0.9238441
89	0x3e224889	0.15847982
90	0xbebc9adb	-0.36836895
91	0xbed2e2ef	-0.41188762
92	0x3eb87609	0.36027554
93	0x3f0b7722	0.5447866
94	0xbdea75e0	-0.11448264
95	0xbf9ba210	-1.2158833
96	0xbebc9dee	-0.3683924
97	0xbdca0da7	-0.09865885
98	0xbd3385ab	-0.043828648
99	0x3f31d03b	0.6945836
100	0x3ed6d6c4	0.41960728
101	0x3e544848	0.20730698
102	0x3ff46d0c	1.9095778
103	0x3f39fbde	0.72649944
104	0xbeb6534d	-0.35610428
105	0xbd8581a5	-0.06518868
106	0xbf625dca	-0.8842436
107	0xbecde7de	-0.40215963
108	0x3f4e60c6	0.80616415
109	0xbe126ad2	-0.14298561
110	0x3f08b4b5	0.5340074
111	0x3eb0ee8c	0.34556997
112	0x3d9039e3	0.07042291
113	0x3e96461e	0.2935037
114	0xbebf1168	-0.37317967
115	0xbe5fe9cf	-0.21866535
116	0x3eb1e2f2	0.34743458
117	0x3d91e93e	0.071245655
118	0xbdb1b31d	-0.08676741
119	0x3ed6df00	0.4196701
120	0x3e07f14f	0.13275646
121	0xbdfc744c	-0.12326869
122	0x3e84e8b8	0.259588
123	0xbeb3041a	-0.34964067
124	0xbd93b2b1	-0.07211817
125	0x3e1574dc	0.1459536
126	0x3ceb1952	0.028698597
127	0x3f1b8d50	0.607625
128	0xbf115a96	-0.5677885
129	0xbe7d080c	-0.24710101
130	0x3e6ee92d	0.23331137
131	0x3e9ad025	0.30236927
132	0xbf0cbe96	-0.5497831
133	0xbe31de63	-0.1736999
134	0x3ea64cc6	0.32480448
135	0xbe6af542	-0.22945121
136	0xbf4697d7	-0.7757544
137	0xbf86c110	-1.0527668
138	0xbf55b562	-0.83479893
139	0x3ff6b0a3	1.9272655
140	0xbd67e0ea	-0.05661098
141	0x3eba96ea	0.36443263
142	0x3fb2de52	1.3974097
143	0x3f36d3c2	0.71416867
144	0x3c969fb5	0.018386701
145	0xbe68522e	-0.22687599
146	0xbf9b7756	-1.2145793
147	0xbf8f2ad8	-1.118495
148	0x3ee52292	0.44752938
149	0x3e46bbea	0.19407621
150	0xbf149ff4	-0.5805657
151	0x3d7c00fb	0.061524373
152	0x3d633e6a	0.055479445
153	0x3f2f858f	0.6856317
154	0xbda738da	-0.081651405
155	0xbe96b803	-0.29437265
156	0x3dd975f2	0.106181994
157	0x3fcf5e8a	1.6200726
158	0xbddeb8de	-0.10875104
159	0x3f27865b	0.65439385
160	0xbf1a60b7	-0.60303825
161	0xbf130195	-0.5742429
162	0x3f186e06	0.5954288
163	0xbf77a2c1	-0.9673272
164	0x3f37885d	0.7169245
165	0xbe5708cd	-0.20999451
166	0xbe74a324	-0.23890358
167	0xbf0e3611	-0.5555125
168	0x3f5b138b	0.85576695
169	0x3dd5b87f	0.104355805
170	0xbf44bd03	-0.7685091
171	0xbcc5fd23	-0.024168557
172	0xbef2e045	-0.4743673
173	0x3eb0adef	0.345077
174	0x3f2a1b03	0.66447467
175	0x3d2da948	0.042397767
176	0x3f0624d3	0.5239994
177	0x3e626b12	0.22111157
178	0x3f2039e2	0.6258832
179	0xbf3a06e8	-0.7266679
180	0xbf1c0b99	-0.60955197
181	0x3f384e32	0.71994317
182	0xbe88091c	-0.2656945
183	0xbf7375d7	-0.95101684
184	0xbf2c3aaa	-0.67277014
185	0xbe47e106	-0.19519433
186	0xbeb668b5	-0.3562676
187	0x3f30a523	0.6900198
188	0xbf9c5368	-1.2212954
189	0xbe1e4e3a	-0.15459529
190	0xbe73f28d	-0.23822995
191	0x3c32d496	0.010914942
192	0x3e935b13	0.28780422
193	0x3ee6b2b7	0.45058224
194	0x3f18ada5	0.5963996
195	0x3da90462	0.08252789
196	0x3f1340cd	0.57520753
197	0xbf325db3	-0.69674224
198	0xbe8cca97	-0.27498314
199	0xbca662b5	-0.020310739
200	0x3c9da2c3	0.01924265
201	0xbe563a8d	-0.20920773
202	0x3ec20335	0.37893072
203	0xbdf86cce	-0.12130128
204	0xbe9eab3a	-0.3099001
205	0xbef38d05	-0.47568527
206	0x3da8d797	0.082442455
207	0xbedf597e	-0.43622965
208	0xbea4a403	-0.3215638
209	0xbe060dbe	-0.1309118
210	0x3d49c3e3	0.049259078
211	0xbe02a88b	-0.12759607
212	0xbf3f8240	-0.7480812
213	0x3f3f4e0a	0.74728453
214	0xbf1a1645	-0.6019023
215	0x3e40fa88	0.1884557
216	0xbdc82274	-0.097721964
217	0x3e20a31e	0.15687224
218	0xbe44b1f5	-0.1920851
219	0xbd29587b	-0.041344147
220	0xbe47e065	-0.19519193
221	0xbe04d616	-0.12972292
222	0x3f255210	0.6457834
223	0xbe880a08	-0.26570153
224	0xbf82957b	-1.0201868
225	0x3e6500a8	0.22363532
226	0xbf14cf4d	-0.58128816
227	0xbe8d3def	-0.27586314
228	0x3f2e56fc	0.6810148
229	0x3ebe2c0b	0.37142977
230	0x3f757ecf	0.9589662
231	0x3eabef2e	0.33580917
232	0x3f044197	0.5166258
233	0x3faa5335	1.3306643
234	0xbe76ae32	-0.24089888
235	0x3ea50d0b	0.32236513
236	0x3e0cc9dd	0.1374888
237	0x3e873bba	0.26412755
238	0x3d24dd9e	0.040250413
239	0xbf35df08	-0.71043444
240	0xbed9a37e	-0.42507547
241	0xbd399e4a	-0.04531697
242	0x3e3b87f3	0.1831358
243	0xbe6cd187	-0.23126803
244	0xbe8c3b9c	-0.27389228
245	0x3f6f817b	0.93556947
246	0x3cbe1769	0.023204522
247	0x3e24865f	0.16066884
248	0xbc3d99f9	-0.0115723545
249	0x3e97a0d9	0.29614905
250	0xbe621c16	-0.22081026
251	0xbeb9fdc0	-0.36326408
252	0x3eeba952	0.4602762
253	0x3f44b59b	0.7683961
254	0xbe3e55d2	-0.18587425
255	0xbf803797	-1.0016965

lstm.bias_ih_l0 f4 [256]
0	0xbe6bdc99	-0.2303337
1	0xbdc96cd5	-0.09835211
2	0xbe5ff946	-0.21872434
3	0x3d735fcc	0.05941753
4	0xbcc01698	-0.023448274
5	0x3e888c42	0.26669508
6	0xbe8669ba	-0.26252538
7	0x3db6bdc2	0.08922912
8	0xbe366f6e	-0.17815945
9	0xbe32dcb2	-0.17467001
10	0xbe0ffd33	-0.14061432
11	0xbe64e367	-0.22352372
12	0xbe3eb6d9	-0.18624438
13	0x3d9d1570	0.076701045
14	0x3e80d004	0.25158703
15	0xbd8dbe88	-0.069211066
16	0xbe3f293d	-0.18668075
17	0xbd5ceb27	-0.053935196
18	0xbdd34194	-0.103152424
19	0xbdbe1f2a	-0.09283288
20	0xbf116ce3	-0.5680677
21	0x3c5f2ec1	0.013621987
22	0xbf017fa8	-0.5058541
23	0xbd477b8e	-0.048701815
24	0xbe7790b2	-0.2417629
25	0x3e628179	0.22119702
26	0x3e44f8ef	0.19235586
27	0xbd9c232e	-0.076238975
28	0xbe3c3bbd	-0.18382163
29	0xbdfbf25a	-0.12302084
30	0x3cdacaff	0.026708124
31	0x3e1e90a4	0.15484864
32	0xbdd0f59b	-0.102030955
33	0xbdee5d82	-0.11638929
34	0xbe3014e1	-0.17195465
35	0xbd328932	-0.04358787
36	0x3e1fc598	0.1560272
37	0x3c86e13c	0.016464822
38	0x3e87ff26	0.2656185
39	0x3e2a3ad0	0.16623998
40	0xbefc202d	-0.49243298
41	0xbf18a5d4	-0.59628034
42	0xbd3c3e84	-0.045958057
43	0x3e85423c	0.26027095
44	0xbe9657f6	-0.29363984
45	0xbe5e2e30	-0.21697307
46	0xbd6d4a8f	-0.057932433
47	0xbb3e711a	-0.0029059113
48	0xbded95aa	-0.11600812
49	0x3da8c421	0.082405336
50	0xbd843682	-0.06455709
51	0xbe626359	-0.2210821
52	0xbc1a1539	-0.009404474
53	0x3e45e2d7	0.19324814
54	0xbd70989d	-0.058739293
55	0xbe1eb6af	-0.15499376
56	0x3db8f8b1	0.09031809
57	0x3cdf1949	0.027233737
58	0xbdf04188	-0.11731249
59	0x3dd43d15	0.10363213
60	0x3d3e08d3	0.046395134
61	0x3c7b6a41	0.015345157
62	0x3d810d33	0.06301346
63	0x3dd8663b	0.10566374
64	0x3ebf78fa	0.37396985
65	0x3e045b54	0.12925464
66	0xbe4ae746	-0.19814786
67	0xbdea6219	-0.11444492
68	0x3e03d184	0.12872893
69	0xbe798c77	-0.2436999
70	0x3d1fa3d8	0.038974613
71	0xbe17039f	-0.14747475
72	0x3e0d9698	0.13826978
73	0xbda8264c	-0.082104295
74	0xbdaf8d92	-0.08571924
75	0x3f07bf4d	0.53026277
76	0x3dd7b776	0.10533039
77	0x3df68488	0.12036997
78	0x3e07ba96	0.1325477
79	0xbf36dfe0	-0.71435356
80	0xbf2f5a40	-0.68497086
81	0x3e29171f	0.16512726
82	0x3cea2e34	0.028586484
83	0xbee20e58	-0.44151568
84	0xbf1630a4	-0.5866797
85	0xbe8667b3	-0.2625099
86	0xbee34163	-0.44385824
87	0xbe6f859d	-0.23390813
88	0xbe78c9b2	-0.2429569
89	0x3eb848be	0.35992998
90	0xbedc3398	-0.43008113
91	0xbee4b6fc	-0.44670856
92	0x3e99139d	0.29897776
93	0x3bde71b0	0.006788455
94	0xbe6e9a1d	-0.23300977
95	0xbea317e9	-0.3185418
96	0xbdbc3479	-0.09189696
97	0x3d297d6a	0.04137937
98	0xbef37ceb	-0.47556242
99	0xbe15dda1	-0.14635326
100	0x3e4134a2	0.18867734
101	0x3dd0e145	0.10199217
102	0xbd9ef3b7	-0.07761329
103	0xbe335734	-0.17513734
104	0xbe6a0294	-0.22852546
105	0xbf200892	-0.6251308
106	0xbead5ef2	-0.338615
107	0xbeae89a8	-0.34089398
108	0xbe07cccb	-0.13261716
109	0x3e932b27	0.2874386
110	0x3ce6b0f3	0.028160548
111	0xbebab377	-0.36465046
112	0xbec7ae9a	-0.39000398
113	0x3e13d24b	0.14435689
114	0x3d05ad67	0.032636072
115	0x3e43de78	0.19127834
116	0xbed04071	-0.40674165
117	0xbe63d93a	-0.22250834
118	0xbe88a4db	-0.26688275
119	0xbde99ab9	-0.11406464
120	0xbba4c169	-0.005027939
121	0xbd459f7e	-0.048247807
122	0x3cf5e162	0.030014697
123	0xbe94ef3e	-0.29088777
124	0xbebe5f1c	-0.37181938
125	0xbe654dc3	-0.22392945
126	0xbe875184	-0.2642938
127	0xbf01b62f	-0.50668615
128	0x3d49c6b3	0.04926176
129	0x3e3e3edf	0.18578671
130	0x3e1f75c8	0.15572274
131	0xbe24e6e7	-0.16103707
132	0xbe03331f	-0.1281247
133	0xbbd7dcb6	-0.00658759
134	0xbc2f4542	-0.010697665
135	0xbcd8ce00	-0.026465416
136	0xbec38849	-0.38189915
137	0xbe5d49c7	-0.21610175
138	0xbe26b9d5	-0.16281827
139	0xbd54275d	-0.051795352
140	0xbda7a3bd	-0.081855275
141	0xbd89c10e	-0.067262754
142	0x3eb4af01	0.35289767
143	0xbd54aefd	-0.051924694
144	0x3df9e3a9	0.12201626
145	0xbdfdaefd	-0.12386892
146	0xbc79877b	-0.015230055
147	0xbe19f619	-0.15035285
148	0xbe4d8af7	-0.20072542
149	0x3d77731c	0.06041251
150	0xbd8fa9cd	-0.07014809
151	0x3d8762c6	0.066106364
152	0xbd99de04	-0.07513049
153	0x3e89394e	0.26801533
154	0x3c43d678	0.011952989
155	0x3ee1a659	0.44072226
156	0xbdf29888	-0.11845499
157	0x3e133b1a	0.14378014
158	0xbd562faa	-0.05229155
159	0x3e64524e	0.22297022
160	0xbab5d85d	-0.0013873685
161	0x3e1d49b3	0.15360145
162	0xbeb80328	-0.35939908
163	0xbe0cb071	-0.13739182
164	0x3c922644	0.017840512
165	0x3d2e5079	0.042557213
166	0xbabbe757	-0.0014335912
167	0x3ea863d5	0.32888666
168	0x3d78b708	0.060721427
169	0x3e1f9665	0.15584715
170	0xbd24719f	-0.04014742
171	0x3cb83334	0.022485353
172	0xbe56ad85	-0.2096463
173	0x3d9cee4a	0.076626375
174	0x3c98231f	0.018571435
175	0xbd00f0c2	-0.031479605
176	0xbdac3bce	-0.08409844
177	0x3ec29d9a	0.38010865
178	0x3e83f67e	0.25773996
179	0xbe22eae6	-0.15909919
180	0xbdb468a8	-0.08809024
181	0x3ebf0f81	0.37316516
182	0x3d53b053	0.051681828
183	0x3c9683b5	0.01837335
184	0x3c8bd5d1	0.017069729
185	0xbc762abf	-0.01502484
186	0xbe62863a	-0.22121516
187	0x3dda5852	0.10661377
188	0x3dccfe8b	0.10009488
189	0x3d980b49	0.074240275
190	0x3d9bf9c7	0.076160006
191	0x3d835abf	0.06413793
192	0x3e9f92a5	0.31166568
193	0xbe181de1	-0.14855148
194	0x3e079f3c	0.13244337
195	0x3e13b7be	0.14425561
196	0xbc4475bd	-0.011990962
197	0xbc1b3b88	-0.009474643
198	0xbd55d01e	-0.05220043
199	0xbe100f45	-0.14068325
200	0xbe42e5fb	-0.19033043
201	0xbdaec1ca	-0.08533056
202	0x3dc8b6f4	0.098005205
203	0x3f4aae14	0.7917187
204	0x3cac5040	0.02103436
205	0x3ebb966c	0.366382
206	0x3e197b4d	0.14988442
207	0xbdc3ef51	-0.0956713
208	0xbe42bf56	-0.19018301
209	0x3efa624f	0.48903129
210	0x3cded8fc	0.027203076
211	0xbe0b7e06	-0.13622293
212	0xbe8825ae	-0.26591247
213	0xbe684cbe	-0.22685525
214	0xbc3a5740	-0.011373341
215	0x3d459853	0.04824097
216	0xbad51876	-0.00162579
217	0x3e17bc56	0.14817938
218	0x3e5a6aad	0.21329756
219	0xbdc74d0d	-0.09731493
220	0xbd19942e	-0.03749483
221	0x3d036398	0.032077402
222	0x3daba7a9	0.08381588
223	0xbd15d768	-0.03658238
224	0xbe56fc51	-0.20994689
225	0xbe12bdf4	-0.14330274
226	0xbe928865	-0.28619686
227	0xbe2baf89	-0.1676618
228	0xbd29bb96	-0.04143866
229	0x3c615d2f	0.013755127
230	0xbdaa6cbe	-0.08321522
231	0x3d869074	0.06570521
232	0x3de71eb2	0.112851515
233	0xbf02e16e	-0.5112523
234	0xbc904e93	-0.017615592
235	0x3e8981bb	0.2685679
236	0x3d1541b7	0.036439624
237	0xbd9b6097	-0.075867824
238	0xbd9effc4	-0.07763627
239	0xbcec75f6	-0.028864842
240	0x3ca5d5c6	0.020243537
241	0x3cd0e31e	0.025498923
242	0xbc98927a	-0.018624533
243	0x3d09b5ae	0.03362053
244	0xbe347af9	-0.17625035
245	0xbd251feb	-0.040313642
246	0xbca3eb03	-0.020009523
247	0x3e08956f	0.13338254
248	0x3e14cdd8	0.14531648
249	0x3dbc480c	0.09193429
250	0xbdd67d1d	-0.10473082
251	0x3e96ae7b	0.29429993
252	0x3c039055	0.008030017
253	0x3dc4fc3b	0.09618422
254	0x3d249574	0.040181592
255	0x3da867e9	0.08222944

lstm.bias_hh_l0 f4 [256]
0	0xbe07091f	-0.13187073
1	0xbd2960f7	-0.04135224
2	0xbe22a59c	-0.15883487
3	0xbd8c44d5	-0.06849066
4	0xbbf3bc0e	-0.0074381894
5	0x3ea0d966	0.31415862
6	0xbe6dad9e	-0.23210761
7	0x3daf6bd3	0.08565488
8	0xbe89d19d	-0.26917735
9	0xbe5f1715	-0.21786149
10	0x3ce93936	0.028469663
11	0xbe071f7c	-0.13195604
12	0xbde39aaf	-0.11113488
13	0xbd484a7b	-0.048899155
14	0x3e4885f7	0.19582354
15	0xbd65ce15	-0.05610474
16	0xbe3fdda3	-0.18736891
17	0x38d839f1	0.00010310475
18	0xbcb9f322	-0.022698943
19	0xbd8f7917	-0.07005518
20	0xbf1d0103	-0.6132967
21	0x3e1a9ca4	0.15098816
22	0xbecd53dd	-0.40103045
23	0xbdc2f2e2	-0.095189825
24	0xbda2d511	-0.079507954
25	0x3d0ae758	0.033912033
26	0xbbaaa98b	-0.0052081994
27	0x3d9bd8e5	0.07609729
28	0xbd7d2720	-0.06180489
29	0xbd815b62	-0.06316258
30	0x3c9f4aaf	0.019444792
31	0x3e36129d	0.17780538
32	0xbea63315	-0.32460847
33	0x3cc2af29	0.023765163
34	0xbe3fa5d4	-0.18715602
35	0x3e45a325	0.19300516
36	0x3d0472cb	0.032336038
37	0xbe152cb5	-0.14567836
38	0x3e809e54	0.25120795
39	0xbc3d5531	-0.011555956
40	0xbef96c60	-0.48715496
41	0xbf1434f5	-0.57893306
42	0xbe26f2ff	-0.16303633
43	0x3e0eb3cb	0.13935773
44	0xbebf01de	-0.37306112
45	0xbd6a5793	-0.057212424
46	0x3d83af71	0.06429947
47	0xbd906e1f	-0.07052254
48	0xbe52cd18	-0.2058605
49	0x3d8ca3cd	0.0686718
50	0xbe112719	-0.14175071
51	0xbce09f4f	-0.027419714
52	0x3dfb8dc2	0.122828975
53	0x3dee8b40	0.116476536
54	0xbdfa7247	-0.12228828
55	0x3c805d54	0.015669502
56	0x3debb0db	0.11508342
57	0x3c4332ea	0.011913994
58	0xbe12abb0	-0.14323306
59	0x3c9a75fd	0.01885509
60	0x3c5f5cb2	0.01363294
61	0x3d5fea35	0.054666717
62	0x3d58601c	0.052826032
63	0x3da3ee6c	0.0800446
64	0x3edde403	0.43338022
65	0x3c6bda91	0.014395372
66	0xbe766758	-0.2406286
67	0xbcaf17de	-0.021373685
68	0x3e14536d	0.1448495
69	0xbe4b9cba	-0.19884005
70	0xbe0103da	-0.12599126
71	0xbd503cd8	-0.050839275
72	0x3e1ead08	0.15495694
73	0xbe13ba6f	-0.14426588
74	0xbe3ce890	-0.1844809
75	0x3edfe821	0.43731788
76	0x3e677925	0.22604807
77	0x3e13f228	0.14447844
78	0x3e3372c1	0.17524244
79	0xbf6281c3	-0.8847925
80	0xbf1600b0	-0.585948
81	0x3d08c24f	0.033388432
82	0x3d634b9b	0.055492025
83	0xbed4df02	-0.4157639
84	0xbf1254ab	-0.57160443
85	0xbe06efea	-0.13177457
86	0xbecc710c	-0.39929998
87	0xbe6e231b	-0.23255579
88	0xbe103c45	-0.14085491
89	0x3e9b577e	0.3034019
90	0xbef87000	-0.4852295
91	0xbea69975	-0.32538953
92	0x3e258ef2	0.1616781
93	0xbdbf4166	-0.09338646
94	0xbd4181f3	-0.04724307
95	0xbeb18ddf	-0.34678552
96	0xbdc0642b	-0.093941055
97	0x3de3f1ae	0.11130081
98	0xbf0f5ce4	-0.56001115
99	0xbe85fd47	-0.26169798
100	0x3d996584	0.07490066
101	0xbd3eda70	-0.046595037
102	0x3dbab2d9	0.09116144
103	0xbe462396	-0.19349512
104	0xbeaa72b0	-0.33290625
105	0xbf0aba36	-0.54190385
106	0xbf031488	-0.51203203
107	0xbe3fbeba	-0.187251
108	0xbe4097ea	-0.1880795
109	0x3e531b36	0.20615849
110	0xbd4e7119	-0.050400827
111	0xbed0f207	-0.40809652
112	0xbe84d08c	-0.2594036
113	0x3c1aa54e	0.009438826
114	0xbe04419d	-0.12915654
115	0x3e5847d3	0.21121149
116	0xbed1353a	-0.4086092
117	0xbe57ad83	-0.21062283
118	0xbe805839	-0.2506731
119	0xbe152fb8	-0.14568985
120	0xbe6c629e	-0.23084494
121	0xbe536421	-0.20643665
122	0xbce68967	-0.02814169
123	0xbebe6b23	-0.37191114
124	0xbeb7d5ab	-0.35905203
125	0xbebc44a4	-0.3677112
126	0xbe8ec53e	-0.2788486
127	0xbef2fd47	-0.4745886
128	0xbdc69d8b	-0.09698018
129	0x3cfa7ef3	0.030578112
130	0x3e325fe7	0.17419396
131	0x3d771f8a	0.060332812
132	0xbe57304f	-0.21014522
133	0x3e2283b6	0.15870556
134	0x3e591ba4	0.2120195
135	0xbd876ddf	-0.06612753
136	0xbeb075d9	-0.3446491
137	0xbe1978b2	-0.14987448
138	0xbd10ca9b	-0.03534947
139	0xbe1ebdbe	-0.15502068
140	0xbe696858	-0.2279371
141	0x3ce3f481	0.02782655
142	0x3ee022b8	0.43776488
143	0xbd04d503	-0.032429706
144	0x3e34a503	0.17641072
145	0x3afa1ce3	0.0019082095
146	0x3dd9d995	0.106372036
147	0xbca1adeb	-0.01973625
148	0xbe8639e6	-0.26216048
149	0x3d54965c	0.051901206
150	0xbe2f9ac8	-0.17148888
151	0xbdaf9b52	-0.08574547
152	0xbd953d73	-0.07287111
153	0x3eb4443f	0.35208318
154	0x3d841cce	0.064508066
155	0x3f109149	0.5647169
156	0xbdca5c57	-0.09880894
157	0x3d56651c	0.05234252
158	0xbc99fc77	-0.018797142
159	0xbc3f9a3c	-0.011694487
160	0xbdc3e5f7	-0.09565347
161	0x3df1d1f0	0.118076205
162	0xbed0daa2	-0.40791804
163	0xbe23ea5c	-0.1600737
164	0x3ccff524	0.025385447
165	0xbdc359e8	-0.09538633
166	0x3994943b	0.000283392
167	0x3e30c2c6	0.172618
168	0xbd4a557b	-0.049397927
169	0x3dd791e8	0.10525876
170	0xbd66a87d	-0.056313027
171	0xbd483a3b	-0.048883658
172	0xbe97304a	-0.2952903
173	0xbdc1c316	-0.09461038
174	0x3de14806	0.110000655
175	0xbe302cb0	-0.17204547
176	0xbdcae31a	-0.099065974
177	0x3ee81ae7	0.45333025
178	0x3e04669c	0.12929767
179	0x3c7e2ee0	0.015514106
180	0x3dd69562	0.10477711
181	0x3ec36afc	0.3816756
182	0x3e1ec1be	0.15503594
183	0xbbd14b7e	-0.006387173
184	0xbdbaa51d	-0.09113524
185	0xbdd57d06	-0.10424237
186	0xbe03ca1d	-0.12870069
187	0x3cb941cc	0.022614382
188	0xbc930815	-0.01794819
189	0x3da45d6d	0.08025632
190	0xbe169fdf	-0.14709423
191	0x3dab0759	0.08351011
192	0x3efebd31	0.49753717
193	0xbdd685e4	-0.10474756
194	0x3db47ca6	0.08812837
195	0xbcb033d7	-0.021509094
196	0xbe56d827	-0.20980893
197	0x3d3dc0e2	0.046326526
198	0xbd50cdf6	-0.05097767
199	0xbd0baf54	-0.034102753
200	0xbe6a9df3	-0.22911815
201	0xbe34a33a	-0.17640391
202	0x3ca4839e	0.020082291
203	0x3f1edd48	0.620564
204	0xbd42a9ea	-0.047525324
205	0x3eb73ed3	0.3579012
206	0x3e26d05d	0.16290422
207	0xbccea68c	-0.0252259
208	0xbe4e35d7	-0.20137726
209	0x3ee4c135	0.44678655
210	0xbd8a8cd7	-0.06765144
211	0xbe85d201	-0.26136783
212	0xbe639328	-0.22224104
213	0xbe55aca8	-0.20866644
214	0xbdff906b	-0.124787174
215	0x3d5441ec	0.05182068
216	0xbe391c91	-0.18077303
217	0x3e042351	0.12904097
218	0x3e486083	0.19568066
219	0xbda0bc31	-0.07848395
220	0x3e029834	0.12753373
221	0xbe21cb07	-0.15800105
222	0x3df570dd	0.119844176
223	0x3be67253	0.0070326715
224	0xbe931b3b	-0.28731713
225	0xbdaf39db	-0.08555957
226	0xbed9222c	-0.42408884
227	0xbd698410	-0.05701071
228	0xbdc54857	-0.09632938
229	0x3e06838c	0.13136119
230	0xbde1a4e6	-0.1101778
231	0x3c90486d	0.01761266
232	0x3d8bc747	0.068251185
233	0xbefa04bc	-0.48831737
234	0xbe16ef49	-0.14739718
235	0x3e123175	0.14276679
236	0xbba80eb9	-0.005128708
237	0xbe1137f0	-0.14181495
238	0xbd864647	-0.06556373
239	0xbc234012	-0.009964006
240	0xbdcdb6ba	-0.10044618
241	0xbc3ffd90	-0.011718169
242	0xbdc3f886	-0.095688865
243	0x3cbce170	0.023056716
244	0xbd15adc0	-0.036542654
245	0x3cbe7bca	0.023252387
246	0xbbd1315f	-0.0063840593
247	0x3e06aec2	0.13152602
248	0x3e982d0e	0.29721874
249	0x3d37d320	0.04487908
250	0xbd34d684	-0.04414989
251	0x3d7625fc	0.06009482
252	0xbde68ae3	-0.11256959
253	0x3e111860	0.14169455
254	0xbdd7318c	-0.10507497
255	0x3e87f9c1	0.26557735

Linear2.weight f4 [2, 64]
0	0xbc2e8618	-0.010652088
1	0x3d382f6e	0.044967107
2	0x3e7883b3	0.2426899
3	0x3d099b9e	0.033595674
4	0xbd8b0652	-0.06788315
5	0x3d196b31	0.03745574
6	0x3dbd9d2c	0.09258494
7	0xbd042588	-0.032262355
8	0xbe36fb06	-0.17869195
9	0x3d2340f1	0.039856855
10	0xbdfbec19	-0.123008914
11	0xbd906914	-0.07051292
12	0xbda8565a	-0.08219595
13	0xbc61dc79	-0.013785475
14	0x3e73fb1f	0.23826264
15	0x3e063003	0.13104253
16	0x3e02a80a	0.12759414
17	0xbdb90f98	-0.090361774
18	0x3d8b3c27	0.067985825
19	0xbe26df16	-0.16296038
20	0xbf0fd746	-0.56187856
21	0x3bb456e3	0.0055035218
22	0xbed2d41b	-0.4117745
23	0x3d759689	0.059958015
24	0xbd3ada5d	-0.045618404
25	0x3ea5df21	0.32396796
26	0x3b6d2737	0.0036186704
27	0x3eae9686	0.34099215
28	0xba84b3e0	-0.0010124408
29	0x3dae2b2c	0.08504328
30	0xbc0a8d87	-0.008456594
31	0x3de33991	0.11094964
32	0xbdcb107d	-0.09915254
33	0x3c004189	0.007828125
34	0xbe9ad2bc	-0.30238903
35	0xbeb6c812	-0.35699517
36	0x3d0ca2c8	0.034334928
37	0xbe2e1d5e	-0.1700339
38	0x3cf5acd3	0.029989636
39	0x3e5f5909	0.21811308
40	0x3f01ccf6	0.5070337
41	0x3f60985d	0.8773249
42	0xbc606413	-0.013695735
43	0xbe55ead6	-0.20890364
44	0xbe73b6f8	-0.23800266
45	0x3b731137	0.0037089118
46	0x3e9081d6	0.28224057
47	0xbd463799	-0.048392866
48	0xbe12c0d9	-0.14331378
49	0x3eb1b196	0.347058
50	0x3deee02b	0.116638504
51	0xbe815c98	-0.25265956
52	0x3de0eef0	0.10983074
53	0x3e92e991	0.28693822
54	0x3dea6be6	0.11446361
55	0x3b883e47	0.0041578147
56	0xbdbe4dcf	-0.092921846
57	0x3d5156a1	0.051108006
58	0xbdd4c859	-0.10389776
59	0xbdab9bea	-0.083793476
60	0xbd3c733d	-0.046008337
61	0xbb675664	-0.0035299296
62	0xbd54278f	-0.05179554
63	0x3cdc26eb	0.026874026
64	0xbc36c852	-0.0111561585
65	0x3ce27b85	0.02764679
66	0x3e81352f	0.25235888
67	0x3d8799d9	0.06621141
68	0xbd6f59c5	-0.05843522
69	0x3d1299c8	0.03579119
70	0x3e884085	0.26611724
71	0xbcb170f3	-0.021660304
72	0xbe972294	-0.2951857
73	0x3dd5969a	0.104291156
74	0xbde227d4	-0.11042753
75	0xbd3fbdc7	-0.046811845
76	0xbe09cae5	-0.13456304
77	0xbd10e7db	-0.035377365
78	0x3e8798bb	0.26483712
79	0x3e3c6e36	0.18401417
80	0x3d98d639	0.07462735
81	0xbdbe2f4a	-0.092863634
82	0x3d963efc	0.07336232
83	0x3e50c602	0.20388034
84	0xbf02a4a2	-0.5103246
85	0x3cb63bec	0.02224537
86	0xbe9d4316	-0.30715245
87	0x3db418a3	0.087937616
88	0xbdbc4697	-0.091931514
89	0x3ea63b06	0.32466906
90	0xbc8c8468	-0.01715298
91	0x3ef658e7	0.48114702
92	0xbccca4ed	-0.024980986
93	0x3d8a191d	0.06743071
94	0x3d0e1e51	0.03469688
95	0x3e11fa69	0.1425568
96	0xbdcd1c1e	-0.100151286
97	0xbc5641d8	-0.013077222
98	0xbe82c68c	-0.25542104
99	0xbeb0c22b	-0.34523138
100	0x3d34b0e0	0.044113994
101	0xbe0bbda7	-0.13646565
102	0x3cb6e9b4	0.022328235
103	0x3e82bd19	0.25534895
104	0x3e80732c	0.2508787
105	0x3f618217	0.88089126
106	0xbcc1e604	-0.02366925
107	0xbe6c8e02	-0.23101047
108	0xbe80f579	-0.2518728
109	0xbcbbf657	-0.022944612
110	0xbb0b6418	-0.0021269377
111	0xbd58a83e	-0.052894823
112	0xbea3578e	-0.31902736
113	0x3eb13df9	0.34617594
114	0x3e0e5e98	0.13903272
115	0xbe5299b5	-0.20566447
116	0x3de34faf	0.11099183
117	0x3e706546	0.23476133
118	0x3de61f57	0.11236446
119	0xbcee93b1	-0.02912316
120	0xbda8c242	-0.08240177
121	0x3d41d8b5	0.04732581
122	0xbd61df00	-0.05514431
123	0xbdaf91c6	-0.08572726
124	0xbd64e2b1	-0.055880252
125	0xbbd9f7b7	-0.0066518444
126	0xbb298fb3	-0.0025873005
127	0x3cf78093	0.030212676

Linear2.bias f4 [2]
0	0x3e7d8804	0.24758917
1	0x3e76be6f	0.24096082
