DRQN_POMDP_Random_FOMDP_SEED_1.pth (torch_old, 136222 bytes, 8 tensors)

Linear1.weight f4 [64, 4]
000000 6f 5f 39 bd 19 77 85 be 39 5c 04 bf 39 dd 5f 3e
       -0.04525703 -0.26067427 -0.5170322 0.21861733
000010 2a b3 28 bf 71 90 54 3e 02 1f fa 3d b5 6b ce 3e
       -0.6589838 0.20758225 0.122129455 0.4031655
000020 7d e2 c1 3c f6 36 1e bc 3e 07 49 3e d4 5c a1 bc
       0.023667568 -0.009656658 0.19631669 -0.019697584
000030 9c b7 90 3e 78 38 1f 3e f1 a2 9b bb 0b ed c7 bc
       0.28265083 0.15548885 -0.0047496487 -0.024405023
000040 80 5d 05 3d b7 9e 63 bd 2f 07 9e 3f 92 8c 38 3e
       0.03255987 -0.055571284 1.2345942 0.18022373
000050 4f f1 05 be 4a 93 78 be bc 46 5d bf 89 0c 99 be
       -0.13080333 -0.24274936 -0.8643606 -0.29892376
000060 e4 b6 a3 be f2 98 2d 3e 6c 82 9c 3f 0f a8 95 3e
       -0.31975472 0.16952875 1.2227302 0.2922978
000070 75 17 02 bf 14 2e 82 3e a6 27 9f 3e b5 60 9c 3e
       -0.5081704 0.2542578 0.31084937 0.30542532
000080 dc bf 91 3e 5f 29 9c be b8 88 c4 bf 9d 97 ad be
       0.2846669 -0.30500314 -1.5354223 -0.33904734
000090 a2 18 38 3e 6f 17 f7 bd 90 30 3d 3e df a9 2a be
       0.17978147 -0.120650165 0.18475556 -0.16666363
0000a0 5f de de 3d 12 69 a6 be ab 07 65 3f 42 6e 74 3d
       0.10882258 -0.32502037 0.89464825 0.059675463
0000b0 82 dd 86 be 7a 96 83 3e d4 e3 87 be e4 94 16 3e
       -0.26340872 0.25700742 -0.26541007 0.14705235
0000c0 57 26 81 bd f1 5d f7 bd 8e c6 7d bf de 98 bd bd
       -0.06306141 -0.12078465 -0.99131095 -0.09257673
0000d0 fd 7a ae 3c 2e 6a 80 3d 10 48 00 40 6a 77 b7 3e
       0.02129888 0.06270252 2.0043983 0.35833293
0000e0 9e 62 b4 3d 84 bd 53 be e5 6f c9 3e 62 18 b5 be
       0.08807872 -0.20677763 0.3934318 -0.35370165
0000f0 02 7d 8b be b5 f6 da 3e ae 13 3e 3f ae e4 d3 3e
       -0.2724381 0.42766348 0.7424878 0.41385406
000100 07 30 89 bd 61 1b a3 3d 52 a7 a4 bd ad d0 9c 3d
       -0.066986136 0.079642065 -0.08039726 0.07656989
000110 6d d1 27 be ba 22 f3 be 10 8f 2b 3f c7 78 85 be
       -0.16388483 -0.47487432 0.6701517 -0.26068708
000120 0b fe 7c bc 7a d6 16 bd e2 27 d4 3f b9 b1 1d 3e
       -0.015441428 -0.036825635 1.6574671 0.15399827
000130 e4 c4 bf 3d 14 dd b0 3e ee 86 5b 3b fb a6 9f 3e
       0.09363726 0.3454367 0.0033497172 0.31182083
000140 c1 c8 cb be fd 8e 3f be 8a e4 c0 3e 1b 76 8c be
       -0.398016 -0.1870689 0.3767436 -0.27433857
000150 d6 91 32 3d bc ba ce be 49 c3 16 bf 21 c8 09 3f
       0.04359611 -0.40376842 -0.5889173 0.53821
000160 eb db 4d be 29 91 c2 3d ce 8f 08 3f 7c 46 cf bd
       -0.20103423 0.09500343 0.5334443 -0.10120866
000170 20 bd 7c 3e d8 53 31 be ab 96 1c bf ee b1 83 bc
       0.2468152 -0.1731714 -0.611674 -0.016076054
000180 ad a0 1a 3d 78 e8 a0 bd 3e 82 03 bf 35 59 47 bd
       0.03775089 -0.0785684 -0.5137061 -0.04866906
000190 7c 46 df 3e c5 3c fb bd 7a 03 37 3f 1a 04 08 3e
       0.43608463 -0.1226745 0.7148968 0.13282815
0001a0 7d b0 05 be 14 e1 a7 be fa ef 35 3f 7b ab a5 bd
       -0.13055606 -0.32788908 0.710693 -0.08089348
0001b0 0b f9 90 bd 7b 8a d2 3d 9c da 96 3f a5 87 6c 3e
       -0.07078751 0.10280319 1.1785464 0.2309862
0001c0 da 89 f0 3e 99 de d0 3c 3e f1 e5 be 6e 2b 15 3b
       0.46980172 0.025496768 -0.44910616 0.0022761482
0001d0 69 8e 9b 3d ee a8 88 bd d6 d9 41 bf 0b bc 21 be
       0.07595522 -0.06672846 -0.75723016 -0.15794389
0001e0 1b b8 c5 bd 15 9e 9b 3e d4 5b 8c 3f 22 36 a0 be
       -0.09654256 0.30394045 1.0965524 -0.312913
0001f0 20 4b 2e 3e 63 67 a0 be 0e 7f 87 bf 9f b2 68 bb
       0.17020845 -0.31328878 -1.0585649 -0.0035506857
000200 13 a0 35 3e f3 be d8 3e 44 84 c1 3e 2c 55 a9 3e
       0.17736845 0.42333183 0.37796223 0.33072793
000210 66 ec f2 3d 05 ae cc 3e ea aa 46 3f cd a6 e4 3e
       0.11861496 0.39976516 0.77604544 0.4465851
000220 32 19 f5 3d bb d4 6d be ec 2a 2e bf d8 10 f1 be
       0.11967696 -0.23225681 -0.68034244 -0.47083163
000230 34 fe 07 be 75 b2 fb 3d 4e 5c cd 3f b2 bd 98 3e
       -0.13280565 0.12289897 1.6043794 0.29832226
000240 69 5b 80 3d 46 d9 d3 bd ca 8a 3a 3f 4f 5e 06 3d
       0.06267435 -0.10344176 0.72868025 0.032804783
000250 5f 17 0b 3e 09 eb 79 3e 95 8f c6 bd 88 f5 8b 3e
       0.13583134 0.24406065 -0.09695355 0.27335763
000260 a6 79 6c 3d 20 fd 64 be b2 7c 98 bf 38 9d b5 be
       0.0577332 -0.22362185 -1.1913054 -0.3547151
000270 19 2e a8 be 36 11 76 be 1e 86 20 bf ce ab fd be
       -0.3284767 -0.24030003 -0.62704647 -0.4954514
000280 b3 15 ea be 0a bb 51 3e d2 0b ba 3f 15 c1 d8 3e
       -0.4571968 0.20481506 1.4534857 0.4233481
000290 47 70 22 bf b6 18 18 bd e3 85 79 bf 0f eb 5f be
       -0.6345257 -0.03713294 -0.9746992 -0.21867011
0002a0 57 7c 01 bf b4 36 9f bc f6 aa 7c 3f da 70 09 3f
       -0.5058035 -0.019435264 0.98698366 0.5368782
0002b0 a1 af b3 be 17 25 50 3e 2a 43 05 40 18 9b db 3e
       -0.35094932 0.20326649 2.0822244 0.42891765
0002c0 6b 5e a0 3e bd 76 90 3e a0 48 49 3e 0a e9 5a 3e
       0.31322035 0.2821559 0.1965661 0.2137796
0002d0 f9 3c c5 3d 59 19 2a bd f4 52 a1 bf 2b f9 63 be
       0.0963077 -0.04152808 -1.260344 -0.22263019
0002e0 98 5d fa be 86 c9 78 3d 1d 86 9c bf ad 63 19 be
       -0.4889953 0.060739063 -1.2228428 -0.1497943
0002f0 dd 3f 08 3e 34 46 c2 be c5 e7 b8 be 1e 5d cb be
       0.13305612 -0.37944186 -0.36114326 -0.3971948
000300 8f f9 b9 bd 19 80 02 3e d6 11 8e 3f 1a 39 f7 be
       -0.09080803 0.12744178 1.1099193 -0.48285753
000310 43 89 3d 3c 54 23 17 3d b6 8b c1 3e 1e 56 f3 bd
       0.01156837 0.036898926 0.37801903 -0.1188166
000320 a1 e1 80 bb 52 83 1e bf ad 0b f3 3c fc f6 58 be
       -0.003933147 -0.6191913 0.029668653 -0.21187967
000330 eb 4b 90 3c 98 d5 86 bc b0 85 23 3f 04 e7 ca bd
       0.017614326 -0.016459271 0.63875866 -0.09907344
000340 db 86 52 be 15 38 60 3e ec 91 a1 3e b0 bc 85 3e
       -0.20559256 0.21896394 0.31556642 0.2612052
000350 12 74 13 bf ae 72 fc bc 2e 9b 60 3f 40 56 01 3f
       -0.57598984 -0.030816402 0.87736785 0.5052223
000360 ba 2e c5 3e 7b a1 1f 3d 4d dd a5 3f 17 1c 9f 3e
       0.38512212 0.03897236 1.2958161 0.31076118
000370 23 e5 7f be 9c 44 d9 3d 8b 7e a3 bf 1e 46 f8 bd
       -0.24989752 0.10608789 -1.2772993 -0.12122749
000380 0f 6f ec 3d a0 38 07 3e 6a 08 de 3f 1a 6f 1f 3f
       0.1154462 0.13205194 1.7346318 0.622789
000390 37 ee a7 3e dd 34 a7 3e 04 d7 0e be c0 92 a0 3d
       0.3279893 0.3265752 -0.1394921 0.0784049
0003a0 74 f2 ab 3d 34 51 a8 bd 0d bd ac 3e 47 38 c0 bd
       0.08395854 -0.08218613 0.33737984 -0.09385734
0003b0 55 06 f8 be 0f e0 29 bc f4 80 b9 3e 6b e7 c9 3e
       -0.4844233 -0.010368361 0.36231196 0.3943437
0003c0 d4 1a de be 46 7a 2b 3d 0d 2b 60 3f be 2a 88 bd
       -0.43379843 0.041864656 0.8756569 -0.066487774
0003d0 ea 86 8b be 7e a8 4f bd b6 15 0d bf bc 5d fe 3d
       -0.2725137 -0.050697796 -0.55111253 0.12420222
0003e0 5a ab e5 be b0 78 17 3e a6 a4 1e 3f 24 5d 92 3d
       -0.44857293 0.14792132 0.61969984 0.071466714
0003f0 0d c4 14 bc 49 16 8d be 01 8d 27 3e 26 ba 40 be
       -0.009079945 -0.27556065 0.16362382 -0.1882101

Linear1.bias f4 [64]
000000 ae ea b6 3b c4 98 4b be 2a f1 30 be e5 46 81 be
       0.005582175 -0.19882494 -0.17279497 -0.252494
000010 aa db 9d 3e b5 95 ec bd d0 07 fc be 87 34 0d 3f
       0.30831653 -0.11551992 -0.4922471 0.55158275
000020 08 df 99 3c 7b d9 fd be 38 7b 2d 3d 82 1f bf be
       0.018783107 -0.49579987 0.04235384 -0.37328726
000030 b7 73 9b 3e 3f 5c fb be de 1f 10 3e f0 32 7f be
       0.3036172 -0.49093816 0.14074656 -0.24921775
000040 f4 6b a3 bd 50 cb b3 3d 66 e5 9a be 69 f4 d7 be
       -0.07979575 0.08779013 -0.30253142 -0.42178658
000050 ec a0 27 bf 99 08 1f be 45 e0 f3 be 62 a8 a8 be
       -0.6547992 -0.15530623 -0.47632042 -0.32940966
000060 5f b4 8c be 72 bc d6 3c 0e 5f b4 3e b4 a3 a9 be
       -0.27481362 0.026212905 0.3522877 -0.33132708
000070 b0 e7 02 bf cb 0b ff be 25 94 f7 be c1 02 ad 3e
       -0.5113478 -0.49813685 -0.48355213 0.33791164
000080 fd b3 8f be 84 b4 a5 be ad b7 e0 be ca 4f c7 be
       -0.28067008 -0.32364285 -0.43890134 -0.38928062
000090 65 d5 04 3e db 90 a5 bb 5c e9 97 be b2 ae e5 be
       0.12972029 -0.0050526685 -0.29670227 -0.44859844
0000a0 b5 5f cf be aa 56 3c be 52 1b 03 bf 84 1c 06 bf
       -0.40502706 -0.18392435 -0.5121356 -0.5238726
0000b0 98 4d 09 bf 7b 3d a0 be a2 1d b2 be ba e7 30 be
       -0.53634024 -0.31296906 -0.34788233 -0.17275897
0000c0 97 11 19 bd 8a 20 ee be 93 5a e6 be cc 8b a8 3d
       -0.03737029 -0.465092 -0.44990978 0.08229789
0000d0 9a 2d 52 be 27 56 4d 3e 9a af c9 be 63 42 0a bf
       -0.20525208 0.20052396 -0.39391786 -0.5400755
0000e0 4b 3d 1b bf 73 24 0c bf 2a c2 aa bc d4 03 2f bf
       -0.606404 -0.5474312 -0.020844538 -0.68365216
0000f0 0c 85 8f be 47 f2 1d 3e 5e 78 9d 3c d3 08 0d bd
       -0.28031194 0.15424453 0.019222435 -0.034432244

lstm.weight_ih_l0 f4 [256, 64]
000000 22 ea dc 3d 0b 43 b3 3c ec 38 78 bd 62 36 9d 3e
       0.10786845 0.021882555 -0.06060116 0.30705553
000010 9a 02 ff 3d b7 fe 1e bd ea 8d 83 bf e4 da 00 3d
       0.12451668 -0.038817134 -1.0277684 0.03145875
000020 78 4b 7a 3e ba 56 84 bd fb d0 47 3e 78 59 3f 3d
       0.24442852 -0.06461854 0.19513313 0.046716183
000030 24 ca ab 3e 91 10 a9 be 25 03 75 3e 04 6e 84 be
       0.3355266 -0.33020452 0.23926981 -0.25865185
000040 90 5d 04 be 55 c9 ee 3c f3 a3 e6 be aa d1 0c bd
       -0.12926316 0.029148737 -0.45046958 -0.03437964
000050 46 d5 4e be 7c 68 82 bd 88 cc 3b 3d 27 a4 d8 3e
       -0.20198545 -0.06367585 0.045849353 0.42312738
000060 58 06 b7 3e 62 cf 03 3d 7b 0e 04 3d 7f 60 7d 3d
       0.35747027 0.032180198 0.032240372 0.061859604
000070 1f 0c b6 3d 4f 15 47 3e 5f 42 0f bf 50 72 8b 3e
       0.08889031 0.19441722 -0.5596065 0.2723565
000080 f8 3b b5 be cd fd 84 be e3 c5 df 3e 5f 9a 50 be
       -0.35397315 -0.25974885 0.43705663 -0.20371388
000090 b0 4d 2b 3e 70 6e 4a bd b8 f3 86 3e 3d 61 83 be
       0.16728854 -0.049421728 0.26357818 -0.25660124
0000a0 a4 ff a3 be d9 30 b6 be 2f e2 97 bd bd 66 06 bf
       -0.32030976 -0.35584143 -0.07416188 -0.52500516
0000b0 7f 10 94 bc a3 0e a8 3e 31 9c 94 be 1c e7 3b 3e
       -0.018074272 0.32823667 -0.29025415 0.1834988
0000c0 dc 07 96 3d 7d 8f 68 3d 37 fc 6d 3d ac b3 5c 3e
       0.07325718 0.056777466 0.05810186 0.21552914
0000d0 0e 4f f6 bd dc 16 d1 3b aa d8 0b bd 36 66 b5 bd
       -0.12026797 0.006380899 -0.034142174 -0.08857386
0000e0 78 01 30 be 63 e9 ac 3b 2f 4d 96 3e bf e4 6b 3e
       -0.1718806 0.0052768453 0.2935576 0.23036478
0000f0 63 d1 6b be f0 2e 9e 3c 76 d7 da 3d 4e 7a 36 3e
       -0.23029093 0.01930949 0.10685627 0.17820093
000100 c4 47 18 bf b2 3c ea 3e 07 31 03 3d 1a f2 e1 3d
       -0.59484506 0.45749432 0.032029178 0.11032505
000110 50 1b c2 bd c7 e8 09 bf 00 60 75 3e 37 78 75 bc
       -0.09477866 -0.53870815 0.23962402 -0.014982275
000120 37 de 94 bd e1 42 ed bd fd e3 24 3e 00 34 2f 3b
       -0.072689466 -0.11585022 0.16102596 0.0026733875
000130 44 b1 f8 bd 8c 6b dc be ba da 8d be 09 f8 57 3e
       -0.12143186 -0.43050802 -0.27705938 0.21090712
000140 fb 00 ea bd f6 6c 8f bd d3 c9 04 bf ad f0 f0 3d
       -0.11425968 -0.070032045 -0.5187046 0.11764655
000150 96 ea 79 3d a9 bf be 3d d2 02 97 be 93 82 1c bd
       0.061014734 0.093139 -0.2949434 -0.038210463
000160 04 d4 91 bb c0 0d 28 be b3 d3 99 be ba e3 da be
       -0.004450323 -0.16411495 -0.30044326 -0.42751867
000170 e7 39 8f 3e d0 94 6f be 63 6d 51 3e 7e e2 64 be
       0.27973863 -0.23396611 0.20451884 -0.22352025
000180 b5 e9 76 be ec 59 8d 3d 7e 9a 9b be 1e 49 1b bf
       -0.2411259 0.06901917 -0.30391306 -0.6065844
000190 ea c8 c2 bd 1b a1 c1 3c f5 3a 1b 3e 01 76 f2 3d
       -0.095109776 0.023636391 0.15159209 0.11838914
0001a0 32 0f 88 bd 66 aa 2e bf 41 7d 48 be 6b 5a c8 be
       -0.06643523 -0.6822876 -0.1957903 -0.39131483
0001b0 de e4 51 3e dc 31 ce 3e ee 5d 96 bd 84 0e 08 bf
       0.20497462 0.40272415 -0.073421344 -0.5314715
0001c0 70 53 27 be 3e 2c e3 bd 3e 33 2b 3e a7 0d 4d be
       -0.16340423 -0.11092423 0.16718766 -0.20024739
0001d0 00 d5 06 3e b8 75 23 3e 96 20 ad 3e c9 1b d3 3e
       0.1316719 0.15962875 0.33813924 0.41232136
0001e0 47 3d cf be fe 5f 61 3e c5 5f e3 be 1e c3 11 bd
       -0.40476438 0.22009274 -0.44409004 -0.03558647
0001f0 18 81 83 3e 0a db 2a be 66 c9 92 bd b5 e8 3a bd
       0.25684428 -0.1668512 -0.0716732 -0.045632083
000200 ff de 13 3c 89 b1 b9 be 6e 34 01 3d 1e c3 4b 3d
       0.009025334 -0.3626826 0.03154414 0.049746625
000210 14 d0 43 bd 51 32 78 be d3 a3 e0 be 1a c6 fe bd
       -0.04780586 -0.24237944 -0.43874988 -0.124401286
000220 ca f5 d0 be e8 15 12 be 90 29 a3 3d 98 41 8c bd
       -0.40812522 -0.14266169 0.07966912 -0.068484485
000230 aa b3 d2 be 29 6e 8a be 81 6a ec 3d 7b f9 7d 3d
       -0.41152698 -0.2703717 0.115437515 0.0620055
000240 6e e3 c3 bd 82 16 ab bd 50 50 21 bf 81 50 d6 3d
       -0.09564863 -0.083539024 -0.6301317 0.10464574
000250 a7 fb 09 3e f3 5c f0 be 4e f4 56 bd 0a 99 3c be
       0.13474904 -0.46945915 -0.05247908 -0.18417755
000260 41 ad 41 3e 1a 78 8a 3e 9c 94 02 be 05 67 ad 3e
       0.18913747 0.27044755 -0.12752002 0.3386766
000270 9b 38 7b be 5b bd 0c 3d 5e ac b1 3e 68 2b 08 bf
       -0.24533312 0.03436027 0.34701818 -0.5319123
000280 91 c0 e0 bc 04 c5 ad bc 98 b8 01 be 3b 13 ff be
       -0.027435573 -0.021212108 -0.12668073 -0.4981936
000290 f3 06 cc bd 8d 33 88 be 50 10 a8 be 70 31 d5 3d
       -0.09962263 -0.2660183 -0.32824945 0.1040982
0002a0 f4 b0 14 be 15 e0 18 3d 96 1c 1a bd 8d c6 5d bf
       -0.14520627 0.037323076 -0.037624918 -0.8663109
0002b0 ca 70 25 3e a4 29 c8 3c 23 bc 87 be c7 52 81 3d
       0.16156307 0.024433918 -0.26510724 0.06314617
0002c0 e3 89 fa be 58 1b 79 bd 32 d7 a0 bd 07 b6 ba be
       -0.48933324 -0.060817093 -0.07853545 -0.36467
0002d0 c6 53 10 bf 6e de 1d be 49 fd f8 3e 10 9d 30 be
       -0.5637783 -0.15416881 0.4863074 -0.17247415
0002e0 19 90 28 bd 48 6a 90 be c2 aa c8 bd 3d 8c d3 bd
       -0.041153047 -0.28206086 -0.097981945 -0.10329483
0002f0 a9 cc e6 3d 52 99 c4 be 01 39 64 bf e0 d9 fa be
       0.112695046 -0.38398224 -0.8914948 -0.4899435
000300 6c 7a 76 be 7f 90 f2 ba 64 c6 54 3d 46 d2 bc bd
       -0.24070138 -0.0018506198 0.051947013 -0.09219794
000310 12 e5 5d be cf e6 59 be 16 ef a1 bf 5b b7 06 be
       -0.21669415 -0.21279453 -1.2651088 -0.13155882
000320 b3 c4 b7 be 4c 59 26 be 0e d1 69 bd b8 af 27 bd
       -0.35892257 -0.16245002 -0.057084136 -0.040939063
000330 47 07 40 be bf db 07 bf 73 45 72 bd 4c 6c 48 be
       -0.18752776 -0.5306968 -0.059148263 -0.19572562
000340 3a 62 ef bd 8f 9d 6e be e4 1a 71 bf 1d 2f 8b 3d
       -0.11688657 -0.23302291 -0.94181657 0.067960955
000350 bd f0 98 3d 50 83 6f be da 10 02 be 15 24 8e be
       0.07467792 -0.23389935 -0.12701741 -0.27761903
000360 e5 34 4e 3c 92 34 96 bd a6 83 82 be 08 ea 38 3d
       0.012585853 -0.07334246 -0.25491065 0.045145065
000370 e7 6d 6e 3c 03 f4 ea bd 85 2e b6 3d 1c c8 42 be
       0.01455257 -0.11472323 0.08895592 -0.19021648
000380 08 fe bd be 03 f5 46 be 52 c4 24 bd 45 83 8c bf
       -0.37107873 -0.19429402 -0.04022629 -1.097756
000390 7e 87 58 be 5b 92 87 bc 60 35 89 be 71 2e 9f be
       -0.21145436 -0.01654928 -0.26798534 -0.3109012
0003a0 7f 74 f2 be e6 5e a1 be a2 50 0c bf 0e 62 8d bf
       -0.47354504 -0.31517714 -0.54810536 -1.1045549
0003b0 90 5e 3c bd b0 74 5b bf 74 47 47 be 78 86 5b be
       -0.04598862 -0.85724926 -0.19460851 -0.21438015
0003c0 01 72 43 be 4b 5f bf bd 9b 4b 26 3e 83 7d 4a be
       -0.19086458 -0.093443476 0.16239779 -0.19774441
0003d0 13 b9 1d be 54 84 db bd 9e 01 c2 bd 50 8f cd 3c
       -0.15402631 -0.10718599 -0.09472965 0.02509275
0003e0 02 dd 2f be 0b ec 01 be d4 c6 09 3d 03 22 19 3c
       -0.17174152 -0.126877 0.033636883 0.009346488
0003f0 98 bd 2f be 24 d1 77 be 42 6e 53 be 9f e3 1b be
       -0.17162168 -0.24200875 -0.20647529 -0.1522355

lstm.weight_hh_l0 f4 [256, 64]
000000 67 ae f0 3d 2a c1 2f be c8 24 5a bd 8c 80 62 bd
       0.117520146 -0.1716353 -0.053257734 -0.055298373
000010 c0 3d 91 bd d3 33 71 be 37 e7 c4 bd 95 71 8f 3d
       -0.07091856 -0.23554926 -0.09614413 0.07004086
000020 f9 a0 02 be 47 26 ad bd ca 1a c0 3d 4b c2 5e bd
       -0.12756719 -0.084545664 0.093801096 -0.05438451
000030 f8 e1 42 3e b1 51 8f be 19 e0 10 3e 44 d1 ce 3d
       0.19031513 -0.27992013 0.14147986 0.10098508
000040 de e3 09 3e 14 e1 e6 bd 6e 03 14 bf e7 af a7 3d
       0.1346583 -0.11273399 -0.57817733 0.081878476
000050 2a 12 b2 ba 86 8b 0d 3e db b2 19 bf 53 39 18 3e
       -0.0013585736 0.13822755 -0.60038537 0.14865617
000060 e9 5d 48 be c8 81 f5 3d 92 36 a8 3c c1 cf 06 3e
       -0.19567074 0.119876444 0.020533834 0.1316519
000070 45 5d c6 3d f0 e8 fa 3d 90 84 7d be 82 9f c0 be
       0.096857585 0.122514606 -0.247576 -0.37621695
000080 8d 70 8d be 52 3b e7 bd 47 92 8a 3d 3e 60 d3 be
       -0.27624932 -0.11290611 0.067661814 -0.41284364
000090 14 47 40 3d d4 26 82 3e 78 bb 66 3e 92 f1 86 3d
       0.046942785 0.25420249 0.22532451 0.06589045
0000a0 51 5f c3 3e 88 68 85 be e8 08 94 3d 22 e5 1f be
       0.38158658 -0.26056314 0.07228261 -0.15614751
0000b0 19 d1 5f 3d 2c 6d 4b bd c8 74 be bd f7 d7 c2 bc
       0.05464277 -0.04966466 -0.09299618 -0.02378462
0000c0 e4 db 61 3e 7c a1 20 3d 1a 07 0c bd 6f fb 78 3e
       0.22056538 0.039216504 -0.03418646 0.24314664
0000d0 78 a5 d8 3c 39 57 8d 3e c0 1a c0 be b9 b5 bc 3d
       0.02644609 0.27605608 -0.3752041 0.09214348
0000e0 88 f3 6d 3d 88 05 3b bd 75 7c 08 be 7e b5 5d bd
       0.058093578 -0.045659572 -0.13328727 -0.054128163
0000f0 d2 6d 76 bd 4d a7 bf 3b 1a 05 35 3e 63 46 15 be
       -0.060163327 0.005848801 0.17677727 -0.14577632
000100 df 1b 41 3f d7 26 43 be ad 0a 1d 3e cf 24 23 3f
       0.7543315 -0.19057785 0.15336104 0.6372804
000110 4a 22 0e bd 48 2c ca 3e 21 ec 99 bd a2 e3 b0 be
       -0.03470067 0.3948691 -0.07515741 -0.3454867
000120 71 ec ba 3d 73 b7 38 3d 6f 39 ba 3e 07 d9 fa be
       0.09127129 0.045096826 0.36371943 -0.48993704
000130 f1 f0 47 bd 5b 16 2c 3e 13 91 61 bf 07 b9 0f bf
       -0.048813764 0.16805403 -0.8811199 -0.56141704
000140 e0 3c 35 bf e3 e1 1f bf 9d 88 a9 3e 76 20 14 3f
       -0.7079601 -0.6245405 0.3311204 0.5786203
000150 69 3c 24 3f 11 52 b9 3d ef f2 91 3e 68 17 e6 bd
       0.6415468 0.09048856 0.28505656 -0.11234933
000160 63 6b 51 bf 84 d3 65 be dd 26 64 3f 21 ec 1d bf
       -0.81804484 -0.22443968 0.891218 -0.6168843
000170 ae 18 38 bf df 49 33 bf 6e 67 0d bf 2e 1d 4f 3e
       -0.7191266 -0.70034593 -0.55235946 0.20225975
000180 22 8c 01 3f 1b b0 d4 3e 32 6b 30 bf a8 62 39 3e
       0.5060445 0.41540608 -0.6891357 0.1810404
000190 90 3e 3b ba f0 fb 85 3e 64 69 3a bd 00 ba ea be
       -0.00071428064 0.26168776 -0.045510665 -0.45845032
0001a0 3d d6 d7 bd 70 fa d8 3c 17 39 92 3c dc 39 9e 3e
       -0.105389096 0.026486605 0.017849488 0.30903518
0001b0 ea 53 f7 3e 2c 9a 24 3f b6 4e cd bc 68 a2 c2 3d
       0.4830621 0.6429775 -0.025061946 0.09503633
0001c0 c7 c1 ff 3e 6d 31 a8 be bb 51 f8 3d 39 cb d4 3e
       0.49952528 -0.3285021 0.12124964 0.41561297
0001d0 25 a7 27 bf 53 11 01 bf 0e d4 2b bf 2e e1 34 bf
       -0.6548942 -0.5041706 -0.67120445 -0.70656097
0001e0 e4 aa 24 be fb e3 ad 3d a8 d4 00 3f 93 d8 a3 3e
       -0.16080815 0.084907494 0.5032449 0.3200117
0001f0 ab 6a 85 be f4 8f 22 be 1c c9 98 3e 49 f0 dc 3d
       -0.26057944 -0.15875226 0.29840934 0.10788018
000200 50 b9 10 3f 04 49 d1 bb 2b c0 1b 3f 57 a6 d5 3e
       0.56532764 -0.006386878 0.608401 0.4172847
000210 76 62 a9 bd 0c 84 e0 3c d4 c6 1f be a7 16 51 be
       -0.08270733 0.027406715 -0.1560319 -0.20418797
000220 0c 41 9a 3e d1 42 b6 3c be 31 2a 3d b2 5b c2 bd
       0.30127752 0.022248657 0.041551344 -0.09490146
000230 a5 8a a9 3d 95 55 81 be 7c bd d5 be 2d 53 0c bf
       0.082783975 -0.25260606 -0.41746128 -0.54814416
000240 e2 1b b0 be a5 aa 08 bf 1f d2 8e 3e 0e 7b 43 3e
       -0.34396273 -0.5338538 0.27894685 0.1908991
000250 c9 f0 ef 3e 9e f6 8f be fa c8 43 3f 07 58 d0 3d
       0.46863392 -0.2811784 0.7647854 0.1017304
000260 80 15 01 bf b1 23 6c bd 82 42 e7 3e ca af 33 bf
       -0.5042343 -0.057651225 0.4516793 -0.7019011
000270 ef 0f c3 be 81 cf b9 be 08 f0 9b 3c 62 a7 54 bd
       -0.38098094 -0.36291125 0.019035354 -0.05191744
000280 22 06 ad 3e ce 31 5f 3e 04 34 15 bf 0e ca 7d be
       0.3379374 0.21796343 -0.58282495 -0.24784109
000290 2e fe b4 3d 29 aa 04 3f 6b 49 02 3d 70 d7 e5 be
       0.088375434 0.51822144 0.031808298 -0.44890928
0002a0 83 ca b9 3e 93 5f 74 bc 36 4e 79 3b 13 98 6f 3b
       0.36287317 -0.014915365 0.0038041002 0.003655915
0002b0 49 22 8c 3d af a9 ec 3e 78 00 03 be 92 26 d4 3d
       0.06842477 0.46223208 -0.12793148 0.10358919
0002c0 65 0f 83 3e 95 7b 1a be 72 9c af 3e 6a a0 84 3e
       0.25597683 -0.15086205 0.34299046 0.25903636
0002d0 9d ab 92 be 3b 30 46 bf 29 55 4d be 6f 2e a1 be
       -0.28646556 -0.77417344 -0.20052017 -0.3148074
0002e0 7d 3f bb 3e d0 a0 08 3e d7 a6 f9 3c 1f 2f 8a 3e
       0.36571875 0.13342595 0.030475063 0.26989076
0002f0 42 2d 46 bf 78 76 56 3d 66 5e 9a bc d1 24 5d be
       -0.7741281 0.052359074 -0.01884384 -0.21596076
000300 87 7a af 3e 5c 71 5a bd a8 68 fd 3c a8 26 97 3d
       0.34273168 -0.053330764 0.030933693 0.0738042
000310 f7 7c 49 3e 92 3a ab bc f3 3e 40 be 9b b7 c8 be
       0.19676577 -0.020901952 -0.18774013 -0.3920258
000320 ba 6c aa bc c0 b2 12 3e 3b 1f 1c be 32 68 42 be
       -0.020803798 0.14326 -0.15246288 -0.1898506
000330 08 60 03 3e 5e 87 41 3d cb a1 74 be b8 7b 66 be
       0.12829602 0.047248237 -0.23889844 -0.22508132
000340 88 6e 1e be a4 5e 54 be 9e e1 eb 3e 09 80 4e 3e
       -0.15471852 -0.20739228 0.4607057 0.20166029
000350 28 3d 94 3e 4d 65 8d bd 73 ae eb 3d 37 3a 46 be
       0.2895291 -0.06904087 0.11507883 -0.19358145
000360 52 4f 27 be 6c ff 6c be 0b 81 7b 3d 0f 13 f6 bd
       -0.16338852 -0.2314431 0.06140236 -0.12015354
000370 d8 30 16 be 3c ce 17 bf 4e 3a 34 be 39 1e ca bd
       -0.1466707 -0.59299064 -0.17600366 -0.09869046
000380 14 c8 af 3d 49 dc 81 3e 85 30 5c be 8e eb 58 3e
       0.08583084 0.25363377 -0.21502884 0.21183607
000390 cb 78 89 bd cf 1d 50 3e dd 51 95 be de 2d 80 be
       -0.067124926 0.20323871 -0.2916402 -0.25034994
0003a0 86 4d 88 3e 8b 27 98 be c9 58 aa 3b 16 94 79 3e
       0.26621646 -0.2971767 0.0051985723 0.24372897
0003b0 74 32 59 3e 5c df ec 3d d1 d9 8a be de 63 72 3e
       0.21210653 0.1156604 -0.27119306 0.23670909
0003c0 bd e0 40 3e 26 68 48 be 08 45 4c 3d 42 19 60 3e
       0.18835731 -0.1957098 0.04987052 0.21884635
0003d0 14 bf 5f be 61 e3 70 be 0c b1 68 be a2 e9 fd bd
       -0.21850234 -0.23524238 -0.22723788 -0.123980775
0003e0 7f b4 0a be 1a 7b 6c bc e3 61 c6 be 9a be b3 3e
       -0.13545416 -0.014433647 -0.38746557 0.35106355
0003f0 81 43 80 bd 26 f0 5c be 90 3f d2 bd 9a 14 49 be
       -0.06262875 -0.21575984 -0.1026603 -0.19636765

lstm.bias_ih_l0 f4 [256]
000000 a3 05 86 3e 61 13 8b bd e6 83 dd be df ea 55 be
       0.26176175 -0.067908056 -0.43264693 -0.20890377
000010 68 9e a5 be 3b f1 01 be 0b fb 91 bd 05 eb a3 be
       -0.32347417 -0.12689678 -0.07127961 -0.32015243
000020 6c ed 21 bf 0f a5 10 bf bb 4f 6b be 07 f5 44 be
       -0.632529 -0.5650186 -0.22979634 -0.19234096
000030 0f e4 b6 be ce da c2 be 55 43 12 3e c3 7a 55 be
       -0.3572087 -0.3805756 0.14283498 -0.20847611
000040 f9 77 e8 bd c1 a0 79 be c6 dd 95 3d 9e a1 c9 be
       -0.11351008 -0.24377729 0.073176906 -0.39381117
000050 b7 88 b3 3e 4f 8f 96 bd 2a 72 c0 bc 80 dd 01 3e
       0.35065243 -0.07351553 -0.023491938 0.12682152
000060 9f 67 89 be 7f ae 02 be 83 53 a9 3d 58 10 50 be
       -0.2683687 -0.12761877 0.08267882 -0.20318735
000070 d6 fb 8c 3c d1 09 c4 bc 57 c4 6e be bd 19 44 bd
       0.017209928 -0.023930462 -0.23317085 -0.04787611
000080 98 22 5e 3d 99 89 24 be c6 34 a1 3e 80 d8 ce bd
       0.05423221 -0.16068114 0.31485575 -0.10099888
000090 6a 5f 4e bf 38 02 9c bd a9 12 25 be f7 74 8b be
       -0.8061434 -0.07617611 -0.161204 -0.27237675
0000a0 9a 7b 5c bd 14 e0 63 be 13 e7 43 bf de 58 23 be
       -0.053828813 -0.22253448 -0.76524466 -0.15951869
0000b0 90 24 41 be 97 82 ef bd 50 f6 63 be a0 fb e4 bd
       -0.18861604 -0.1169483 -0.2226193 -0.11180806
0000c0 9d 1a 71 bc e0 7b ff bd 4b 43 02 3b e3 37 ba be
       -0.014715818 -0.12474799 0.0019876536 -0.36370763
0000d0 1c 0b a1 3c d8 a7 91 bd 64 1e c9 be cd 55 2d bc
       0.019658618 -0.07112092 -0.39281 -0.0105795385
0000e0 15 a5 d1 bb cb b0 a7 bc a7 06 8e bd 6f d9 dd be
       -0.006397853 -0.020470044 -0.069348626 -0.4332995
0000f0 55 54 21 3d fc 36 3c 3c bb 7f c8 be be ae 02 bf
       0.039387066 0.011487719 -0.3915995 -0.51047885
000100 82 a4 31 bd c9 3b 30 be ee c6 b2 bd 7f d7 a8 bc
       -0.043369778 -0.17210306 -0.08729349 -0.020610569
000110 18 f1 66 be ed a0 ff bd b9 6e 28 3d 72 72 28 be
       -0.22552907 -0.12481866 0.04112122 -0.16449907
000120 05 15 ba be a0 aa 8a be c4 21 4a 3e bc f2 52 3c
       -0.36344162 -0.27083302 0.19739443 0.012875255
000130 b4 3f a4 be 35 11 ab be 0c 55 30 3e d4 77 73 be
       -0.32079852 -0.33411565 0.17219943 -0.2377618
000140 d9 96 a2 bd 8d cc c1 bc d9 c2 4b be e6 16 2a be
       -0.07938928 -0.023657108 -0.19898547 -0.16610298
000150 5a 73 8b 3d 3b 28 ed be 67 82 6c bd 9c 9d 69 be
       0.06809111 -0.46319756 -0.05774155 -0.2281403
000160 64 ba 83 be 9d a1 9e be 23 f7 20 bd 89 57 9a bd
       -0.25728142 -0.30982676 -0.039298188 -0.07536227
000170 df b6 94 bb 01 d8 87 3b f5 5b 63 be 8b dd b1 be
       -0.0045384015 0.0041456227 -0.22203048 -0.34739336
000180 3e 0d f8 bd f2 1c 05 be 96 f5 98 ba 18 0f 64 bd
       -0.12111901 -0.12999323 -0.001166987 -0.055678457
000190 8b 56 87 be 03 ff 55 be 8a 24 89 be 71 48 6e be
       -0.26433215 -0.2089806 -0.2678569 -0.23269822
0001a0 13 4e ac 3d 8b 34 92 be 48 0e 31 be 3d 37 50 be
       0.08413329 -0.28555712 -0.17290604 -0.20333572
0001b0 ef 7c 9e be 03 34 bf bd 79 12 fe bd bf c6 00 bf
       -0.30954692 -0.09336092 -0.12405867 -0.5030326
0001c0 f7 01 a6 3e ea 80 41 be d1 30 af 3d da 73 8d be
       0.32423374 -0.18896833 0.08554233 -0.2762745
0001d0 3b 17 94 be db f1 47 be 2e 16 c8 be 8e 60 99 3c
       -0.28923973 -0.19525854 -0.39079422 0.018722799
0001e0 53 5a ec bd 58 00 2b 3d ec 07 84 3c bf 90 18 be
       -0.115406655 0.041748375 0.016117059 -0.14898966
0001f0 b5 c6 c2 bd 46 b3 95 3e de 04 7e be b0 45 af be
       -0.095105566 0.29238337 -0.24806544 -0.34232855
000200 ac 51 34 be 0e 37 94 be ac f7 00 be 26 aa 97 be
       -0.1760928 -0.28948253 -0.1259448 -0.29622
000210 03 a9 a3 3d 3a e2 7c 3e 7f 98 56 3e a0 0c 19 3e
       0.07991221 0.24695674 0.2095661 0.14946222
000220 6a ce 92 3c 25 3f 92 3d 3e 99 92 3e 2b 1b 93 bc
       0.017920692 0.0714095 0.2863254 -0.01795729
000230 ac 25 60 3e 89 01 8f be 1b 30 79 bc 9c a3 c9 3d
       0.2188937 -0.2793086 -0.015209223 0.09845659
000240 8c 26 33 3e f0 73 53 3e 34 bd 29 bd f5 99 84 3a
       0.17495173 0.20649695 -0.041440204 0.0010116684
000250 a3 7e b5 be 10 8a 0c 3e 42 a4 26 be 77 6d 2b 3e
       -0.3544818 0.13724542 -0.16273597 0.16740976
000260 89 ee 85 bd df a0 af bd a2 b1 df be 8b 7d 18 3e
       -0.065396376 -0.085756056 -0.4369021 0.14891641
000270 45 9e aa 3e bf a7 d5 3d 58 30 a1 3d 39 bd 8f be
       0.33323875 0.10432386 0.07870549 -0.28074053
000280 ff 14 ec be e1 43 e2 bd 8b 46 94 3e 7b 5a 6e 3d
       -0.4610977 -0.11048103 0.2896007 0.058191758
000290 71 2e c5 bd 52 0f 0f be 2c 08 d0 3d 73 55 9c 3d
       -0.096279986 -0.13970688 0.10157809 0.07633486
0002a0 a4 8f c5 3c 9d 57 1e bd ce c1 d8 3d 61 d8 ba bd
       0.024116345 -0.038657773 0.1058384 -0.09123302
0002b0 15 33 92 be a2 6d 4b be 27 19 15 3e 8a 3e 5d 3e
       -0.28554597 -0.1986604 0.14560376 0.21605888
0002c0 d1 a1 22 3e 7c 36 46 3e a9 d0 09 be 91 0a 70 3e
       0.1588204 0.19356722 -0.13458504 0.23441531
0002d0 ac e6 6c 3e 77 20 51 3e aa ba 46 bd 8d 7a e8 3e
       0.2313487 0.2042254 -0.04851786 0.45406
0002e0 ab d2 24 3e 64 94 b4 be f8 85 5d be 83 2c 37 be
       0.16095988 -0.35269463 -0.21633136 -0.17888074
0002f0 02 5f 00 3e a2 49 39 be e2 2a 3b bd 0c 65 b9 be
       0.12536243 -0.18094495 -0.045695193 -0.36209905
000300 eb ca 88 3e cd 94 58 be 71 ad cb be 5a e6 dc bc
       0.26717314 -0.21150513 -0.39780763 -0.026965309
000310 68 63 9f be 01 d8 79 bd 83 5b 93 bd 2c bd aa be
       -0.31130528 -0.060997013 -0.07195189 -0.33347452
000320 c0 81 dd be e5 5f e7 be 34 51 be 3b d6 64 bb be
       -0.43263054 -0.4519035 0.00580802 -0.3660037
000330 ca ea c5 be 16 c5 b2 be f5 9f 9e bd 49 d2 a8 be
       -0.38655692 -0.3491599 -0.07745353 -0.32972935
000340 45 40 ec bd eb f2 80 be 67 7f 98 3d 2c a4 8c be
       -0.11535696 -0.25185332 0.07446175 -0.27469003
000350 03 24 82 3c 26 65 04 3a 61 44 8e bc eb a3 16 bd
       0.015886312 0.00050504727 -0.01736659 -0.036777418
000360 d6 b8 49 be 3e 2b 5e be d9 73 8f bd 59 65 eb bd
       -0.19699416 -0.21696183 -0.07004518 -0.1149394
000370 71 2d 9f bc 78 d5 4f be ed b7 f3 bd 55 63 6a be
       -0.019430848 -0.20296276 -0.119003154 -0.22889455
000380 33 e9 58 bd de 2f 24 be 0c 41 b9 3d 42 6f 91 bd
       -0.05295677 -0.16033885 0.0904561 -0.07101299
000390 c8 af 55 bf 94 f4 b3 be ab 95 f7 bd 9b 9c 96 be
       -0.83471346 -0.35147536 -0.12089094 -0.29416355
0003a0 3e 42 d2 3b 10 00 49 be 71 0d 43 bf 1f 8c 88 bd
       0.006416588 -0.1962893 -0.76192385 -0.06667351
0003b0 ad 4f 77 be e7 49 3a be f6 8c 91 be 53 92 32 be
       -0.24151488 -0.18192254 -0.28427857 -0.17438631
0003c0 0b a1 bf bc 6e 14 86 be 0b 5b 6e be 28 29 3e be
       -0.023392221 -0.26187462 -0.23276918 -0.18570387
0003d0 6f 5c 89 bc 0d 01 a8 bd a6 29 29 be 20 51 2a be
       -0.016767709 -0.082033254 -0.16519794 -0.16632509
0003e0 c0 f4 43 be 6c ac cc bd 43 fc 9d 3c 00 ff 09 bf
       -0.19136333 -0.09993824 0.019285327 -0.53904724
0003f0 8d a2 88 bd 00 09 d6 bd 6c d4 ce be c9 87 f3 be
       -0.06671629 -0.10450935 -0.4039644 -0.47564533

lstm.bias_hh_l0 f4 [256]
000000 1a 96 ec 3d b4 78 64 be e4 0e d4 be 1b 41 4c 3c
       0.11552067 -0.2231167 -0.4141761 0.012466694
000010 e0 9c cf be 52 45 1d 3d d2 11 1b 3e 9e 39 b8 be
       -0.40549374 0.038396187 0.15143517 -0.35981458
000020 0f 64 18 bf 7d 61 ff be 42 90 d1 bd 72 54 97 be
       -0.5952768 -0.49879065 -0.10232593 -0.29556614
000030 66 d7 00 bf 80 2b 92 be 8e 29 69 3e 2d 84 41 be
       -0.5032867 -0.28548813 0.22769758 -0.18898077
000040 df 24 72 bd 82 a9 f1 bd f7 73 47 3e 32 c1 86 be
       -0.059117194 -0.11799909 0.19477831 -0.2631927
000050 32 14 94 3e a3 fd a7 bd 3b a8 ff bd e0 09 cd bc
       0.28921658 -0.08202674 -0.12483259 -0.025029123
000060 81 3f 88 be 4e 60 32 bd a0 7a 0a 3e 2f 2f a2 bd
       -0.2661095 -0.043548875 0.1352334 -0.07919156
000070 9d f5 16 3d 1b 46 ec bd f2 77 4c be 8e a9 90 be
       0.03685533 -0.11536809 -0.1996763 -0.2825436
000080 da f9 23 bd 08 ea 48 be 43 5d 88 3e a3 4c fd bd
       -0.0400332 -0.19620526 0.26633653 -0.12368133
000090 f6 70 4c bf 21 42 5b be 87 50 23 be 46 77 db be
       -0.79859865 -0.21411945 -0.15948687 -0.42864436
0000a0 f5 e1 27 be bc d6 8b be 78 0a 48 bf a5 6d 6c be
       -0.1639479 -0.27312267 -0.78140974 -0.23088701
0000b0 07 6c 8c be ab 8c 93 be 46 57 06 be 30 37 81 be
       -0.27426168 -0.2881826 -0.1311923 -0.25237417
0000c0 83 29 f3 bc eb 0c 53 bd 7c 7d 01 be f1 a1 41 be
       -0.02968288 -0.05152599 -0.12645525 -0.18909432
0000d0 fc a0 59 3e 64 3a 80 bd 6f 33 94 be 52 c0 10 bd
       0.21252817 -0.06261137 -0.2894549 -0.03533966
0000e0 a4 b5 ea bd a9 a3 e0 bd 49 c6 bd 3c b3 6d 04 bf
       -0.114604264 -0.10968716 0.023165839 -0.5172989
0000f0 3c 16 a1 bd ff 65 8f 3c ec 66 1d bf 50 72 fb be
       -0.07865569 0.01750469 -0.6148517 -0.4911065
000100 fc ec 11 3e 36 61 03 be f9 c3 06 be 96 d9 3e be
       0.14250559 -0.12830052 -0.13160695 -0.1863769
000110 f6 c0 d8 be e7 58 8d bd c8 70 2d 3d a5 3b 6d bd
       -0.42334718 -0.069017224 0.042343885 -0.05791821
000120 22 f1 cd be a5 4b b9 be fb ad f4 3d ec 13 22 be
       -0.40223032 -0.36190525 0.11947247 -0.15827912
000130 04 5a c7 be c2 68 af be 24 aa 3d 3e 1e 55 2b be
       -0.38935864 -0.3425961 0.18521935 -0.16731688
000140 ae 83 b9 bd 4a f8 86 bd 5d 72 96 be a4 1e 95 be
       -0.09058319 -0.06590326 -0.29384127 -0.2912494
000150 0c e5 e4 3d 08 d8 e3 be 6e 43 2f be 4a f3 65 be
       0.111765 -0.44500756 -0.17115566 -0.22456089
000160 f0 73 df be 2a 6e a8 be 1b 20 69 bd 0f 8e 67 bd
       -0.4364314 -0.32896549 -0.056915384 -0.056531962
000170 7c 57 24 3e 13 65 3e be d1 76 3e be 07 89 9b be
       0.16048998 -0.18593244 -0.18600012 -0.3037798
000180 f9 3f 4b be 75 f8 93 bd 61 65 0e be cf 28 61 3d
       -0.19848622 -0.07225124 -0.1390586 0.05497056
000190 f1 70 a3 be 72 22 bb bd c0 f2 96 be f7 c3 8f be
       -0.31922105 -0.09137429 -0.2948208 -0.28079197
0001a0 f9 ec 21 3d 2e 76 86 be dc f9 9a be 4d 85 a8 be
       0.039532635 -0.2626204 -0.30268753 -0.329142
0001b0 eb c4 b3 be b8 21 23 be 43 59 e5 bd fd df f7 be
       -0.35111174 -0.15930831 -0.11198666 -0.48413077
0001c0 ea 6d 50 3e 71 9d 67 be a2 eb 0a 3c 5a dc 92 be
       0.20354429 -0.22618653 0.008479031 -0.2868374
0001d0 d2 1f 19 be a5 da 06 be 1c 1c c1 be d0 2a 8a 3c
       -0.14953545 -0.13169344 -0.37716758 0.016866118
0001e0 77 78 15 3d 10 e2 ad bb 53 14 9d 3d 33 32 c4 be
       0.036491837 -0.0053064898 0.07669892 -0.3831955
0001f0 15 e2 5c be 97 00 ad 3e 46 61 c9 be 8d cc 22 be
       -0.21570618 0.33789513 -0.39332026 -0.15898342
000200 d0 a9 84 be db 0d 64 be fe a4 3c be 2c 93 c6 be
       -0.25910807 -0.2227091 -0.18422315 -0.38784158
000210 81 f5 17 be 4a 54 db 3d bd 31 97 3e 9c 84 07 3e
       -0.14839746 0.10709436 0.29530135 0.1323418
000220 2d 7d b4 3d fe 60 1f 3e 7d 12 17 3e 97 c8 1d bc
       0.08812938 0.15564343 0.14753146 -0.009630344
000230 c3 81 3f 3e b2 9d 93 be ea b4 b7 3d 1d 8a 7b 3e
       0.18701844 -0.2883125 0.089700535 0.24564405
000240 6a 1b 8c 3e 63 59 ad 3d 10 6a 16 be e7 a1 1f be
       0.27364665 0.08464315 -0.14688897 -0.15589105
000250 86 50 d0 be 77 ae f5 3a 6b 8d 3d be ec 24 a0 3d
       -0.40686435 0.0018744011 -0.18510978 0.07819542
000260 4c 82 7b be f2 5f 8c 3d 30 62 a7 be 7c e6 17 3e
       -0.24561423 0.068542376 -0.326921 0.14834017
000270 9f 28 b2 3e 51 9b f1 3d 93 a5 99 3e e7 30 e0 be
       0.34796616 0.117972024 0.30009136 -0.4378731
000280 88 e3 c4 be 16 00 82 be 69 56 83 3e 3b b9 66 bd
       -0.38454843 -0.2539069 0.25651863 -0.056328993
000290 a1 a0 43 bb 9a 21 3e bd 26 35 69 3e 1d 99 25 3e
       -0.002985038 -0.046418764 0.22774181 0.1617169
0002a0 3a 1f 26 3e b9 a1 42 bd 19 16 58 3e c8 3e 5c bc
       0.1622285 -0.047517512 0.2110218 -0.013442703
0002b0 b0 d9 82 be 5e cb 70 be ef 15 ec 3d 12 95 dd 3d
       -0.25556707 -0.23515078 0.11527621 0.108194485
0002c0 74 51 e8 3d ef e0 8a 3e 69 0f aa bd 1a e8 27 3e
       0.11343661 0.27124736 -0.083037205 0.16397133
0002d0 c3 24 28 3e 2b 2b 80 3e 3b e4 1f 3d 6e ce ab 3e
       0.16420273 0.25032935 0.039036017 0.3355593
0002e0 7d d0 9e bc 34 fa c5 be f6 5c 2a be 83 cc 6a 3d
       -0.019386524 -0.38667452 -0.16637024 0.057323944
0002f0 a5 47 ac 3d 01 0d 54 be 37 bb 1b bd 49 e3 ce be
       0.084121026 -0.20708086 -0.03802034 -0.4040778
000300 f1 c0 5b 3e 1c b5 99 bc ff 57 89 be cb 70 3a bd
       0.2146032 -0.018763117 -0.26824948 -0.045517724
000310 a8 6b ce be 1b 45 94 bc 27 4f 19 3e 1a 8a b5 be
       -0.4031651 -0.018099358 0.149716 -0.35456926
000320 7d 62 1e bf 60 6f 07 bf 2a 51 79 3d ad fd 87 be
       -0.6186903 -0.5290432 0.06086842 -0.26560727
000330 c0 24 f6 be 54 57 89 be ef f0 62 3d 40 13 97 be
       -0.48074913 -0.2682444 0.055405553 -0.29506874
000340 1f f0 07 be cb 70 3d be ee 5a 01 3e b2 03 7d be
       -0.13275193 -0.18500058 0.12632343 -0.24708441
000350 b6 d9 a8 3d 66 de 70 bd 52 7c b3 bd 0a 42 5d 3d
       0.0824465 -0.058805846 -0.087639466 0.054018058
000360 99 14 be be 70 02 e1 bd ca 55 92 3d 32 62 85 be
       -0.3712509 -0.10986793 0.07145269 -0.2605148
000370 78 e7 c1 bd 66 dc 11 be 94 29 75 be f3 56 3b bd
       -0.09467977 -0.14244232 -0.23941642 -0.045737218
000380 43 c6 cc bd a5 96 08 be c0 ab 1b bd af 75 0d be
       -0.09998753 -0.13338716 -0.03800559 -0.13814424
000390 cf 26 46 bf 8a 43 cf be 9d 21 9f bd 79 b6 a8 be
       -0.7740297 -0.40481216 -0.07770083 -0.32951716
0003a0 ea bc 4c 3d a9 bc cb bd f9 da 2e bf 69 3b 84 be
       0.04998485 -0.099480934 -0.68302876 -0.25826576
0003b0 77 2d 83 be 74 c7 71 be 57 09 80 be 5f 59 7e be
       -0.25620624 -0.23611242 -0.25007126 -0.2483878
0003c0 2a f3 2e be fd d6 29 be a9 54 ad bd cd 74 aa be
       -0.17084947 -0.16585918 -0.08463413 -0.33292237
0003d0 49 98 c1 3d a7 de 22 bd bd bf b9 be fc c7 72 bd
       0.09452874 -0.03976312 -0.36279097 -0.05927275
0003e0 f3 bf a3 bd a9 bd f8 bc be 2e 09 3d 3c 42 f6 be
       -0.07995596 -0.030363875 0.033491842 -0.48097408
0003f0 24 52 b1 bd 97 67 e6 bc 74 92 19 bf 8a 92 e4 be
       -0.08658245 -0.028125567 -0.59989095 -0.4464305

Linear2.weight f4 [2, 64]
000000 f8 07 4a be 10 ee 88 be ec 02 e9 bd d9 0c 46 be
       -0.19729602 -0.26744127 -0.113775104 -0.19340838
000010 c5 aa 90 be 63 55 06 bd 41 59 14 3d 31 37 17 3e
       -0.28255287 -0.032796275 0.03621793 0.14767148
000020 83 11 a6 bd 5f 68 3a 3d 4a 84 e5 3d 13 1e 8e bb
       -0.08108809 0.045509692 0.11206873 -0.004337081
000030 aa 63 9c 3c 22 c6 99 bd 89 ed 21 3e 63 56 6c 3e
       0.019090492 -0.07508494 0.15813269 0.23079829
000040 3e 9f af 3d 91 d9 19 3e 26 39 f9 bd 89 3e 1a be
       0.08575295 0.15024401 -0.12169103 -0.15062918
000050 19 a2 99 be ba bd 75 3d 0b 99 8b be 24 25 4a 3e
       -0.30006483 0.05999539 -0.272652 0.1974073
000060 dc cc 3e 3e 55 09 4c bc 33 28 d4 bd 38 b7 c2 3d
       0.18632835 -0.012453397 -0.1035923 0.095076025
000070 30 28 fd 3d 4d 08 4c 3e 51 d3 f4 3d f3 78 99 be
       0.12361181 0.19925041 0.11954368 -0.2997509
000080 96 20 50 be c9 2d b0 bc bf eb ca 3e d2 42 d8 bd
       -0.2032493 -0.021506207 0.39632985 -0.1055962
000090 74 55 07 bd de c2 ac bd 36 70 5b 3d 40 d4 a3 3d
       -0.03304048 -0.084356055 0.05357381 0.07999468
0000a0 1e fb 81 bd 51 83 31 bd e7 3b 9b 3d 32 79 6f be
       -0.06346725 -0.043338124 0.07579785 -0.23386076
0000b0 54 0e f1 bd 93 56 2f be 2c 89 33 3e 56 c7 6d be
       -0.11770311 -0.17122869 0.17532796 -0.23220572
0000c0 a6 ca 96 3c 1b c2 30 3e 24 18 8c bd a1 be 22 be
       0.018407177 0.17261545 -0.06840542 -0.15893032
0000d0 e0 87 b5 3d fd 7d 49 3e 51 f2 33 3d 90 32 47 3e
       0.08863807 0.19676967 0.043932263 0.19452882
0000e0 bb 6b b3 3c 84 27 6f be 6c 9c de 3d 99 b3 db bd
       0.021901956 -0.23354918 0.10869679 -0.10727615
0000f0 f0 75 7f 3e f1 89 a0 bd f5 ca 81 be 3b 1d 30 3d
       0.24947333 -0.0783881 -0.25350156 0.042996626
000100 08 52 88 be 72 30 4d be 38 5b 89 bd 84 53 15 be
       -0.26625085 -0.20038012 -0.06706852 -0.1458264
000110 db d5 98 3d eb 0d 51 bd 31 85 88 bd 32 57 a0 bc
       0.07462665 -0.051038664 -0.06666029 -0.019572828
000120 c8 6a 59 3d 6c 83 3a be 68 cf 25 3d 20 fa f2 3d
       0.05308035 -0.18214196 0.040481 0.11864114
000130 16 9e 67 3e 6d 80 36 be 3a 3b 33 3e bb 52 21 3d
       0.22618899 -0.17822428 0.17503062 0.03938554
000140 87 34 5a 3e 5f 03 25 3e 10 f3 59 3d c0 aa ec bd
       0.213091 0.16114567 0.053210318 -0.115560055
000150 18 d3 a7 be 0f 2c e1 bd 0a da c6 3b dd 2a 51 3e
       -0.3277824 -0.10994732 0.0060684728 0.20426507
000160 b0 92 a9 3d 8c 35 c2 3e 2b 80 85 be 37 d3 d8 3d
       0.082799315 0.37931478 -0.26074347 0.10587161
000170 f5 11 80 3e 81 86 a4 3d a9 4e 14 3e 6a 67 31 be
       0.250137 0.08033467 0.14483131 -0.17324606
000180 24 4c 12 be 60 08 a6 bd b4 ab d0 bc 34 b8 cb bd
       -0.14286858 -0.08107066 -0.0254725 -0.09947243
000190 e2 00 3d 3d 15 5d 62 be d2 4f f5 bd 57 0d e2 3d
       0.04614342 -0.2210582 -0.11978115 0.110377006
0001a0 7d 62 97 bd ca 88 89 be 3a 12 26 3e 33 d8 34 bc
       -0.07391832 -0.26862174 0.1621789 -0.011037874
0001b0 bc 04 c0 bd 3d 6b 0f be 28 ec 90 3d 91 8e dd 3d
       -0.09375903 -0.14005752 0.07076293 0.10818208
0001c0 90 51 33 bd 5b c4 30 3e 0c c5 f4 bd 25 a9 2b be
       -0.043778956 0.17262404 -0.11951646 -0.16763742
0001d0 1d a5 80 3e 66 62 12 3e d6 e2 6c 3e 57 91 1c 3e
       0.2512597 0.14295349 0.23133406 0.15289818
0001e0 7e 3c 50 3b 48 be a2 be fd d8 52 bd 70 2f 62 bc
       0.0031774337 -0.31785798 -0.051476467 -0.013805255
0001f0 c0 8a 62 3e 65 5c c0 bd 76 77 56 be d4 14 1d bf
       0.22123241 -0.09392623 -0.20944008 -0.61359906

Linear2.bias f4 [2]
000000 13 df 8c 3e a1 89 8d 3e
       0.27513942 0.27644065
