DRQN_POMDP_SEQ_FOMDP_SEED_1.pth (torch_old, 136222 bytes, 8 tensors)

Linear1.weight f4 [64, 4]
0	0x3eac0e33	0.33604583
1	0xbc342999	-0.010996246
2	0x3e5cbce3	0.2155643
3	0x3e35a674	0.17739278
4	0xbee93beb	-0.45553526
5	0x3e9e3f68	0.3090775
6	0xbed23258	-0.41054034
7	0x3e867ed5	0.2626864
8	0x3dc248f2	0.094865695
9	0xbd9e6917	-0.07734888
10	0x3fc73600	1.5563354
11	0x3e8e3411	0.277741
12	0x3ea87b2d	0.32906476
13	0xbd1da459	-0.038486812
14	0xbee864c8	-0.4538939
15	0x3e30a629	0.17250885
16	0x3c86b966	0.016445827
17	0x3d16677c	0.036719784
18	0x3faa0fc7	1.3286065
19	0x3e1a7456	0.15083441
20	0x3e1d2664	0.15346676
21	0x3ec75826	0.3893444
22	0x3f6c5c7f	0.9232864
23	0x3e989b47	0.29805967
24	0xbe05fff1	-0.13085915
25	0x3da48c27	0.080345444
26	0x3fa2dd27	1.272374
27	0x3e537dcd	0.20653458
28	0xbf683780	-0.90709686
29	0x3eaed119	0.34143904
30	0x3f6be6ac	0.9214885
31	0x3e4cb59c	0.19991153
32	0x3f4a8102	0.791031
33	0xbe47a831	-0.19497754
34	0xbf89c80a	-1.0764172
35	0xbe3d28b1	-0.18472554
36	0x3f09b002	0.5378419
37	0xbd5dc04f	-0.054138478
38	0xbf6622bf	-0.8989677
39	0xbe8a9cfb	-0.27072892
40	0x3f1729ad	0.5904797
41	0xbe0d0195	-0.13770135
42	0x3f769a43	0.96329135
43	0xbdd1c30b	-0.102422796
44	0xbe3c4597	-0.18385921
45	0x3f21c6c1	0.631939
46	0xbf38ea88	-0.72232866
47	0x3e7077fd	0.23483272
48	0xbe3650f1	-0.17804314
49	0x3e383be6	0.179916
50	0xbf0d8cd1	-0.55292994
51	0x3e5c03e2	0.21485856
52	0xbb348d15	-0.0027549912
53	0xbd1562e3	-0.03647126
54	0x4012086b	2.2817638
55	0x3ebc15df	0.36735436
56	0x3ec8a1b0	0.39185858
57	0xbedcd567	-0.43131563
58	0x3e971495	0.2950789
59	0xbc9b0128	-0.01892145
60	0xbe8da6e5	-0.27666393
61	0x3e1233a7	0.14277516
62	0x3f93167b	1.1491235
63	0x3e8d2967	0.2757065
64	0x3c92dfa0	0.017928898
65	0x3db49f68	0.08819467
66	0x3f2090fe	0.6272124
67	0x3ddaf5d2	0.10691418
68	0x3e8ef8cd	0.27924195
69	0xbe21abeb	-0.15788238
70	0x3f1eccb7	0.6203112
71	0xbe34f0fe	-0.17670056
72	0xbc4a70e0	-0.012356013
73	0xbc1384b6	-0.009003809
74	0x3fb709e6	1.4299896
75	0x3e49497b	0.19656937
76	0x3ec975d2	0.39347702
77	0x3edfe397	0.43728325
78	0x3f25395a	0.64540637
79	0x3ec36bf7	0.38168308
80	0xbeae532a	-0.34047824
81	0xbf1740e1	-0.5908337
82	0xbfa233f5	-1.2672106
83	0xbf008e1b	-0.50216836
84	0x3f011a48	0.50430727
85	0xbeb4e516	-0.3533103
86	0xbf372f10	-0.71556187
87	0x3f3bbcfc	0.7333524
88	0x3c5794d5	0.013158043
89	0x3dafbe90	0.08581269
90	0x3f3d1bbf	0.7387046
91	0xbebd47fb	-0.3696898
92	0xbc24a992	-0.010050194
93	0x3d81bed2	0.06335224
94	0xbf64d742	-0.8939096
95	0xbe0a1277	-0.13483606
96	0x3ac0e792	0.0014717451
97	0x3cb8dcb8	0.022566184
98	0xbfa1e7af	-1.2648829
99	0xbe3342cf	-0.17505954
100	0x3ea17cbd	0.3154048
101	0x3c1a377c	0.009412643
102	0x3f88be44	1.0683064
103	0x3dd1a148	0.1023584
104	0xbe95d42a	-0.2926343
105	0xbd8b2692	-0.06794466
106	0x3fb45ab1	1.4090177
107	0xbe135866	-0.1438919
108	0x3d0c5467	0.03426018
109	0x3eb7d0a7	0.35901377
110	0x3f49f7e1	0.7889386
111	0x3e4c06e6	0.19924507
112	0x3f945ab2	1.1590178
113	0xbef6e015	-0.48217836
114	0xbec867a6	-0.39141577
115	0x3eb9f942	0.3632298
116	0x3da0560a	0.07828911
117	0xbccd4765	-0.025058458
118	0xbfd53584	-1.6656957
119	0xbe8c2a53	-0.2737604
120	0xbed81e8a	-0.422108
121	0xbeb7bca6	-0.35886115
122	0xbe9afe52	-0.30272156
123	0xbe674fb3	-0.22588997
124	0x3f7bc5d4	0.98348737
125	0x3e281ee4	0.16418034
126	0x3dcaf19c	0.099093646
127	0x3dce6a5d	0.10078881
128	0x3ee0837f	0.43850324
129	0x3f1c0f41	0.60960776
130	0x3d3d7ea3	0.04626335
131	0x3eab3180	0.33436203
132	0x3f2fb896	0.6864103
133	0x3eb89c8e	0.36056942
134	0x3f3e1375	0.7424844
135	0x3e69acbf	0.22819804
136	0x3ebb8aad	0.3662924
137	0xbdd5ce4c	-0.10439739
138	0xbf5ff1ef	-0.87478536
139	0xbe517a83	-0.20456891
140	0xbeb675d3	-0.35636768
141	0xbe864382	-0.2622338
142	0xbf1b11fc	-0.60574317
143	0x3dabe675	0.083935656
144	0x3d333987	0.043756034
145	0x3bb074c0	0.0053850114
146	0x3f91a3de	1.1378133
147	0x3da6aeef	0.08138835
148	0xbd7f49d2	-0.06232626
149	0x3efd4eaf	0.49474093
150	0x3e5f0ec5	0.21782978
151	0x3eac6e20	0.3367777
152	0xbd4e35e9	-0.05034438
153	0xbd1493ae	-0.03627365
154	0xbfa2f0e3	-1.2729763
155	0xbe904e51	-0.2818475
156	0xbe2d0958	-0.16898096
157	0xbe823564	-0.2543136
158	0x3fb4dc20	1.4129677
159	0x3cf1773c	0.0294758
160	0xbe5b33ed	-0.21406527
161	0x3e4aff5a	0.19823971
162	0x3f82d3a2	1.0220835
163	0x3ec04fb3	0.37560806
164	0xbe9a6fde	-0.30163473
165	0x3e8c2edf	0.2737951
166	0x3eba4ad2	0.36385208
167	0xbe7435cb	-0.23848645
168	0xbeb274f1	-0.34854844
169	0xbefb77fc	-0.49114978
170	0xbf56c02d	-0.83886987
171	0x3ea7961f	0.3273172
172	0xbe5b20a7	-0.21399175
173	0x3e587544	0.21138483
174	0x3fefcafa	1.8733819
175	0x3f12e6d1	0.5738345
176	0x3f9a5a87	1.2058877
177	0x3eb10cfc	0.3458022
178	0xbf09956e	-0.53743637
179	0x3e95aacf	0.2923188
180	0xbcb42842	-0.021991853
181	0x3d3543bf	0.04425406
182	0xbfc490e6	-1.535672
183	0xbe0c89b1	-0.137244
184	0xbf364152	-0.7119342
185	0x3db27a3e	0.08714722
186	0xbf48a93d	-0.7838324
187	0xbdefda0a	-0.117115095
188	0xbe574a4e	-0.21024439
189	0xbea080b7	-0.31348202
190	0x3e402f43	0.18768029
191	0xbed95835	-0.4245011
192	0xbeac94e2	-0.3370734
193	0xbd222ddc	-0.039594516
194	0x3f55bb4f	0.83488935
195	0xbf0bf38f	-0.54668516
196	0x3f50de00	0.81588745
197	0x3e877099	0.26453093
198	0x3fac15df	1.3444175
199	0xbc3549f6	-0.011064997
200	0x3e3e31db	0.18573706
201	0xbe9a1e00	-0.30101013
202	0x3ed8a24c	0.42311323
203	0xbe795b94	-0.2435134
204	0x3f236803	0.63830584
205	0x3e0b44ff	0.13600539
206	0x3f04f58a	0.5193716
207	0x3dbe5a57	0.09294575
208	0x3eb1ba93	0.34712657
209	0x3f067aa8	0.5253091
210	0x3f2c7ed3	0.6738102
211	0x3e7fca9c	0.24979633
212	0xbed0ac0e	-0.40756267
213	0x3e71ace7	0.23601113
214	0x3fadffcc	1.3593688
215	0x3ebcc5bd	0.36869612
216	0x3e4f2358	0.20228326
217	0xbf36b65c	-0.7137201
218	0xbe741f9f	-0.23840187
219	0x3e0edcd6	0.1395143
220	0xbec56329	-0.38552216
221	0x3df0b7dd	0.11753819
222	0xbfb3b566	-1.4039733
223	0xbe8f5452	-0.2799402
224	0x3ea70210	0.3261876
225	0xbf25d681	-0.6478043
226	0xbeec5247	-0.46156523
227	0x3f35cb7e	0.7101363
228	0x3f4629bf	0.7740745
229	0x3e2417b0	0.16024661
230	0xbebdadfb	-0.370468
231	0x3d1be909	0.038064037
232	0x3f430cdb	0.7619149
233	0xbcfbcd29	-0.030737476
234	0xbe8c68fd	-0.2742385
235	0x3e88da7d	0.26729193
236	0xbf388a15	-0.72085696
237	0x3e71a6ea	0.23598829
238	0xbddd8c57	-0.10817783
239	0xbecd57ae	-0.40105957
240	0xbec8f114	-0.39246428
241	0x3e0be2c2	0.1366072
242	0x3b440852	0.0029912186
243	0x3f09d84d	0.53845674
244	0xbebb527b	-0.36586365
245	0x3d82dea9	0.06390125
246	0xbe8fefc4	-0.28112614
247	0xbec7bce1	-0.3901129
248	0xbeeaa1dd	-0.45826617
249	0x3ea1eb44	0.31624806
250	0x3f6d99bb	0.928127
251	0xbddec96c	-0.10878262
252	0x3e20eb70	0.15714812
253	0xbcbad64b	-0.022807261
254	0x3f432ffd	0.762451
255	0xbdbad4b2	-0.091226

Linear1.bias f4 [64]
0	0xbc9b7082	-0.018974546
1	0xbb8d9015	-0.0043201544
2	0xbe41e9af	-0.189368
3	0xbed8a7e7	-0.423156
4	0x3ea13c97	0.3149154
5	0xbdca41e1	-0.09875847
6	0xbefe3d07	-0.49655935
7	0x3e9d19f8	0.30683875
8	0xbd5fa8d4	-0.054604366
9	0xbe93326a	-0.287494
10	0x3e44f467	0.19233857
11	0xbec90cf7	-0.39267704
12	0xbc7650ca	-0.01503391
13	0xbeccac93	-0.39975414
14	0x3d56f0a8	0.0524756
15	0x3eafa3b5	0.34304586
16	0x3d9f94d1	0.07792056
17	0xbdac8178	-0.08423132
18	0xbe8719d5	-0.26386896
19	0xbeac9057	-0.33703873
20	0xbedf5a80	-0.43623734
21	0x3c93c7ed	0.018039668
22	0xbe96666c	-0.29375017
23	0xbe373716	-0.17892107
24	0xbe78d165	-0.24298628
25	0x3e59ee4c	0.2128231
26	0x3e9098f2	0.28241688
27	0x3daafe5e	0.08349298
28	0xbd150291	-0.0363794
29	0xbeb2fb11	-0.34957173
30	0xbf18abda	-0.59637225
31	0xbc780ca6	-0.015139734
32	0xbe11dc27	-0.14244138
33	0x3e5d8d83	0.21636014
34	0xbed3922c	-0.41322458
35	0xbef7829e	-0.4834184
36	0x3e6fd8fd	0.23422618
37	0x3de1cd06	0.11025433
38	0xbe6f693c	-0.23379987
39	0xbec5111f	-0.38489625
40	0xbf29c476	-0.663154
41	0x3c8c38b5	0.017116884
42	0xbe927eac	-0.28612268
43	0xbedaa460	-0.42703533
44	0x3cef8392	0.029237542
45	0xbe8e2000	-0.2775879
46	0xbda478d6	-0.0803086
47	0xbe5f5390	-0.2180922
48	0xbcb19af9	-0.021680342
49	0xbe856c52	-0.26059204
50	0xbf03fad3	-0.515546
51	0x3d3fe949	0.046853337
52	0xbb701eba	-0.0036639408
53	0x3edca0f1	0.4309154
54	0xbd4fe575	-0.050755937
55	0xbe6ec432	-0.2331703
56	0xbe79172b	-0.24325244
57	0xbefdf91f	-0.49604127
58	0xbcc5530d	-0.024087453
59	0xbf00cdf8	-0.50314283
60	0xbebfcc6a	-0.37460643
61	0xbe46cace	-0.19413301
62	0x3e219c8b	0.15782373
63	0xbd55d064	-0.05220069

lstm.weight_ih_l0 f4 [256, 64]
0	0xbd748f31	-0.05970687
1	0x3d07b815	0.03313454
2	0xbf179740	-0.59215164
3	0xbd4095e2	-0.04701794
4	0xbc622149	-0.013801881
5	0xbde739bd	-0.112903096
6	0xbe808f02	-0.25109106
7	0xbceb92ad	-0.028756464
8	0xbdb5fd75	-0.08886234
9	0xbf41a4d2	-0.7564212
10	0xbd037fae	-0.032104187
11	0xbd968f47	-0.07351547
12	0x3e0a81c5	0.13526066
13	0xbf4ab676	-0.79184663
14	0xbe131b12	-0.14365795
15	0xbe21979c	-0.1578049
16	0xbe024bc7	-0.1272422
17	0xbe781205	-0.24225624
18	0xbf83a401	-1.0284425
19	0xbee888fd	-0.45417014
20	0xbe527af6	-0.20554718
21	0xbdeb0039	-0.11474652
22	0xbe28fc38	-0.16502464
23	0x3e8f0e47	0.2794058
24	0xbf7377b3	-0.9510452
25	0xbe714f00	-0.23565292
26	0xbe2bef51	-0.1679051
27	0xbe3003ac	-0.171889
28	0xbe51b38d	-0.2047865
29	0xbf11e97a	-0.5699688
30	0xbf09f82b	-0.538943
31	0xbd002cbc	-0.031292662
32	0xbe629543	-0.22127251
33	0xbe3d7c5f	-0.18504475
34	0xbe99ff87	-0.30077764
35	0x3d6629f0	0.05619234
36	0x3b8b1244	0.004244121
37	0xbda7b0ff	-0.08188056
38	0x3dcd138e	0.100134954
39	0xbdbcb26d	-0.092137195
40	0xbf33fca5	-0.7030738
41	0xbe166963	-0.1468864
42	0xbd534477	-0.051578965
43	0xbf73f59a	-0.95296633
44	0xbdd680f6	-0.10473816
45	0xbfcaf9c7	-1.5857476
46	0xbe723d03	-0.23656087
47	0xbd59b025	-0.0531465
48	0xbd91535b	-0.07095977
49	0xbe8d6690	-0.2761731
50	0xbdf912c0	-0.121617794
51	0xbc229dd2	-0.009925323
52	0xbe090a9f	-0.13382958
53	0xbdb80d11	-0.08986867
54	0xbddfc75e	-0.10926698
55	0x3c592dc9	0.013255545
56	0xbe8c2e71	-0.27379182
57	0xbea89f29	-0.3293393
58	0x3cf43d54	0.0298144
59	0xbd57113d	-0.052506674
60	0xbe64f39b	-0.22358553
61	0xbd51011a	-0.05102644
62	0x3d6d4329	0.057925377
63	0xbdacfff2	-0.08447255
64	0xbe2e08a9	-0.16995491
65	0x3d80ad73	0.06283083
66	0x3f26955a	0.6507164
67	0xbf88659f	-1.0656012
68	0x3e28adca	0.16472545
69	0xbe1c1f9b	-0.15246432
70	0x3e4427bf	0.19155787
71	0x3e2dc16c	0.16968316
72	0xbebb271d	-0.3655328
73	0xbf2fba6f	-0.6864385
74	0x3e970377	0.2949483
75	0x3c7c5f08	0.015403517
76	0xbb80542a	-0.003916283
77	0x3f01e99d	0.5074709
78	0x3d3dfdae	0.046384506
79	0x3e293046	0.16522321
80	0x3d9dcfe2	0.07705666
81	0x3e0b3e9f	0.13598107
82	0x3e1ea295	0.15491708
83	0xbf467a8d	-0.7753075
84	0xbf18cb2d	-0.5968502
85	0xbec4dc1e	-0.38449186
86	0xbe8bdc14	-0.27316344
87	0xbec6ce08	-0.38829064
88	0xbf25bf1c	-0.64744735
89	0xbb7ef294	-0.0038901912
90	0x3e05535f	0.13020085
91	0x3ad8510d	0.0016503647
92	0xbf7881d5	-0.9707311
93	0xbf469a36	-0.7757906
94	0xbe98b7cb	-0.29827723
95	0x3e812bad	0.25228634
96	0xbf278186	-0.6543201
97	0xbea168d9	-0.31525305
98	0xbec893c1	-0.39175227
99	0xbf373a48	-0.71573305
100	0x3d828780	0.06373501
101	0xbed41fe9	-0.41430596
102	0xbe9c7817	-0.3056037
103	0x3ebe5c08	0.3717959
104	0xbdee5d5c	-0.11638901
105	0x3e657b80	0.22410393
106	0xbed1e289	-0.40993145
107	0xbe16cbfc	-0.14726251
108	0x3c4aa1d2	0.0123676825
109	0xbfd465a6	-1.6593521
110	0xbdc9cce8	-0.09853536
111	0xbeacdd43	-0.3376256
112	0xbc4d6173	-0.012535441
113	0x3e5052b9	0.20344056
114	0x3d363d26	0.04449191
115	0xbeb6b1ff	-0.35682675
116	0xbe8da506	-0.27664965
117	0x3dff63b3	0.12470188
118	0xbe4f5738	-0.20248115
119	0xbd2cde88	-0.04220441
120	0xbfb6f75e	-1.429424
121	0xbc8cc3ad	-0.01718315
122	0xbf309fc6	-0.68993795
123	0x3ec2edc3	0.38072023
124	0x3e200004	0.15625006
125	0x3d1569b1	0.03647775
126	0x3cf8c15e	0.030365642
127	0x3d3df4ac	0.046375915
128	0xbe17789f	-0.14792107
129	0xbe39100a	-0.18072525
130	0xbf2ba91d	-0.6705492
131	0xbd29145e	-0.04127919
132	0x3b603b4f	0.0034215038
133	0xbd937054	-0.07199159
134	0xbca7de05	-0.02049161
135	0xbd06ed5d	-0.03294121
136	0xbee00a7f	-0.43758008
137	0xbd46bf6e	-0.048522405
138	0xbe4503a0	-0.19239664
139	0x3dd92f32	0.10604705
140	0xbde5b257	-0.11215656
141	0xbfa0d77f	-1.2565764
142	0xbe8ada02	-0.27119452
143	0x3dbff1f4	0.09372321
144	0xbce3470d	-0.02774384
145	0xbd5a999e	-0.053369157
146	0xbfc8fd3f	-1.5702285
147	0xbeb3f868	-0.35150456
148	0xbe737ba6	-0.23777637
149	0xbe090d41	-0.13383962
150	0x3e263f9c	0.16235203
151	0x3db76d6d	0.08956418
152	0x3f049be6	0.5180038
153	0xbd53a6c3	-0.05167271
154	0xbd663f37	-0.05621263
155	0x3d5b41f2	0.053529687
156	0xbd29ac11	-0.04142386
157	0x3e25f356	0.16206107
158	0xbe406f50	-0.18792462
159	0xbe61dc4b	-0.22056691
160	0xbc2a33b5	-0.0103883045
161	0xbdd23c72	-0.10265435
162	0xbe9941d5	-0.29933038
163	0xbe1f5046	-0.15557966
164	0x3dae5388	0.08512026
165	0xbdb852d9	-0.09000177
166	0xbe7cdfe8	-0.24694788
167	0xbd9cd1f0	-0.0765723
168	0xbf55384e	-0.8328904
169	0x3e583c2b	0.21116702
170	0xbe555a44	-0.20835215
171	0xbf822134	-1.0166383
172	0x3d249f80	0.040191174
173	0x3e9e92ac	0.30971277
174	0xbc33d522	-0.010976108
175	0x3e4d44e2	0.20045808
176	0x3e1d34c6	0.15352163
177	0xbe0e4964	-0.13895184
178	0xbdaca9f9	-0.08430857
179	0xbddd9b65	-0.10820655
180	0xbe586d21	-0.2113538
181	0xbe180c8c	-0.14848536
182	0xbeef408f	-0.46728942
183	0xbddb10d0	-0.10696566
184	0xbe3fc59d	-0.18727727
185	0xbb857425	-0.0040726834
186	0xbd818a2f	-0.063251846
187	0xbe4a74dc	-0.19771141
188	0xbd474ae0	-0.04865539
189	0x3cf8e59b	0.030382922
190	0xbe23e189	-0.16004004
191	0x3e0533f1	0.13008095
192	0xbdb9d69f	-0.09074139
193	0x3ec68229	0.3877118
194	0xbf09c17e	-0.5381087
195	0xbf35e26a	-0.71048605
196	0xbe5735e5	-0.21016653
197	0xbec9a9d0	-0.3938737
198	0xbdfa19d2	-0.12211956
199	0x3db71a31	0.089405425
200	0xbf1c33a5	-0.61016303
201	0xbe41cb92	-0.18925312
202	0xbdcf5ccc	-0.101251215
203	0x3ea9b7da	0.3314808
204	0x3d26255d	0.040562976
205	0xbf827c69	-1.0194217
206	0xbe8956db	-0.26824078
207	0xbd94d71d	-0.07267592
208	0xbe0cd177	-0.1375178
209	0xbead3f88	-0.33837533
210	0xbf25388e	-0.6453942
211	0xbeb41756	-0.35174054
212	0xbe6510a5	-0.2236963
213	0x3e85f7a2	0.2616549
214	0xbc5715f3	-0.013127792
215	0xbe0941a9	-0.13403954
216	0xbe8bd054	-0.2730738
217	0xbe297b22	-0.16550878
218	0xbe8fe8e1	-0.2810736
219	0xbdea13da	-0.11429568
220	0xbe101939	-0.14072122
221	0xbf11be48	-0.5693097
222	0xbe8f0f90	-0.2794156
223	0xbe725787	-0.23666202
224	0xbdf219d8	-0.118213356
225	0xbdc18ab6	-0.09450285
226	0xbea15f9a	-0.3151825
227	0xbe0a556b	-0.13509147
228	0xbe8bd395	-0.27309862
229	0xbd4f6b3a	-0.05063937
230	0xbf1a5cad	-0.6029766
231	0xbe89f96b	-0.26948103
232	0xbf08f8e1	-0.5350476
233	0xbd271711	-0.040793482
234	0xbf0e417b	-0.55568665
235	0xbf45bb82	-0.7723924
236	0x3e0cd40d	0.13752766
237	0xbf516db0	-0.81807995
238	0xbefc2e8f	-0.4925427
239	0xbee81ffd	-0.45336905
240	0xbde89d2c	-0.11358103
241	0xbe71acf8	-0.23601139
242	0xbcef0ea0	-0.029181778
243	0xbe921904	-0.2853471
244	0xbadb261f	-0.0016719735
245	0x3ccb2e44	0.024802335
246	0xbe9ae063	-0.30249318
247	0xbedbfcff	-0.42966458
248	0x3deda28c	0.11603269
249	0xbe0db2b8	-0.13837707
250	0xbbcde6cb	-0.006283616
251	0x3df753f1	0.120765574
252	0x3dc6c6e9	0.09705908
253	0xbea82ada	-0.32845193
254	0xbe49ad4a	-0.19695011
255	0xbed00df7	-0.40635654

lstm.weight_hh_l0 f4 [256, 64]
0	0x3ea4d377	0.32192585
1	0x3e82e86a	0.25567943
2	0x3ea2c722	0.3179255
3	0x3e384a1d	0.17997022
4	0xbea6efd1	-0.3260484
5	0x3e89b7c4	0.26898015
6	0xbe4b0d86	-0.19829378
7	0xbcec02fa	-0.028810013
8	0xbf309f06	-0.6899265
9	0xbcdf2c1e	-0.027242716
10	0xbd9b7a39	-0.075916715
11	0xbe4dd68c	-0.20101374
12	0xbe13dc6b	-0.14439552
13	0xbe887bd5	-0.26656976
14	0x3dce29bf	0.10066556
15	0xbd0de8c1	-0.0346458
16	0xbe47a836	-0.19497761
17	0xbed6f471	-0.4198337
18	0xbf223dc3	-0.6337549
19	0xbe6f87aa	-0.23391595
20	0x3f11dda0	0.569788
21	0xbdd8451e	-0.10560058
22	0x3e5c6d03	0.2152596
23	0xbe098c68	-0.13432467
24	0x3ddac111	0.10681356
25	0x3e84a0cb	0.25903925
26	0x3ec148ca	0.37750846
27	0xbcb25466	-0.02176876
28	0x3b104976	0.0022016442
29	0x3f011e51	0.50436884
30	0xbe6b2cf1	-0.22966363
31	0x3e4b9403	0.1988068
32	0x3e943fc6	0.28954905
33	0xbe8f9670	-0.28044462
34	0xbf0e16f5	-0.5550378
35	0xbf0a3a83	-0.5399553
36	0x3dbd4b18	0.092428386
37	0xbd6f6e05	-0.058454532
38	0x3e7e1474	0.2481249
39	0xbde62104	-0.11236766
40	0x3f14e8c6	0.58167684
41	0xbe8fabe3	-0.28060827
42	0xbf13aedd	-0.57688695
43	0xbec69f7a	-0.38793546
44	0xbecb30b6	-0.396856
45	0x3e5d4446	0.21608075
46	0x3d94f975	0.07274143
47	0x3e839ed7	0.25707123
48	0x3e77ef8d	0.24212475
49	0xbea2dc8e	-0.31808895
50	0xbe045f03	-0.12926869
51	0xbe8fbf4a	-0.2807563
52	0xbea82279	-0.328388
53	0x3f0b111b	0.54322976
54	0xbd9480d4	-0.072511345
55	0xbd679443	-0.056537878
56	0xbd8f3790	-0.069930196
57	0x3ea7c78b	0.32769427
58	0x3de518bf	0.111863606
59	0xba682092	-0.0008854951
60	0x3cf7ef85	0.030265579
61	0x3be12a45	0.006871494
62	0xbe4b367f	-0.19845007
63	0x3eecbb90	0.4623685
64	0x3d433b6f	0.047664102
65	0x3e894241	0.2680836
66	0xbd522474	-0.051304296
67	0xbed68a84	-0.41902554
68	0xbee68188	-0.450207
69	0x3e33b4da	0.17549458
70	0x3e9ef20f	0.3104405
71	0x3f71edae	0.94503295
72	0xbe7336c1	-0.23751356
73	0xbf0c2933	-0.54750365
74	0xbf1c9c52	-0.61176026
75	0x3d93daec	0.072194904
76	0x3d58beda	0.052916385
77	0xbecd156f	-0.40055415
78	0xbd46bbf5	-0.048519094
79	0xbf732ea4	-0.9499304
80	0xbe394e74	-0.18096334
81	0xbebf2213	-0.37330684
82	0x3e96c364	0.29445946
83	0x3dc2f3db	0.09519168
84	0x3def4850	0.116837144
85	0x3e07d8f2	0.13266352
86	0x3d96a371	0.07355393
87	0xbe5bf056	-0.214784
88	0xbec56622	-0.38554484
89	0xbdef5cad	-0.116875984
90	0x3daebe0b	0.085323416
91	0xb89ef664	-7.579921e-05
92	0xbe7bf2c8	-0.24604332
93	0x3e37242c	0.17884892
94	0xbe20dd47	-0.1570941
95	0xbe5f6fc5	-0.2181998
96	0x3e0e476b	0.13894431
97	0xbea1392d	-0.31488934
98	0xbf1602c3	-0.58597964
99	0xbe548102	-0.20752338
100	0xbea39f0e	-0.31957287
101	0x3ef11f90	0.47094393
102	0xbe63b955	-0.22238667
103	0x3d5615c7	0.052266862
104	0xbde41445	-0.111366786
105	0xbea80eeb	-0.32823882
106	0xbeb8c701	-0.36089328
107	0x3e66a55c	0.22524017
108	0xbe424784	-0.18972594
109	0x3e6810e0	0.22662687
110	0xbe204f58	-0.15655267
111	0x3c5c7765	0.0134562
112	0xbd61651a	-0.05502806
113	0xbea4a343	-0.3215581
114	0xbeec2d61	-0.4612837
115	0x3e8efc3f	0.27926823
116	0xbe8d00af	-0.27539584
117	0x3ee39978	0.44453025
118	0x3dcdae26	0.10042982
119	0xbbd180fc	-0.00639355
120	0xbe9698e6	-0.29413527
121	0xbd15658e	-0.036473803
122	0xbe3945e7	-0.18093072
123	0x3cb9c61c	0.022677474
124	0xbe2668e2	-0.16250947
125	0xbdcc652d	-0.09980235
126	0x3e9352ff	0.28774258
127	0x3df721b6	0.12066977
128	0x3e846e03	0.25865182
129	0x3e601c48	0.21885788
130	0x3e0e95d0	0.13924336
131	0x3e0a6ef0	0.13518882
132	0xbebe36f7	-0.3715131
133	0x3df6dbd0	0.12053645
134	0x3ea58d5a	0.32334405
135	0xbdbb4915	-0.09144799
136	0x3e371bde	0.17881724
137	0xbd8545aa	-0.06507428
138	0xbe37b1ca	-0.17938915
139	0xbc99760b	-0.018733045
140	0xbe1ef770	-0.15524077
141	0xbdf5da27	-0.120045
142	0xbe338e42	-0.17534736
143	0xbf2f4c24	-0.68475556
144	0xbdd6c20e	-0.10486232
145	0xbe74ae63	-0.23894648
146	0xbe641a8a	-0.22275749
147	0x3ec798be	0.3898372
148	0x3f3c4e66	0.73557127
149	0x3de39c72	0.11113824
150	0x3f01b952	0.506734
151	0xbf085390	-0.53252506
152	0xbe87e8eb	-0.2654489
153	0x3e7db6be	0.24776742
154	0x3ef4de5f	0.47825906
155	0xbf07cb69	-0.53044754
156	0xbd9233b2	-0.07138766
157	0xbe91a279	-0.2844427
158	0xbc7173cc	-0.014737081
159	0x3f17071f	0.5899524
160	0x3f1ea789	0.6197439
161	0x3e4cc65c	0.19997543
162	0xbf423842	-0.7586709
163	0xbcc23bbe	-0.023710128
164	0x3e57026c	0.20997018
165	0x3d98567b	0.0743837
166	0x3d9e37b4	0.07725468
167	0xbeb89568	-0.36051488
168	0xbe8011d0	-0.2501359
169	0x3e4e5ef5	0.2015341
170	0xbe1f4612	-0.15554073
171	0xbd713143	-0.05888487
172	0x3ea1964c	0.3155998
173	0x3e956edd	0.29186144
174	0x3f2b0639	0.6680637
175	0x3f05f1fe	0.52322376
176	0xbe38be52	-0.18041351
177	0xbcf02cfe	-0.029318329
178	0x3e4bea69	0.19913639
179	0x3e737416	0.23774752
180	0xbe80fc2c	-0.25192392
181	0xbd1182f7	-0.03552529
182	0x3e2dd65f	0.16976307
183	0x3d71097d	0.05884694
184	0x3e00173e	0.12508866
185	0x3edc4d23	0.430276
186	0x3d461773	0.048362207
187	0x3e4a9734	0.19784242
188	0xbf0c968f	-0.54917234
189	0xbe90d503	-0.28287515
190	0x3c4300fe	0.011902092
191	0x3e24f14e	0.16107675
192	0x3eefd6ec	0.4684366
193	0x3cf84e5e	0.030310806
194	0x3e798869	0.24368443
195	0xbe2cff1a	-0.16894189
196	0x3d6de002	0.05807496
197	0x3e29eefa	0.16595069
198	0xbe38dc5e	-0.18052813
199	0x3dc70d2b	0.097193085
200	0x3ea6d522	0.32584482
201	0x3d3929ad	0.04520576
202	0x3d79a933	0.060952377
203	0xbe714117	-0.23559986
204	0x3f101fe3	0.56298655
205	0xbe85435d	-0.26027957
206	0xbd572cc5	-0.05253293
207	0xbf06dac4	-0.5267756
208	0xbe50ea10	-0.20401788
209	0xbeaad84a	-0.3336814
210	0xbee2d6f9	-0.44304636
211	0x3ecae4f5	0.39627805
212	0x3e95a679	0.2922857
213	0x3be63c22	0.0070262114
214	0x3e27dbd4	0.16392452
215	0x3b3f979c	0.0029234653
216	0xbf0e51ee	-0.55593765
217	0x3e8bf781	0.27337268
218	0x3e9e8b61	0.30965713
219	0x3af276fd	0.0018498596
220	0xbe8744d0	-0.26419687
221	0xbd86ebd0	-0.065879464
222	0xbdbaaba0	-0.09114766
223	0x3e982cf2	0.2972179
224	0x3d96aa43	0.073566936
225	0xbe1aaf3f	-0.15105914
226	0xbf060c51	-0.52362543
227	0x3d35fa1b	0.044427972
228	0xbf17bb98	-0.5927062
229	0x3e8b290f	0.27179763
230	0x3e16ebf8	0.14738452
231	0xbd1af44d	-0.03783064
232	0x3d3cf991	0.046136443
233	0xbecfc2ff	-0.40578458
234	0xbf442659	-0.76621014
235	0x3f3576de	0.708845
236	0xbf02819a	-0.50979006
237	0x3ee2b466	0.44278258
238	0x3ec947b8	0.3931253
239	0x3e2ee050	0.17077756
240	0xbe691228	-0.22760832
241	0xbe5bad67	-0.21452866
242	0xbd196ad6	-0.037455402
243	0x3edb0ee9	0.42784813
244	0xbeb94f33	-0.36193237
245	0x3df194c0	0.1179595
246	0x3d425b75	0.0474505
247	0xbdfeccec	-0.124414295
248	0x3f050f9d	0.5197695
249	0x3e239202	0.15973666
250	0xbeb8fd0e	-0.36130565
251	0x3c4b52df	0.012409895
252	0xbe80814b	-0.25098643
253	0xbcb34871	-0.021885129
254	0xbe494c1b	-0.19657938
255	0x3d1e40ab	0.03863589

lstm.bias_ih_l0 f4 [256]
0	0x3e08729d	0.13324971
1	0x3d3ab81a	0.04558573
2	0xbe0d5a99	-0.13804092
3	0xbe30b334	-0.1725586
4	0xbd8d9d90	-0.06914818
5	0xbbc20f0e	-0.005922205
6	0x3e696a32	0.22794417
7	0x3da7fdde	0.08202718
8	0xbdd374e2	-0.10325028
9	0xbde7ebe1	-0.11324287
10	0xbda81fb3	-0.08209171
11	0xbd2d5a67	-0.042322543
12	0xbc1ab952	-0.009443598
13	0xbe535ba2	-0.20640424
14	0x3d97f2aa	0.07419331
15	0xbc0fbc16	-0.0087728705
16	0x3e0d7b51	0.13816573
17	0xbd08c1b9	-0.033387873
18	0xbe0d2c92	-0.13786533
19	0xbe2d4485	-0.1692067
20	0x3eaf9776	0.34295243
21	0xbe8a69d8	-0.27033877
22	0xbe0934b3	-0.1339901
23	0xbdd77a6e	-0.105213985
24	0xbd4624f4	-0.048375085
25	0xbeb93111	-0.36170247
26	0x3e669d40	0.22520924
27	0x3ea81ba7	0.32833597
28	0xbded5950	-0.11589301
29	0x3dc70ce8	0.097192585
30	0x3e352e28	0.17693388
31	0x3d8da4f5	0.06916229
32	0x3e2f8239	0.1713952
33	0x3de02239	0.109440275
34	0x3e67d8e9	0.22641338
35	0x3f17a0e9	0.59229904
36	0xbe43527c	-0.19074434
37	0x3e06ad3d	0.13152023
38	0xbe5b969a	-0.21444169
39	0x3e37205d	0.1788344
40	0xbe8e26fd	-0.2776412
41	0xbdfcef93	-0.12350383
42	0xbe5ca2a4	-0.21546417
43	0x3e5a808e	0.21338102
44	0x3db7a835	0.0896763
45	0x3e17b171	0.14813782
46	0xbd8f519e	-0.06997989
47	0x3dbfd4e0	0.093667746
48	0x3e2b9e44	0.16759592
49	0x3c3a80dd	0.011383262
50	0x3eb16948	0.34650636
51	0x3c89f578	0.016840681
52	0x3e369194	0.17828971
53	0xbd23b44c	-0.039966866
54	0xbd71faaf	-0.05907696
55	0xbcd0f030	-0.025505155
56	0x3ebec144	0.37256825
57	0x3da71925	0.08159093
58	0xbe9573e0	-0.29189968
59	0xbee136f2	-0.43987232
60	0x3ed22cdf	0.4104986
61	0x3e71c534	0.23610383
62	0x3e8a0ca4	0.2696277
63	0xbe1bc145	-0.15210445
64	0xbe39a176	-0.18127999
65	0x3bf1b21e	0.0073759696
66	0xbe629619	-0.2212757
67	0xbd875ca7	-0.06609469
68	0xbe2e3ef1	-0.17016198
69	0xbf431013	-0.761964
70	0xbdfe34d5	-0.12412421
71	0xbe4977fb	-0.19674675
72	0xbeaeae66	-0.3411743
73	0xbdb43281	-0.08798695
74	0xbe34ec5a	-0.17668286
75	0xbdf9f533	-0.12204971
76	0xbf026488	-0.5093465
77	0xbec02bdc	-0.37533462
78	0xbec299fb	-0.38008103
79	0xbe66951d	-0.2251782
80	0xbdd98647	-0.106213145
81	0xbe0faf3b	-0.14031689
82	0x3d2448a7	0.04010835
83	0xbe7ff03d	-0.24993987
84	0xbd577787	-0.052604225
85	0xbf014b8f	-0.5050592
86	0xbe901d6d	-0.2814745
87	0xbd9e5ecb	-0.07732924
88	0xbecb9fdc	-0.397704
89	0xbedfbbe2	-0.4369803
90	0x3d02aa04	0.03190042
91	0xbe89a848	-0.268862
92	0xbeeaafd4	-0.4583727
93	0xbd6e8fef	-0.058242735
94	0xbe8ed892	-0.27899605
95	0xbdee8679	-0.116467424
96	0xbd8acee4	-0.067777425
97	0xbf3ef6e4	-0.74595475
98	0xbe13854b	-0.14406316
99	0xbd024a1f	-0.03180897
100	0xbe7dd09c	-0.2478661
101	0xbe50135b	-0.20319884
102	0xbe148b87	-0.1450635
103	0xbee386b6	-0.44438714
104	0xbf23d892	-0.64002335
105	0xbea98c4a	-0.33114845
106	0xbe533c25	-0.20628412
107	0xbed5b875	-0.41742292
108	0xbeb48688	-0.3525889
109	0xbe8033a7	-0.25039408
110	0xbef2ae5f	-0.4739866
111	0xbe8fe4d8	-0.2810428
112	0xbe1b0086	-0.15136918
113	0xbea65fda	-0.32495004
114	0xbe982224	-0.29713547
115	0xbe4fd678	-0.20296657
116	0xbe364666	-0.17800292
117	0xbef84fe5	-0.48498455
118	0xbeb46e61	-0.35240462
119	0xbe9296f6	-0.286308
120	0xbed155c7	-0.40885755
121	0xbdfeb7ae	-0.12437378
122	0xbf09f58e	-0.5389031
123	0xbecc1d5f	-0.39866158
124	0xbd035297	-0.032061186
125	0xbe76106a	-0.24029699
126	0xbdbbeed1	-0.0917641
127	0xbf3151f3	-0.6926567
128	0xbe1b61da	-0.15174046
129	0xbd0f4a0c	-0.034982726
130	0xbdf6c1ba	-0.12048669
131	0xbe0a8e90	-0.13530946
132	0x3e240a42	0.16019538
133	0x3d4b9c3a	0.049709536
134	0x3d8f7bd8	0.07006043
135	0x3d19a432	0.037510104
136	0xbd36d1ab	-0.04463355
137	0xbd957777	-0.07298177
138	0x3e9460ef	0.28980204
139	0x3df16f42	0.11788799
140	0x3d821757	0.06352108
141	0x3deee73c	0.11665198
142	0x3d93a74e	0.07209645
143	0x3d317890	0.043327868
144	0x3d8bf896	0.068345234
145	0x3da18319	0.07886333
146	0x3d7a9c1c	0.061184034
147	0x3c8b35af	0.016993372
148	0xbe820c1f	-0.25399873
149	0x3c59b9d2	0.013288932
150	0xbe404dfe	-0.18779752
151	0x3e7a9dde	0.24474284
152	0x3d7b737c	0.06138943
153	0xbeb513d9	-0.35366705
154	0xbe61f895	-0.22067483
155	0x3e463173	0.19354801
156	0x3e6d8259	0.23194255
157	0xbcb29310	-0.02179864
158	0xbd32dbbe	-0.043666594
159	0x3de23d69	0.11046869
160	0xbe51e396	-0.20496973
161	0xbdced32e	-0.10098873
162	0x3e12ee5a	0.14348736
163	0x3dcd54a9	0.10025913
164	0xbd25c2cb	-0.040468972
165	0xbe7bd89a	-0.24594346
166	0x3d4aeee0	0.049544215
167	0x3d7ab071	0.061203424
168	0x3ab1aa0c	0.0013554706
169	0xbd16fc4d	-0.036861707
170	0xbde2c528	-0.11072761
171	0xbe293fac	-0.16528195
172	0xbe3ccb33	-0.1843689
173	0xbd854e79	-0.06509108
174	0xbd33b98c	-0.043878123
175	0x3c5bf268	0.013424493
176	0xbcf0d3e4	-0.029397912
177	0x3dcd8aca	0.100362375
178	0x3dbc8919	0.09205837
179	0xbcfa9a2b	-0.030591091
180	0x3e2eee38	0.1708306
181	0xbdbdd3a3	-0.09268882
182	0x3d6c6f95	0.0577236
183	0x3e99a6ef	0.30010173
184	0x3e0adb68	0.1356026
185	0xbe00d21d	-0.12580152
186	0xbe9e0f7c	-0.3087119
187	0xbe6b52d7	-0.2298082
188	0x3db98598	0.09058684
189	0xbe249886	-0.16073808
190	0xbca1ca09	-0.019749658
191	0xbe3edafd	-0.18638225
192	0x3e8688c4	0.2627622
193	0xbd9bca2f	-0.07606923
194	0xbdead46a	-0.11466296
195	0x3d4640a2	0.048401482
196	0xbdbb8f84	-0.09158233
197	0x3da59785	0.08085541
198	0x3e49ac23	0.19694571
199	0x3c55ea2f	0.013056322
200	0x3dc57d3c	0.09643027
201	0xbd4c5ad9	-0.049891327
202	0x399ae0c2	0.00029540627
203	0xbe6c4d61	-0.23076393
204	0xbd482ce3	-0.048870932
205	0xbe11537a	-0.14192
206	0xbc5f9a84	-0.013647679
207	0xbe2239e7	-0.158424
208	0x3dda5409	0.1066056
209	0xbdbf0f17	-0.0932905
210	0xbdbc55b4	-0.09196034
211	0xbd35f0c1	-0.044419054
212	0xbd4384d2	-0.04773409
213	0xbd7b7639	-0.061392043
214	0xbe07f3e5	-0.13276632
215	0xbe7e5c58	-0.24839914
216	0x3c9c5a3e	0.019086
217	0xbe9d0656	-0.30668896
218	0x3d89546e	0.06705557
219	0x3e0a61eb	0.13513915
220	0xbd5a2d83	-0.05326606
221	0xbd77ff0e	-0.060545973
222	0x3ea119aa	0.31464893
223	0xbe561333	-0.20905761
224	0xbd85de92	-0.065365925
225	0x3dee853a	0.11646505
226	0xbd8176b7	-0.06321471
227	0x3e056826	0.1302801
228	0xbe859982	-0.2609368
229	0xbdd4eadd	-0.10396359
230	0xbe4f788f	-0.20260833
231	0x3dbafb90	0.09130013
232	0xbe98c211	-0.2983556
233	0xbdd68022	-0.10473658
234	0xbe3141d3	-0.17310266
235	0x3ec1c71e	0.37847227
236	0x3c6a4e7d	0.01430094
237	0x3d97f71a	0.07420178
238	0xbe1334b7	-0.14375578
239	0xbd39f4cd	-0.045399476
240	0x3cce7335	0.02520142
241	0xbdac68d6	-0.08418433
242	0x3e3a5904	0.1819802
243	0x3dfcb153	0.123385094
244	0x3dc42ff6	0.0957946
245	0xbd9359ec	-0.071948856
246	0x3e00b6b7	0.125697
247	0xbe1eccf2	-0.15507868
248	0x3e7b1fa0	0.24523783
249	0xbe2a3b04	-0.16624075
250	0xbe4bf72d	-0.19918509
251	0xbf064f5d	-0.5246485
252	0x3df70bb2	0.120627776
253	0xbcd9ae9b	-0.026572516
254	0x3e8000f4	0.25000727
255	0xbe310096	-0.1728538

lstm.bias_hh_l0 f4 [256]
0	0xbc54d926	-0.012991225
1	0xbde082f7	-0.109624796
2	0xbdf4e10c	-0.11956987
3	0x3d47ed9b	0.048810583
4	0xbe1acc4b	-0.15116994
5	0x3e233203	0.15937047
6	0x3ee6bca6	0.45065802
7	0x3d2d8727	0.04236522
8	0xbd872aae	-0.065999374
9	0xbd4094be	-0.04701685
10	0x3d39dd72	0.045377202
11	0xbe150a65	-0.14554746
12	0xbe1f42a0	-0.15552759
13	0xbde3f908	-0.11131483
14	0x3e22dff5	0.15905745
15	0x3c2fa94b	0.010721515
16	0x3e452e23	0.19255881
17	0x3dbd363f	0.09238862
18	0xbc853c1f	-0.01626402
19	0xbd1e0e70	-0.038587987
20	0x3e9022f1	0.28151658
21	0xbe8ec561	-0.27884963
22	0xbe70fb06	-0.23533258
23	0xbe839dc2	-0.25706297
24	0xbd3ce3af	-0.046115573
25	0xbe8e25ce	-0.27763218
26	0x3e8e3709	0.27776363
27	0x3ee797e3	0.45233068
28	0xbdc51d6f	-0.09624755
29	0x3bbc8c82	0.0057540545
30	0x3e577a7b	0.21042816
31	0xbe297a23	-0.16550498
32	0x3d9df562	0.07712819
33	0x3d976028	0.07391387
34	0x3e362980	0.17789268
35	0x3f11d274	0.5696175
36	0xbe3b9898	-0.18319929
37	0xbbd2826d	-0.0064242394
38	0xbe59d481	-0.2127247
39	0x3cb8e225	0.022568772
40	0xbec687d9	-0.3877552
41	0xbe3244e6	-0.17409095
42	0xbe6d306b	-0.23163001
43	0x3e116bb0	0.14201236
44	0x3b84084f	0.004029311
45	0xbcbd37f9	-0.023097979
46	0x3cafb71e	0.021449622
47	0xbd401723	-0.046897065
48	0x3e1c4ac6	0.15262899
49	0x3dad45da	0.08460589
50	0x3e5f4bb8	0.21806228
51	0x3e440c40	0.19145298
52	0x3ebe086e	0.37115806
53	0xbd00d90f	-0.031457003
54	0x3d355d9c	0.044278726
55	0xbd4de23e	-0.05026459
56	0x3e875ab9	0.26436403
57	0xbbf9ea5c	-0.007626815
58	0xbe4c2c34	-0.19938737
59	0xbf061c71	-0.5238715
60	0x3e95bc84	0.29245389
61	0x3e77ee94	0.24212104
62	0x3d3df4bb	0.04637597
63	0xbe07ead5	-0.13273175
64	0x3b96962a	0.0045955377
65	0x3d51a166	0.051179312
66	0xbe87fb5c	-0.2655896
67	0xbe6d6cae	-0.2318599
68	0xbebc6814	-0.36798155
69	0xbf34c718	-0.7061629
70	0xbdfbb3c2	-0.122901455
71	0xbdb8a9a7	-0.090167336
72	0xbec28a56	-0.37996167
73	0xbe375be5	-0.17906149
74	0xbe825bdb	-0.25460705
75	0xbe961f27	-0.29320642
76	0xbf13f192	-0.5779048
77	0xbec4836d	-0.3838152
78	0xbebbef45	-0.36705986
79	0xbe1e716c	-0.15472955
80	0xbdf07346	-0.11740737
81	0xbe3af1c2	-0.18256286
82	0xbd603d54	-0.054745987
83	0xbec00b53	-0.3750864
84	0xbc1254ed	-0.008931381
85	0xbef94741	-0.48687175
86	0xbeca2eca	-0.39488822
87	0xbd970a05	-0.07374958
88	0xbf13aced	-0.5768574
89	0xbee98878	-0.4561193
90	0x3c6a04b1	0.014283345
91	0xbe800456	-0.25003308
92	0xbe96315c	-0.29334533
93	0xbe7e4800	-0.24832153
94	0xbe78cc3c	-0.24296659
95	0xbd95341d	-0.072853304
96	0xbe14a148	-0.14514649
97	0xbf302e9e	-0.6882113
98	0xbe905c5e	-0.2819547
99	0x3da1766a	0.07883914
100	0xbe9b0301	-0.3027573
101	0xbdaf4b63	-0.08559301
102	0xbe3027a8	-0.17202628
103	0xbefc2650	-0.4924798
104	0xbf2f4383	-0.6846239
105	0xbe9dcdd8	-0.3082111
106	0xbeac1151	-0.3360696
107	0xbf0b10ee	-0.5432271
108	0xbec9ceaf	-0.394155
109	0xbea1f7ba	-0.31634313
110	0xbeec8016	-0.46191472
111	0xbe863789	-0.26214245
112	0xbe8b4b42	-0.27205855
113	0xbeb96d95	-0.36216417
114	0xbebf974b	-0.37420115
115	0xbe5aa78b	-0.21352975
116	0xbd1cddcd	-0.038297463
117	0xbed7c429	-0.42141846
118	0xbead748d	-0.33877984
119	0xbe938a52	-0.28816468
120	0xbe838fdc	-0.25695693
121	0xbe2f8ade	-0.17142817
122	0xbef4e695	-0.4783217
123	0xbf2203bf	-0.63286966
124	0xbe1c5341	-0.15266134
125	0xbe4775b1	-0.1947849
126	0xbe72b596	-0.23702082
127	0xbf02624f	-0.50931257
128	0xbe706414	-0.23475677
129	0x3d023738	0.031790942
130	0xbe370e38	-0.17876518
131	0xbe6860db	-0.22693197
132	0xbd8b7f8d	-0.06811438
133	0xbdb8a204	-0.09015277
134	0x3e1f89b2	0.1557987
135	0x3ca707b6	0.020389419
136	0x3cd185ce	0.025576498
137	0x3c385711	0.011251227
138	0x3e1aa224	0.15100914
139	0x3e013e90	0.12621522
140	0x3d019f03	0.031645786
141	0x3ddc764d	0.107647516
142	0x3e353f1a	0.17699853
143	0x3e431692	0.19051579
144	0x3e2b0c21	0.16703846
145	0xbd3016eb	-0.042990606
146	0xbd354f2a	-0.04426495
147	0xbe0f43c9	-0.13990702
148	0xbe9cddd1	-0.30637982
149	0xbdfa06b3	-0.12208309
150	0xbe57373d	-0.21017165
151	0x3e1f42b3	0.15552787
152	0xbdf35ba3	-0.11882713
153	0xbe4c26cd	-0.19936676
154	0xbde2b1f5	-0.11069099
155	0x3e459a5f	0.19297169
156	0x3e7c96f2	0.24666956
157	0xbc0587cf	-0.008150055
158	0x3e35fc06	0.1777192
159	0xbd3f2312	-0.046664305
160	0xbe038052	-0.12841919
161	0xbe7a476f	-0.24441312
162	0x3de21c51	0.11040557
163	0xbc69ab5b	-0.014262046
164	0x3d585fa8	0.0528256
165	0xbe1c51d1	-0.15265585
166	0x3e33ec98	0.17570722
167	0x3e161adb	0.14658682
168	0x3e0ed05c	0.1394667
169	0xbd3b4667	-0.045721438
170	0xbbb5b41b	-0.005545152
171	0xbdb32ead	-0.08749137
172	0xbe1e1868	-0.15438998
173	0xbdd00a15	-0.10158173
174	0xbd97f8cf	-0.07420503
175	0xbdc1683c	-0.09443709
176	0xbd99279d	-0.07478259
177	0x3e365070	0.17804122
178	0x3e130dbd	0.1436071
179	0xbdceebe9	-0.1010359
180	0x3dd45abf	0.10368871
181	0xbd3ecf2b	-0.04658429
182	0x3e14c379	0.14527692
183	0x3e39f5f7	0.18160234
184	0xbd37477f	-0.04474592
185	0xbe239cf6	-0.15977845
186	0xbe847af1	-0.25875047
187	0x3bd1b508	0.0063997544
188	0x3d4a1e23	0.049345147
189	0xbe3f5c93	-0.18687658
190	0xbc45d62a	-0.0120749865
191	0xbe69d7c2	-0.22836211
192	0x3e573ced	0.21019335
193	0x3deef34f	0.11667501
194	0x3c741380	0.014897227
195	0x3cf48507	0.029848589
196	0xbe3bd743	-0.18343835
197	0x3dfd7229	0.1237529
198	0x3ed6540c	0.41860998
199	0xbc03b4b1	-0.008038686
200	0xbdb790a3	-0.08963134
201	0xbe021384	-0.12702757
202	0x3d62bda8	0.05535665
203	0xbe057ec9	-0.13036646
204	0xbe127f74	-0.14306432
205	0xbd79de5b	-0.06100307
206	0x3df42469	0.11921007
207	0xbdfd7877	-0.123764925
208	0x3db6b43b	0.08921095
209	0xbcd893a4	-0.026437588
210	0xbd243daf	-0.04009789
211	0xbc89c233	-0.016816234
212	0x3c9a3a87	0.018826736
213	0xbdf73378	-0.12070364
214	0xbe4fe957	-0.20303856
215	0xbe21629a	-0.1576027
216	0xbe1ee54f	-0.15517162
217	0xbe4c62f1	-0.19959618
218	0x3e558ec1	0.20855238
219	0xbc2afc45	-0.010436122
220	0xbe0399b9	-0.1285161
221	0xb7d5bd11	-2.547962e-05
222	0x3e46e55b	0.1942343
223	0xbcd42d64	-0.02590055
224	0xbde6301e	-0.112396464
225	0x3e12dc27	0.14341794
226	0xbe4446ca	-0.19167629
227	0x3d815497	0.06314962
228	0xbe4d0e99	-0.200251
229	0xbe211343	-0.15730004
230	0xbe233e6e	-0.15941784
231	0x3d652811	0.055946413
232	0xbe82736e	-0.2547869
233	0xbc01e3a1	-0.007927806
234	0xbdc0f0aa	-0.09420903
235	0x3e3f5e08	0.18688214
236	0xb9cbbd7c	-0.00038860354
237	0x3ca3ee23	0.020011013
238	0xbde05a87	-0.10954767
239	0xbdf48894	-0.11940113
240	0xbdfa60b1	-0.12225474
241	0x3c41dbfb	0.011832233
242	0x3ea904f5	0.33011594
243	0xbcc33c2f	-0.023832409
244	0x3e540f6f	0.20709012
245	0xbcf31ee0	-0.029677808
246	0xbd933f15	-0.07189766
247	0xbd44b795	-0.04802664
248	0x3eb69abc	0.35664928
249	0xbdc5f958	-0.09666699
250	0xbe3d6b1e	-0.18497893
251	0xbeeee2e7	-0.46657488
252	0x3dce5c2b	0.100761734
253	0x3d4c0618	0.0498105
254	0x3d5d7e27	0.054075386
255	0xbe13163f	-0.14363955

Linear2.weight f4 [2, 64]
0	0xbe86cb0f	-0.26326796
1	0xbd77eb3c	-0.06052707
2	0xbe628a75	-0.2212313
3	0xbe8ccbd4	-0.2749926
4	0xbdf10eac	-0.117703766
5	0xbecc3164	-0.39881432
6	0x3ea2ee89	0.31822613
7	0xbdc1d380	-0.094641685
8	0x3d4b2540	0.04959607
9	0x3d02d9b2	0.03194589
10	0x3eed5ac0	0.463583
11	0x3e03675e	0.128324
12	0xbddc1908	-0.10746962
13	0x3edfa3a6	0.4367954
14	0x3ec1b24f	0.3783135
15	0xbcd78aab	-0.02631124
16	0x3e57a241	0.21057989
17	0x3e5f899e	0.2182984
18	0xbdbafdd3	-0.091304444
19	0x3d3dda58	0.046350807
20	0xbe948b4e	-0.2901253
21	0xbd2bb050	-0.04191619
22	0xbe958249	-0.29200962
23	0x3e700406	0.23439035
24	0x3e8638c5	0.26215187
25	0xbdbd6fba	-0.09249826
26	0xbe3387db	-0.17532293
27	0x3e4be06e	0.19909832
28	0x3edc236f	0.42995784
29	0x3d8153c5	0.06314806
30	0x3cf40b20	0.029790461
31	0xbe825c2e	-0.25460953
32	0xbe777140	-0.24164295
33	0xbe1ac6eb	-0.15114944
34	0x3e911c8e	0.28342098
35	0x3ce753c7	0.02823819
36	0x3e496a50	0.19669461
37	0xbe26fa55	-0.16306432
38	0x3e2a9bfa	0.16661063
39	0x3d9ef668	0.07761842
40	0xbe305a6d	-0.17221995
41	0xbd153166	-0.036424063
42	0x3db55674	0.0885438
43	0xbeae967a	-0.3409918
44	0xbdfbc7c5	-0.122939624
45	0xbe89987d	-0.26874152
46	0x3d1dbe85	0.03851177
47	0xbe025614	-0.12728149
48	0x3967cc2a	0.00022105934
49	0x3e321d57	0.17394005
50	0x3db6e9b1	0.08931292
51	0xbeaceff9	-0.33776835
52	0x3e631688	0.22176564
53	0xbe84f3a2	-0.25967127
54	0x3e383834	0.1799019
55	0x3ebf0be3	0.37313756
56	0xbde9aa24	-0.11409405
57	0xbe5271bd	-0.205512
58	0xbd8112e3	-0.063024305
59	0xbdffc1d0	-0.12488139
60	0x3ee303ea	0.44338924
61	0xbe049bc8	-0.12950051
62	0xbe097c2c	-0.13426274
63	0x3bbd79b6	0.0057823313
64	0xbea419ab	-0.32050833
65	0x3e0cefad	0.13763304
66	0xbe1cd437	-0.15315329
67	0xbde03445	-0.109474696
68	0xbe0735e9	-0.13204159
69	0xbc935e15	-0.017989198
70	0xbe96621f	-0.29371735
71	0x3e2c676e	0.1683633
72	0x3dbae6c1	0.09126044
73	0xbebf38e9	-0.37348107
74	0x3eae4b1e	0.34041685
75	0x3e4ab303	0.1979485
76	0xbdc1913e	-0.09451531
77	0xbd950944	-0.07277158
78	0x3e2de485	0.16981705
79	0x3db9af1b	0.09066602
80	0x3eaea574	0.34110606
81	0x3e53523d	0.2063684
82	0x3e80c166	0.2514755
83	0xbe98606d	-0.29761067
84	0xbea57c57	-0.32321426
85	0xbe078a81	-0.13236429
86	0xbe4364d6	-0.19081435
87	0x3e5c9477	0.2154101
88	0x3e83d3f8	0.25747657
89	0xbde923de	-0.11383794
90	0xbeaa9f4c	-0.3332466
91	0x3eb17bfd	0.34664908
92	0x3e67ec3a	0.22648707
93	0x3edf3e84	0.43602383
94	0x3dd7206e	0.10504232
95	0x3ea5f0e5	0.3241035
96	0xbce555a5	-0.02799494
97	0xbde4cf72	-0.111723796
98	0xbd0265f6	-0.03183552
99	0x3e99f157	0.3006694
100	0x3d176e61	0.0369705
101	0xbe9eb9ae	-0.31001037
102	0xbde9a40e	-0.11408244
103	0xbc63c33c	-0.013901528
104	0x3d56d008	0.052444488
105	0x3de44b43	0.111471675
106	0x3e80a7fb	0.2512816
107	0xbe65f7db	-0.2245783
108	0x3d8ec311	0.069708
109	0xbe4d7b2d	-0.20066519
110	0xbe87cd0e	-0.26523632
111	0xbe1a3238	-0.1505822
112	0xbdcc8658	-0.099865615
113	0x3e3d6a86	0.18497667
114	0x3f0d10d6	0.55103815
115	0xbe75e292	-0.24012211
116	0x3e7f73fe	0.24946591
117	0x3e53049c	0.20607227
118	0x3e7d80d9	0.24756183
119	0x3e02f086	0.12787065
120	0xbeaf9da8	-0.3429997
121	0xbe4a71d6	-0.19769987
122	0x3e0a2dcc	0.13494033
123	0x3c521a48	0.012823649
124	0x3e8c1778	0.27361655
125	0xbe869bc4	-0.26290715
126	0x3e83987d	0.25702277
127	0xbee1aa1e	-0.44075102

Linear2.bias f4 [2]
0	0x3ea29604	0.31755078
1	0x3ea55506	0.3229143
