DRQN_POMDP_SEQ_SEED_1.pth (torch_old, 135709 bytes, 8 tensors)

Linear1.weight f4 [64, 2]
0	0x3f638ef4	0.88890004
1	0xc04caaa0	-3.1979141
2	0x3b32c477	0.0027277747
3	0x3fa71aa9	1.3055011
4	0xbfbf2c57	-1.4935406
5	0x3f976f7d	1.1830899
6	0x3e9ae8cc	0.30255735
7	0x3fe69f97	1.8017453
8	0xbe192478	-0.14955318
9	0xbff666cc	-1.9250121
10	0x3c46e095	0.0121385055
11	0xbbb0c010	-0.0053939894
12	0x3edced46	0.43149775
13	0xc02b0056	-2.6718955
14	0xbf8803ef	-1.06262
15	0xbfdfd856	-1.7487895
16	0x3e13111f	0.14362
17	0xc02968a7	-2.6470125
18	0x404ab3b6	3.1672187
19	0x3ecbc690	0.3979993
20	0xbf569883	-0.83826464
21	0xbf89daf4	-1.0769944
22	0xbdf2bbc0	-0.11852217
23	0xbe9c2979	-0.3050039
24	0xbe259d75	-0.16173346
25	0x3be368c5	0.0069399797
26	0x3d88689e	0.06660579
27	0x401a9990	2.4156227
28	0xbfd8f702	-1.6950381
29	0x4005e3d5	2.0920308
30	0x3edb6148	0.42847657
31	0x3fff75c9	1.995782
32	0x3d90e63e	0.07075165
33	0xc02928c5	-2.6431134
34	0xc00f5d64	-2.240075
35	0xbfa139fc	-1.259582
36	0x4025b150	2.5889473
37	0xbfb0bd36	-1.3807743
38	0x3f4508b6	0.76966417
39	0xc05e95ff	-3.477905
40	0x3f87a56b	1.0597357
41	0xc02d9a40	-2.7125397
42	0x3f963a97	1.173663
43	0xbff5019a	-1.9141114
44	0xbf850b25	-1.0394026
45	0x40285432	2.6301389
46	0xbf17e828	-0.5933862
47	0x3f828683	1.01973
48	0xbf9680c1	-1.1758043
49	0x3f9aef99	1.2104369
50	0xc07c48bb	-3.941939
51	0x3f96e4c8	1.1788568
52	0x3f1427c7	0.57873195
53	0x3e69aa5f	0.22818898
54	0x3efafee6	0.49022597
55	0x4020d940	2.51326
56	0xbd079da0	-0.033109307
57	0xbef1a79a	-0.47198182
58	0x3f54b076	0.8308176
59	0x3eb90abe	0.36141008
60	0xbfad049a	-1.3517029
61	0x4035cc9c	2.8406134
62	0x3e6c59c9	0.23081125
63	0x4028ec70	2.639431
64	0xbf7cfd45	-0.9882396
65	0x3e65bdae	0.22435638
66	0x3cb3dd65	0.021956155
67	0x3e1b8baf	0.15190004
68	0xbfeb297f	-1.8372039
69	0xbfeeca28	-1.8655443
70	0x3edc4ab9	0.4302576
71	0xc02c7575	-2.694669
72	0x3efc4691	0.49272588
73	0xbe1e47c8	-0.1545707
74	0x3faaf4e6	1.3355987
75	0x3fe2db37	1.7723149
76	0x3ee01992	0.4376951
77	0x3fba1a29	1.4539233
78	0xbfa04244	-1.2520223
79	0x40252afa	2.580748
80	0xbf59995f	-0.8499965
81	0xbe8d975c	-0.2765454
82	0x3d302320	0.043002248
83	0xbdf6c6a8	-0.120496094
84	0x3f95fb97	1.1717404
85	0xbdf1ae13	-0.1180078
86	0xbfb1f69a	-1.3903382
87	0x3fa1af6a	1.2631657
88	0x3e6f949e	0.23396537
89	0x3fb8dce5	1.4442412
90	0x3fd2ff64	1.6484189
91	0xc01ca438	-2.447523
92	0xbda9def5	-0.08294479
93	0xc01e9d72	-2.4783597
94	0xbf32766c	-0.6971195
95	0xc044333f	-3.0656278
96	0x3e26f977	0.16306101
97	0x400ac07d	2.1679986
98	0xc016ad38	-2.3543224
99	0x400731ea	2.1124215
100	0x3f86a7dd	1.0519978
101	0x3ef63c6a	0.48092967
102	0x3f3fc3af	0.74907964
103	0x3f46c935	0.7765077
104	0x3d3e4fc2	0.04646278
105	0xc022513a	-2.5362077
106	0x3f729a1f	0.9476642
107	0xc01da3c6	-2.463121
108	0x3f376e4f	0.7165269
109	0x3e1dbd6a	0.15404287
110	0x3e861d55	0.26194254
111	0x4018b565	2.3860714
112	0x3f9793b7	1.1841954
113	0x3eacfc3c	0.3378619
114	0x3ec8769a	0.39152986
115	0x3fd642b6	1.6739109
116	0x3f1cf2a8	0.61307764
117	0x3f0e8217	0.5566725
118	0xbf93f9cf	-1.156061
119	0xbfa41366	-1.281842
120	0xbf784671	-0.96982485
121	0x4018dcdf	2.388481
122	0x3fb97826	1.4489791
123	0xbe2e3cf6	-0.17015442
124	0x3e5fb2ed	0.21845599
125	0xc038128d	-2.8761322
126	0xbff2cfcd	-1.8969666
127	0xbfa83417	-1.3140897

Linear1.bias f4 [64]
0	0x3e3f87d0	0.18704152
1	0x3d291112	0.041276045
2	0xbeccd87d	-0.40008917
3	0x3df16d20	0.11788392
4	0x3cebb5c4	0.028773196
5	0xbcf86e5b	-0.03032606
6	0x3e0bd491	0.13655306
7	0x3d817655	0.06321398
8	0x3dcd187a	0.10014434
9	0x3e21cb64	0.15800244
10	0xbe8907dd	-0.26763812
11	0xbf180335	-0.59379894
12	0xbec77d73	-0.38962898
13	0x3d253d8c	0.0403419
14	0x3da03b8d	0.078238584
15	0x3e4c8ece	0.1997635
16	0x3e8e6fec	0.27819765
17	0x3e0ebaca	0.13938442
18	0x3e1d08fb	0.15335457
19	0x3e252409	0.16127028
20	0x3e6afc7d	0.22947879
21	0x3df01cf2	0.11724271
22	0x3d62ec5c	0.05540119
23	0x3cd8b252	0.026452217
24	0x3d3e6356	0.046481453
25	0x3e1485ad	0.14504118
26	0xbf3a79a5	-0.72841865
27	0x3cb8bfcf	0.022552399
28	0xbed38116	-0.41309422
29	0xbe3424b3	-0.17592125
30	0x3dbe4e27	0.0929225
31	0x3d1b8ae1	0.037974242
32	0xbea2a0a5	-0.31763187
33	0xbdaa3fe5	-0.08312968
34	0x3dd59e44	0.104305774
35	0x3dca2f1c	0.09872267
36	0xbf1708fd	-0.5899809
37	0x3d9fdd4b	0.0780588
38	0xbee38cc2	-0.44443327
39	0x3d9f020e	0.07764064
40	0xbf160d1a	-0.5861374
41	0xbea500ca	-0.32227165
42	0xbddf630b	-0.10907563
43	0x3e0a2f20	0.1349454
44	0x3e732eee	0.23748371
45	0xbd2ee3b8	-0.04269764
46	0x3dcc7266	0.09982757
47	0x3e34c869	0.17654575
48	0x3d7b2821	0.061317567
49	0x3dc7f929	0.097643204
50	0xbeb2a22e	-0.34889358
51	0x3c6af8f9	0.014341586
52	0x3d4b96a8	0.049704224
53	0x3cad8b98	0.021184728
54	0xbf251b06	-0.6449436
55	0x3d08b923	0.033379685
56	0xbe8ab8fd	-0.2709426
57	0x3d893c36	0.067009374
58	0xbf475d80	-0.77877045
59	0xbe8ba837	-0.27276775
60	0x3d97b187	0.074069075
61	0xbe0d4903	-0.13797383
62	0x3e6875f3	0.22701244
63	0x3d2f3815	0.042778093

lstm.weight_ih_l0 f4 [256, 64]
0	0xbe4e1a68	-0.2012726
1	0xbe65a51d	-0.22426267
2	0xbeb11828	-0.34588742
3	0xbd9a90a2	-0.07547118
4	0xbe9143d1	-0.28372052
5	0xbc8e0676	-0.017337065
6	0xbd04f9d6	-0.032464825
7	0xbea534d7	-0.32266876
8	0xbe893278	-0.26796317
9	0xbd5ad310	-0.05342394
10	0xbe314904	-0.1731301
11	0xbd469ba8	-0.04848829
12	0x3d9a3415	0.07529465
13	0x3c2c2819	0.010507607
14	0x3e0f0a12	0.13968685
15	0x3d0a716d	0.033799578
16	0xbca0a0f6	-0.019608002
17	0xbf0dbf91	-0.5537043
18	0xbe17c4b4	-0.1482113
19	0xbe04220f	-0.12903617
20	0xbe3f97f9	-0.18710317
21	0xbe8a7246	-0.2704031
22	0x3ed9c450	0.42532587
23	0xbe307d4b	-0.17235295
24	0xbe40d96a	-0.18832937
25	0xbf46f03a	-0.77710307
26	0x3e8595fb	0.2609099
27	0x3ea202ce	0.31642765
28	0xbdc2fc0e	-0.09520732
29	0x3f3a9e86	0.7289814
30	0xbdc671b5	-0.09689657
31	0xbd3f3f4e	-0.04669123
32	0xbd86b2fe	-0.06577109
33	0xbe80a2ed	-0.25124303
34	0xbf2323db	-0.63726586
35	0xbde39502	-0.11112405
36	0x3f031a70	0.51212215
37	0x3e3ceb53	0.18449144
38	0xbdb801a2	-0.089846864
39	0xbe3575d2	-0.17720726
40	0x3e249fdd	0.16076608
41	0xbcda2388	-0.02662827
42	0xbf545e9b	-0.82956856
43	0x3dc7d973	0.09758272
44	0xbd28b907	-0.04119208
45	0xbf57416d	-0.84084207
46	0xbe4bb8ab	-0.19894664
47	0xbeaa298d	-0.33234826
48	0xbe86dea2	-0.2634173
49	0xbec2ffcb	-0.3808578
50	0xbf0f5aa4	-0.5599768
51	0xbe88b152	-0.26697785
52	0xbece8f91	-0.40343907
53	0xbf2eb858	-0.68250036
54	0xbebd8f3c	-0.37023342
55	0x3d20bc95	0.039242346
56	0x3e640859	0.2226881
57	0x3debe2bc	0.115178555
58	0x3ef1ee07	0.47251913
59	0xbe489c7c	-0.19590944
60	0xbdd435ed	-0.10361848
61	0xbe9b570e	-0.30339855
62	0xbd57457a	-0.052556492
63	0x3f9fe6a2	1.2492259
64	0x3ee74e59	0.45176962
65	0x3d50c0d8	0.05096516
66	0x3f0f702d	0.5603054
67	0xbe270813	-0.16311674
68	0x3cd18dcd	0.025580311
69	0x3e1978a4	0.14987427
70	0x3e3fff18	0.18749654
71	0xbd8331f9	-0.06406016
72	0x3d2a9c14	0.041652754
73	0x3eb6ec2d	0.35727063
74	0xbcd0f442	-0.025507096
75	0xbdbf1f82	-0.093321815
76	0x3deca965	0.11555747
77	0xbed01514	-0.4064108
78	0x3e52cc13	0.2058566
79	0xbd3e5c8c	-0.04647498
80	0x3efc2d26	0.49253196
81	0x3e97186e	0.29510826
82	0x3e33d447	0.17561446
83	0x3ee91dc0	0.4553051
84	0x3e9693b8	0.29409575
85	0x3be64702	0.0070275078
86	0xbdb4f453	-0.08835664
87	0xbe914f1f	-0.28380677
88	0xbd2c5731	-0.04207534
89	0xbf0ba640	-0.5455055
90	0x3e411d6e	0.18858883
91	0xbe9bffe2	-0.3046866
92	0xbd24ef90	-0.040267527
93	0xbef1260b	-0.47099337
94	0xbe63780c	-0.22213763
95	0xbeadc2e8	-0.33937764
96	0xbecef1d6	-0.4041888
97	0xbdf8e9b2	-0.12153949
98	0xbe49f0aa	-0.19720712
99	0x3e03fc67	0.12889253
100	0x3ef131bc	0.47108257
101	0x3e7e3c44	0.24827677
102	0xbe555eda	-0.20836964
103	0xbf0dcc2f	-0.55389684
104	0xbecd7ddb	-0.40135083
105	0x3ae1a000	0.0017213821
106	0x3e1f785d	0.15573259
107	0xbe81b1ef	-0.25331065
108	0xbe41d3de	-0.18928477
109	0xbd6bb362	-0.05754412
110	0xbbc8cd50	-0.006127991
111	0x3cc2789f	0.023739157
112	0x3dc54ffb	0.09634396
113	0xbee299df	-0.4425802
114	0xbf2c22f3	-0.6724083
115	0x3eeecf67	0.4664261
116	0x3ef0f0e5	0.47058788
117	0x3ece3b6e	0.40279716
118	0xbf215bf7	-0.6303095
119	0xbf20b92a	-0.6278254
120	0xbe7724c6	-0.24135122
121	0x3c9b8781	0.018985512
122	0x3d6d1738	0.05788347
123	0xbf0a9bdd	-0.5414408
124	0xbecc96e1	-0.3995886
125	0x3eb26953	0.3484598
126	0x3f107b40	0.56438065
127	0x3f323254	0.69608045
128	0x3f522e66	0.8210205
129	0x3d79bd7b	0.06097172
130	0x3f6e92b2	0.9319259
131	0xbe3bda49	-0.18344988
132	0x3e84d32e	0.25942367
133	0x3bffc347	0.0078052613
134	0x3f2930fe	0.6609038
135	0x3eae0055	0.33984628
136	0x3eb974db	0.36221966
137	0x3e5a67d8	0.21328676
138	0x3e7a2416	0.24427828
139	0x3d3f5978	0.046716183
140	0x3db0745c	0.08615944
141	0xbf88157c	-1.0631557
142	0x3e2b7d5e	0.16747043
143	0xbdf96572	-0.12177552
144	0x3f827aae	1.0193689
145	0x3f2c9172	0.6740943
146	0x3f1f0e89	0.62131554
147	0x3f818f4a	1.0121853
148	0x3f3de144	0.74171853
149	0x3eca4eef	0.39513347
150	0x3e3e1d1c	0.18565792
151	0x3e3de50a	0.18544403
152	0x3f076821	0.52893263
153	0xbf077e60	-0.5292721
154	0xbf05e01f	-0.52295107
155	0xbf39b059	-0.7253471
156	0xbdea1d78	-0.11431402
157	0xbec86830	-0.3914199
158	0xbe405099	-0.18780746
159	0xbf7fc628	-0.9991174
160	0x3dff5046	0.12466483
161	0xbe1f2ed2	-0.15545204
162	0x3f3e37b9	0.74303776
163	0x3f3f8676	0.74814546
164	0x3b13c01c	0.0022544926
165	0xbe553b0a	-0.20823303
166	0xbf4bb5df	-0.7957439
167	0xbf4fb2d2	-0.81132233
168	0x3d83695a	0.064165786
169	0xbdfacc6c	-0.12246022
170	0xbed8c7d5	-0.4233996
171	0xbdc88004	-0.09790042
172	0xbdcd9b3d	-0.10039375
173	0x3f1c617f	0.6108627
174	0x3ec3cef0	0.38243818
175	0x3f08cb3a	0.534351
176	0xbcf4f4b2	-0.029901836
177	0xbf38f0dc	-0.7224252
178	0xbcd74b93	-0.026281154
179	0x3d971698	0.07377356
180	0x3f6e6b99	0.9313293
181	0x3ff9e15a	1.9521897
182	0xbd22345e	-0.039600722
183	0xbfa4baf0	-1.2869549
184	0x3e850eff	0.25988004
185	0x3e6245b5	0.22096904
186	0xbed5f0df	-0.41785333
187	0xbd4f0c68	-0.05054894
188	0xbf2b1991	-0.66835886
189	0xbe520c3b	-0.20512478
190	0x3f8e1be8	1.1102266
191	0x3ec91e59	0.39280966
192	0x3e92b195	0.2865111
193	0x3f235c23	0.63812464
194	0x3e23c3bc	0.15992635
195	0x3ebf9688	0.37419534
196	0x3e849de9	0.25901726
197	0xbd6cd72b	-0.057822388
198	0x3ec28856	0.3799464
199	0x3e1b399e	0.15158698
200	0x3ec7b557	0.3900554
201	0x3ed0d4ed	0.4078745
202	0x3d966d79	0.07345099
203	0x3b2f3400	0.0026733875
204	0x3dca5f5c	0.098814696
205	0x3ece8cf7	0.40341923
206	0x3f1ab278	0.6042857
207	0x3ef72c26	0.4827587
208	0x3ec68800	0.38775635
209	0xbecc8bd5	-0.39950433
210	0x3e91edcf	0.28501746
211	0x3eb74c7e	0.35800546
212	0x3ecc5cf8	0.3991468
213	0x3dc8173c	0.097700566
214	0x3ecd0741	0.40044597
215	0x3e87b20d	0.2650303
216	0x3c88f950	0.016720444
217	0xbf8adbd8	-1.0848341
218	0xbda42b30	-0.0801605
219	0x3dcfddcc	0.10149726
220	0x3d505e74	0.050871328
221	0xbf2c9e4a	-0.6742903
222	0x3ec46e7c	0.38365543
223	0x3f095cc6	0.53657186
224	0xbc0f97bf	-0.008764206
225	0x3d6f902d	0.058487106
226	0xbeaa10f0	-0.33216047
227	0x3e9cb5c1	0.30607417
228	0xbe5b319d	-0.21405645
229	0x3edb1ed9	0.42796972
230	0xbe9a5594	-0.30143416
231	0xbdb1a117	-0.086733036
232	0x3c120b85	0.008913879
233	0x3d8b25ae	0.06794296
234	0xbfb9a3fb	-1.4503168
235	0x3e706a09	0.23477949
236	0x3ed68eac	0.41905725
237	0xbf2b00f7	-0.6679835
238	0x3eb392fd	0.3507308
239	0x3e960797	0.29302666
240	0x3f0ce97f	0.55043787
241	0xbf1fd80e	-0.6243905
242	0xbf395cf3	-0.72407454
243	0xbe817536	-0.25284737
244	0x3f025c81	0.509224
245	0xbdf31234	-0.11868706
246	0xbf233f5b	-0.6376855
247	0x3f1d9199	0.6155029
248	0xbf8f40c7	-1.1191643
249	0x3ee45c6e	0.44601768
250	0xbeddf00e	-0.4334721
251	0x3ef166f5	0.47148862
252	0x3d497e4c	0.04919271
253	0xbf84cb21	-1.037449
254	0x3ec2ae94	0.38023818
255	0xc01a51b3	-2.4112365

lstm.weight_hh_l0 f4 [256, 64]
0	0x3c0730b5	0.008251359
1	0xbed879f3	-0.4228054
2	0x3cf721e7	0.030167533
3	0x3f0cd7a6	0.55016553
4	0x3e84b807	0.25921652
5	0x3ee00532	0.43753964
6	0xbf0630d3	-0.5241825
7	0xbe16c372	-0.14722994
8	0x3f6ad4c2	0.9173089
9	0x3eeb36ca	0.45940238
10	0xbd839359	-0.06424589
11	0x3e8fb539	0.2806795
12	0x3da372cf	0.079808824
13	0xbfb0fd54	-1.382731
14	0xbe0b71ed	-0.13617678
15	0x3d12c325	0.035830636
16	0x3e499b21	0.19688083
17	0x3f3b61cf	0.7319612
18	0xbdf6c28d	-0.12048826
19	0x3f009039	0.50220066
20	0x3eb1f671	0.34758332
21	0x3e93d244	0.28871357
22	0xbe1f54e2	-0.15559724
23	0x3eb6a923	0.35675916
24	0x3ea36701	0.31914523
25	0xbefc5fb1	-0.49291757
26	0x3f37b383	0.7175829
27	0xbfab7435	-1.3394839
28	0x3e243382	0.16035274
29	0xbf11941c	-0.5686662
30	0x3e98e3d4	0.2986132
31	0x3e229759	0.15878047
32	0xbe7a7f85	-0.24462707
33	0x3e2433f8	0.1603545
34	0xbefc7cce	-0.49313968
35	0xbf5f1f68	-0.871573
36	0x3d98ea0f	0.07466518
37	0x3dd6353c	0.104593724
38	0xbe8681e6	-0.2627098
39	0xbf30cb44	-0.6906016
40	0xbe4c1b12	-0.19932202
41	0x3e6d5c65	0.23179777
42	0x3ea2a151	0.317637
43	0x3e222cad	0.15837355
44	0xbe519457	-0.20466743
45	0x3d9889b1	0.074481376
46	0xbd8b1149	-0.06790406
47	0x3e81439f	0.25246903
48	0x3e96b58c	0.29435384
49	0xbe924c52	-0.28573853
50	0xbe7c4c7a	-0.24638548
51	0xbd9e8f9e	-0.077422366
52	0xbdbcf176	-0.092257425
53	0xbf175c0c	-0.5912483
54	0xbf328ca7	-0.6974587
55	0x3f53c7fa	0.82727015
56	0xbe791ab7	-0.24326597
57	0x3f11869b	0.56846017
58	0x3ceb9cf3	0.028761363
59	0xbed1497b	-0.40876374
60	0x3ca2f332	0.019891355
61	0x3e7c477d	0.24636646
62	0x3e15e1b4	0.1463688
63	0x3d79d256	0.060991608
64	0xbf7af680	-0.9803238
65	0x3dceb3db	0.100928985
66	0xbf0c2ce1	-0.5475598
67	0x3e2f3059	0.17108287
68	0xbea9aa59	-0.33137777
69	0xbe4884ec	-0.19581956
70	0xbd27a5e8	-0.040929705
71	0x3e9b842c	0.30374277
72	0xbdf69f5f	-0.120421164
73	0x3f5c2c56	0.8600515
74	0xbf44b8fc	-0.76844764
75	0x3f3bd1a7	0.7336678
76	0xbf12975e	-0.5726222
77	0x3dc9887a	0.09840484
78	0x3e04c5dd	0.12966104
79	0x3f4d76c4	0.80259347
80	0x3eaa643f	0.33279607
81	0x3c911390	0.017709523
82	0xbecddbb1	-0.40206674
83	0x3e44511c	0.19171566
84	0x3d5f1bb4	0.05446978
85	0xbe56ed1d	-0.20988889
86	0xbf7f13a2	-0.9963933
87	0x3df22ce0	0.118249655
88	0x3d8fb1b2	0.070163146
89	0x3e9a577a	0.30144864
90	0xbe38fe0f	-0.18065666
91	0xbeb848db	-0.35993084
92	0xbf82acdf	-1.0209006
93	0x3e8e22c6	0.27760905
94	0xbef85dc6	-0.48509043
95	0xbe90e9a0	-0.28303242
96	0x3f247c51	0.6425219
97	0xbf0f789f	-0.5604343
98	0xbdd550cf	-0.10415804
99	0x3efc71c2	0.4930554
100	0x3e49355e	0.19649264
101	0xbea7d09a	-0.32776338
102	0xbf235c66	-0.63812864
103	0xbe4ebb51	-0.20188643
104	0xbd088d4b	-0.033337872
105	0x3f855ec7	1.0419549
106	0xbe4ad30b	-0.19807069
107	0xbf638851	-0.8887988
108	0x3de468cc	0.11152801
109	0x3ea25fd0	0.31713724
110	0x3f4537ed	0.7703846
111	0x3e402405	0.1876374
112	0xbe861359	-0.26186636
113	0x3dba2625	0.09089307
114	0x3eb80c46	0.35946864
115	0x3e4796dc	0.19491142
116	0x3c118a1c	0.0088830255
117	0x3ed075f2	0.40714985
118	0x3d92c4ac	0.071664184
119	0x3eafa2a9	0.34303787
120	0xbfb59b5d	-1.4188038
121	0x3edaf4fc	0.42765033
122	0xbe31a136	-0.17346653
123	0x3f2b4ad2	0.6691104
124	0x3f469faa	0.7758738
125	0xbfad27bb	-1.352775
126	0x3f370520	0.71492195
127	0x3ea8b1db	0.32948193
128	0x3f5aaf2f	0.8542356
129	0xbe4486aa	-0.19191995
130	0xbdd9f7ae	-0.10642944
131	0xbf13e8f7	-0.5777735
132	0xbd935dae	-0.07195602
133	0x3f3b4fc0	0.73168564
134	0xbf0a9baa	-0.54143775
135	0x3f4e69ac	0.8062999
136	0xbeb12e2c	-0.3460554
137	0x3c9d2620	0.019183218
138	0xbf830453	-1.0235695
139	0xbe370d56	-0.17876181
140	0xbe58837d	-0.21143909
141	0xbf0f60eb	-0.5600726
142	0xbdb3a80f	-0.08772289
143	0x3ec79cf0	0.3898692
144	0xbedbed59	-0.4295452
145	0xbef55d75	-0.47922865
146	0x3e4b69f6	0.1986464
147	0xbf4ec4a2	-0.8076879
148	0xbf03d9cb	-0.515042
149	0x3e6f1839	0.23349084
150	0xbf7933a4	-0.9734442
151	0xbe1422ee	-0.1446645
152	0x3f381209	0.7190252
153	0xbf0d1377	-0.55107826
154	0x3dfd6010	0.12371838
155	0x3e3a9cb1	0.18223836
156	0xbeaddbbb	-0.33956704
157	0xbec9e2d5	-0.39430872
158	0xbeca81ef	-0.39552256
159	0xbf4ba6d3	-0.7955143
160	0x3f0fb393	0.56133384
161	0x3e54db2c	0.20786732
162	0xbf0fd678	-0.5618663
163	0x3c7ce8f2	0.015436398
164	0xbcea52ac	-0.028603874
165	0x3e8c849a	0.27444917
166	0x3e9fec0b	0.31234774
167	0xbec7ce35	-0.3902451
168	0x3e3b4444	0.1828776
169	0x3f658082	0.8964921
170	0x3d982008	0.074279845
171	0xbef6fc1c	-0.4823922
172	0x3eace6f2	0.33769947
173	0x3e87609f	0.26440904
174	0xbf392075	-0.7231515
175	0xbeb6ccf6	-0.35703248
176	0x3d7d9c0b	0.061916392
177	0xbecf03d2	-0.40432602
178	0x3e6802ee	0.22657368
179	0xbf4c9ecb	-0.799298
180	0x3edaf955	0.4276835
181	0x3e9b626e	0.30348533
182	0xbdd8f956	-0.10594432
183	0xbead675b	-0.33867916
184	0xbd186b8b	-0.037211936
185	0xba2bcee6	-0.00065539626
186	0x3f197559	0.59944683
187	0xbf7b3488	-0.9812703
188	0xbe812b4f	-0.25228354
189	0xbf253c10	-0.64544773
190	0x3f1f4cdd	0.6222666
191	0x3ec903e8	0.39260793
192	0x3f5cbfb6	0.8623003
193	0x3edc7158	0.43055224
194	0xbf64a82b	-0.89319104
195	0x3e91f4db	0.28507122
196	0xbe4d9276	-0.20075402
197	0x3f3badb7	0.7331194
198	0x3ea10400	0.31448364
199	0x3edc94c1	0.4308224
200	0xbf9c9753	-1.223368
201	0x3f1921e7	0.59817356
202	0xbea42541	-0.32059672
203	0x3eb6b2f8	0.35683417
204	0x3d801a01	0.0625496
205	0xbeb5926e	-0.3546328
206	0x3e6ce848	0.23135483
207	0x3ea33d5f	0.3188276
208	0x3e90788c	0.2821697
209	0x3df20b3a	0.118185475
210	0x3f850aa8	1.0393877
211	0xbe8bd365	-0.2730972
212	0xbf36605c	-0.7124078
213	0xbea3bca0	-0.31979847
214	0xbec85d64	-0.3913375
215	0x3d41eb58	0.047343582
216	0x3e51415e	0.20435092
217	0x3eec889d	0.46197978
218	0x3e896354	0.26833594
219	0x3f0b60e9	0.5444475
220	0x3f277887	0.65418285
221	0xbed911ee	-0.42396492
222	0x3ecc1b13	0.39864406
223	0x3e48d2e7	0.19611703
224	0x3da941aa	0.082644776
225	0xbd0bff27	-0.03417888
226	0xbe827376	-0.25478715
227	0xbf224115	-0.6338056
228	0x3f96179a	1.1725953
229	0x3f8b0cbc	1.0863261
230	0x3e8703d2	0.26370102
231	0x3dedef3a	0.116178945
232	0xbe5d6bfb	-0.21623223
233	0x3eb1d749	0.34734562
234	0x3fc28cb7	1.5199193
235	0xbfa61ef3	-1.2978195
236	0xbed7913e	-0.42102998
237	0xbf35592d	-0.70839196
238	0xbf5c0547	-0.8594555
239	0xbf8ac360	-1.0840874
240	0xbeb86888	-0.3601725
241	0x3ea7e870	0.32794523
242	0x3eded7bd	0.4352397
243	0x3e9fb46c	0.31192338
244	0xbf29a09b	-0.6626069
245	0x3f72d038	0.94848967
246	0xbe8a5749	-0.27019718
247	0x3a7774c5	0.0009439702
248	0xbf2bc5dd	-0.6709879
249	0x3f15be4a	0.58493483
250	0xbe92db3e	-0.28682894
251	0xbf93ea42	-1.1555865
252	0x3eaa56b7	0.33269283
253	0xbf0b04c0	-0.5430412
254	0xbded0495	-0.115731396
255	0x3eb3a304	0.3508531

lstm.bias_ih_l0 f4 [256]
0	0xbdbc0de9	-0.09182341
1	0x3d97e25f	0.07416224
2	0x3eb8ee40	0.3611927
3	0x3f10c21b	0.5654618
4	0xbe0d0c77	-0.13774286
5	0x3cefb8d6	0.029262941
6	0x3d355259	0.044267986
7	0x3e85859f	0.26078507
8	0x3c9fecf5	0.01952217
9	0xbef37b75	-0.47555128
10	0xbe19de4f	-0.1502621
11	0x3c0d3a59	0.008619868
12	0xbd85ac7d	-0.0652704
13	0x3ddcce97	0.107815914
14	0x3d44ccda	0.048046924
15	0xbe34676f	-0.17617582
16	0xbe60da3d	-0.21958251
17	0x3d3427a5	0.04398312
18	0x3dda17c1	0.10649062
19	0x3b10f76c	0.0022120131
20	0x3eecdf06	0.46263903
21	0xbde9f9cf	-0.114246
22	0xbe496989	-0.19669165
23	0xbc4a4be7	-0.012347198
24	0x3e149b6f	0.14512418
25	0x3e3fb8bc	0.18722814
26	0x3eb03292	0.34413582
27	0x3e50750c	0.2035715
28	0x3e29eb5b	0.16593687
29	0x3ea29e37	0.31761333
30	0xbe14e680	-0.14541054
31	0x3d3e02ce	0.046389394
32	0x3f142653	0.5787098
33	0xbe062925	-0.13101633
34	0x3ee80339	0.4531496
35	0x3dd5bef9	0.10436816
36	0x3e833142	0.25623518
37	0x3d497749	0.049186025
38	0x3efd344e	0.49453968
39	0x3e41214b	0.18860357
40	0x3eb40a1e	0.3516397
41	0x3e992ffb	0.2991942
42	0x3e348996	0.1763061
43	0x3f030293	0.511758
44	0x3d945258	0.07242268
45	0xbe27146b	-0.16316383
46	0xbe3ca29c	-0.18421406
47	0x3e92bf12	0.286614
48	0x3f0ca11d	0.5493334
49	0x3de735b3	0.11289539
50	0x3e634e88	0.22197926
51	0xbe0a0f61	-0.13482429
52	0x3d8439ad	0.06456313
53	0x3e149ab2	0.14512137
54	0x3e6f1776	0.23348793
55	0x3de9e587	0.11420732
56	0x3f0f40ab	0.5595805
57	0xbd1f7716	-0.03893193
58	0xbe18dea2	-0.14928678
59	0x3c8b7d63	0.017027562
60	0x3ee7bfe6	0.45263594
61	0xbe2b5662	-0.16732171
62	0x3e8a5eed	0.27025548
63	0x3d650abd	0.055918444
64	0x3ce51035	0.02796183
65	0xbeba1808	-0.3634646
66	0xbe98a3a8	-0.2981236
67	0xbf48bc12	-0.7841197
68	0xbec80e7b	-0.39073548
69	0xbe0a1706	-0.13485345
70	0xbf10f492	-0.56623185
71	0xbebb4543	-0.3657628
72	0x3ead6faa	0.33874255
73	0x3da460b1	0.08026255
74	0xbea2dbdc	-0.31808364
75	0x3bc136ce	0.005896426
76	0xbe178e5b	-0.14800398
77	0xbf01c83b	-0.5069615
78	0x3d62aea7	0.055342343
79	0x3c941df9	0.018080698
80	0x3c9291cf	0.017891793
81	0x3d80451f	0.06263184
82	0xbe976ed3	-0.2957674
83	0xbe2843d8	-0.1643213
84	0xbea6418e	-0.3247189
85	0xbe26afaa	-0.16277948
86	0xbeeb1b4c	-0.45919263
87	0xbe57156e	-0.21004269
88	0xbe4317a1	-0.19051982
89	0x3c33fba1	0.010985286
90	0xbe514218	-0.20435369
91	0xbf0d2b7e	-0.5514449
92	0xbd62f770	-0.055411756
93	0xbef28ff2	-0.47375447
94	0xbd899477	-0.067177705
95	0xbeb43e38	-0.3520372
96	0xbdc55b29	-0.09636528
97	0xbc1f9810	-0.009740844
98	0x3cdc13ae	0.026864853
99	0x3c11868f	0.008882179
100	0x3c39d648	0.011342593
101	0xbe819b01	-0.2531357
102	0xbeb20eee	-0.34777015
103	0x3e830deb	0.25596556
104	0xbe968ee1	-0.29405883
105	0xbf178e8b	-0.5920188
106	0x3ef6375f	0.4808912
107	0xbdb67446	-0.08908896
108	0xbe7ab75c	-0.24484009
109	0xbebd63c9	-0.36990193
110	0x3deaefa8	0.11471492
111	0x3dbd2e04	0.092372924
112	0xbf0a9cb8	-0.54145384
113	0x3e0464ac	0.12929028
114	0x3e37db46	0.1795474
115	0xbeaa1369	-0.33217934
116	0xbe96b335	-0.294336
117	0xbe16b979	-0.1471919
118	0xbee00f1f	-0.43761536
119	0xbd46f16f	-0.048570093
120	0x3e3f1c88	0.18663228
121	0xbf199d97	-0.6000609
122	0xbe43ee0d	-0.19133778
123	0xbe83d232	-0.25746304
124	0xbf331b24	-0.6996329
125	0xbc607fb6	-0.013702324
126	0x3d9d66b5	0.076856054
127	0xbd628ca1	-0.055309895
128	0x3e204cc3	0.15654282
129	0x3e8620f9	0.2619703
130	0xbe0e5fd0	-0.13903737
131	0xbda25a43	-0.07927372
132	0x3d035b2a	0.032069363
133	0xbe1ee58c	-0.15517253
134	0xbd78070b	-0.06055359
135	0x3c6b0d81	0.014346481
136	0xbe5fa8ff	-0.2184181
137	0xbe0b6468	-0.1361252
138	0xbed0fbdf	-0.40817162
139	0x3e87db8a	0.26534683
140	0x3dfcc194	0.123416096
141	0xbeeda7f5	-0.46417204
142	0x3e951a44	0.29121602
143	0x3e6e3f0d	0.2326624
144	0x3e284ad3	0.16434793
145	0x3d0ad2c6	0.033892415
146	0xbeb3ce59	-0.35118368
147	0xbe926e4f	-0.28599784
148	0xbdf6c579	-0.12049384
149	0x3ea6e22e	0.32594436
150	0xbeca942b	-0.39566168
151	0x3d19662e	0.03745096
152	0xbcfaf1c1	-0.030632855
153	0x3e1d78d1	0.15378119
154	0x3e8ce8d9	0.275214
155	0x3c96db39	0.01841508
156	0xbcf6d756	-0.030131977
157	0x3d3c95bf	0.046041247
158	0x3d97d9cf	0.074145906
159	0x3e3f3af5	0.18674834
160	0x3d27f888	0.041008502
161	0x3dcf375c	0.10117981
162	0xbe60d3a4	-0.21955734
163	0xbda11079	-0.0786447
164	0x3d3de5d9	0.046361778
165	0x3e5efc8d	0.21776028
166	0x3df9bdae	0.12194382
167	0x3ebacf21	0.36486152
168	0xbd9ce827	-0.07661467
169	0x3e8b4600	0.27201843
170	0xbd7e9e08	-0.06216243
171	0xbe05e3e8	-0.1307522
172	0x3c52ae37	0.012858919
173	0xbd984e60	-0.07436824
174	0xbd2bacdc	-0.0419129
175	0xbcaa92dc	-0.020821981
176	0x3e678fb3	0.2261341
177	0x3e21cc45	0.15800579
178	0x3e0c03cd	0.13673325
179	0xbd757741	-0.059928183
180	0x3e36da8f	0.17856811
181	0x3e6c55c2	0.23079589
182	0xbc50a218	-0.012733959
183	0x3e0712a8	0.1319071
184	0xbcd1a1d2	-0.025589857
185	0x3d8c95c6	0.068645045
186	0xbe556f73	-0.20843296
187	0x3c11cf4a	0.008899519
188	0x3e33eb63	0.17570262
189	0x3e46b8a2	0.1940637
190	0x3e9d7690	0.30754519
191	0x3d7ea013	0.062164377
192	0x3d1cdf78	0.038299054
193	0xbd161e2e	-0.036649875
194	0x3f034ff7	0.5129389
195	0x3f04cc51	0.5187426
196	0x3d350910	0.044198096
197	0xbde567be	-0.11201428
198	0x3ea3995d	0.31952944
199	0x3d0bba95	0.034113485
200	0x3be9c4bc	0.0071340483
201	0xbe1c6917	-0.15274464
202	0xbd593ce5	-0.05303659
203	0x3e12d130	0.14337611
204	0x3e5cdab4	0.21567804
205	0xbda2b5df	-0.079448454
206	0x3e01db50	0.12681317
207	0xbea6c5fc	-0.32572925
208	0x3e542b9d	0.20719762
209	0x3ed14054	0.4086939
210	0x3ef89e80	0.48558426
211	0xbda1b8a8	-0.078965485
212	0x3f2d2ffa	0.6765133
213	0xbe4dd1fb	-0.20099632
214	0x3d8038b7	0.062608175
215	0x3cf3ecb9	0.029775964
216	0x3e06badd	0.1315722
217	0x3dc53370	0.096289515
218	0xbdb20acf	-0.08693468
219	0x3d32cf70	0.04365486
220	0x3c8bca66	0.017064285
221	0x3eee570d	0.4655079
222	0x3d45805e	0.048218124
223	0x3d4faa53	0.050699543
224	0x3f0b5185	0.54421264
225	0xbdb492ed	-0.08817086
226	0x3e8ef4d8	0.27921176
227	0x3e9e5da1	0.30930808
228	0x3e5f1d42	0.21788505
229	0xbdc579a6	-0.09642343
230	0x3ec54d0d	0.38535348
231	0x3c820204	0.015870102
232	0x3ef13d09	0.4711688
233	0xbdb9f6c6	-0.090802714
234	0x3ef9f5eb	0.48820433
235	0x3ef10aa8	0.47078443
236	0x3d822f2d	0.06356654
237	0xbd7a000c	-0.0610352
238	0xbe380fa6	-0.1797472
239	0x3da7c4d3	0.08191838
240	0x3ec6128d	0.38686028
241	0x3dba0466	0.0908287
242	0x3e5902dd	0.21192499
243	0x3de20097	0.11035269
244	0x3cee5406	0.0290928
245	0x3dd00481	0.10157109
246	0x3e308800	0.1723938
247	0x3e9e6bb4	0.30941546
248	0x3eb50cef	0.3536143
249	0x3d99f7bf	0.07517957
250	0xbe0475f0	-0.12935615
251	0x3e7437ac	0.23849362
252	0x3ed5c6b2	0.41753155
253	0xbe43a905	-0.19107445
254	0x3e2760d2	0.16345528
255	0x3db6f801	0.08934022

lstm.bias_hh_l0 f4 [256]
0	0x3bd9b302	0.006643654
1	0x3e064f14	0.13116103
2	0x3ed797f8	0.4210813
3	0x3ee006f9	0.4375532
4	0xbdf94fc7	-0.121734194
5	0x3d9d20c8	0.07672268
6	0x3d98f516	0.074686214
7	0x3e83b126	0.2572109
8	0xbd926ac1	-0.07149268
9	0xbf04cc19	-0.5187393
10	0x3c9a34b0	0.018823951
11	0x3dcd2f34	0.10018769
12	0x3c213379	0.009838932
13	0xbc91ac7b	-0.01778244
14	0xbbfcebf4	-0.0077185575
15	0xbe26fb8c	-0.16306895
16	0xbe618e8e	-0.22027037
17	0x3dc8bea7	0.09801989
18	0x3e3f6ebf	0.1869459
19	0x3cccb4e3	0.024988597
20	0x3ed5b6cf	0.41741034
21	0x3cbd658d	0.023119712
22	0xbdbc2553	-0.091868065
23	0xbd70fbe1	-0.05883396
24	0x3e9d60a3	0.3073779
25	0xb86dba8e	-5.6678946e-05
26	0x3e161696	0.14657053
27	0x3eb63995	0.35590807
28	0x3e936e63	0.28795156
29	0x3ec143b5	0.3774697
30	0xbe1c5682	-0.15267375
31	0x3d8e04d6	0.06934516
32	0x3eb65689	0.35612896
33	0x3c15bd3a	0.009139353
34	0x3ee03ada	0.437949
35	0x3eae92b3	0.34096298
36	0x3e07ba08	0.13254559
37	0xbde75869	-0.1129616
38	0x3ef5d3d3	0.48013172
39	0x3c311630	0.010808513
40	0x3eb6be04	0.35691845
41	0x3ea211e8	0.31654286
42	0x3d72963c	0.059225306
43	0x3ec81cda	0.39084512
44	0xbbe54e80	-0.0069978833
45	0xbb5f4757	-0.0034069621
46	0xbd7dde80	-0.06197977
47	0x3e604083	0.2189961
48	0x3eeb40ca	0.45947868
49	0x3dcb15b2	0.099162474
50	0x3e1442f5	0.14478667
51	0x3d7100d1	0.05883867
52	0x3e49848d	0.1967947
53	0x3d8bf8d4	0.068345696
54	0x3e2e048d	0.16993923
55	0x3e91da2d	0.28486767
56	0x3f1597b6	0.5843462
57	0xbd5e3627	-0.054250862
58	0xbe336925	-0.17520578
59	0xbd8ac0c7	-0.067750506
60	0x3ed6f9a6	0.41987342
61	0xbe031255	-0.12799962
62	0x3e852752	0.26006562
63	0x3cf83591	0.03029898
64	0x3db2eff7	0.08737176
65	0xbef4e6c7	-0.4783232
66	0xbeae63f3	-0.3406063
67	0xbf30e8bc	-0.69105124
68	0xbebfcda7	-0.37461588
69	0xbdb84ede	-0.08999418
70	0xbf3b2fbe	-0.73119724
71	0xbe89cac4	-0.2691251
72	0x3eb5fb05	0.35543075
73	0x3c944724	0.018100329
74	0xbed56c52	-0.41684204
75	0xbdb24486	-0.08704476
76	0xbcdf8400	-0.027284622
77	0xbef738aa	-0.4828542
78	0x3dc8c774	0.09803668
79	0xbe1c0342	-0.15235618
80	0x3def70bd	0.11691425
81	0xbd8d8819	-0.06910724
82	0xbe89a7dd	-0.26885882
83	0xbe0de53c	-0.13856977
84	0xbe9e895e	-0.30964178
85	0xbd033fac	-0.032043144
86	0xbed44ae6	-0.41463393
87	0xbe55b2e3	-0.20869021
88	0xbdb51438	-0.08841747
89	0xbd3a8bfa	-0.04554365
90	0xbe84ddbb	-0.25950417
91	0xbedc3a1a	-0.43013078
92	0xbe4555e5	-0.19271047
93	0xbf12ed27	-0.57393116
94	0x3df2dd9e	0.118586764
95	0xbec2b3f8	-0.3802793
96	0xbdc98aeb	-0.098409496
97	0x3d7680ab	0.0601813
98	0xbd6bda09	-0.05758098
99	0xbdda0954	-0.106463104
100	0xbdd1c7fd	-0.10243223
101	0xbecdae5d	-0.4017209
102	0xbe374ac1	-0.1789961
103	0x3e734f81	0.23760797
104	0xbecbffd2	-0.39843613
105	0xbf024095	-0.50879794
106	0x3e9d6da4	0.30747712
107	0x3d8436b7	0.064557485
108	0xbe99c167	-0.30030367
109	0xbee7012f	-0.4511809
110	0x3d1414f0	0.03615278
111	0x3d4867bf	0.048927065
112	0xbed25a6b	-0.41084608
113	0xbbb87d4c	-0.005630171
114	0x3c917087	0.017753853
115	0xbe9fde85	-0.31224456
116	0xbe97a7f0	-0.29620314
117	0xbe0a8dfd	-0.13530727
118	0xbed7c22f	-0.42140338
119	0xbda43d3f	-0.08019494
120	0xbd207be2	-0.039180644
121	0xbf421d0d	-0.7582558
122	0xbe7f7ba4	-0.24949509
123	0xbead4e4c	-0.33848798
124	0xbf2fd652	-0.686864
125	0xbe2142c6	-0.15748128
126	0x3d7f2f25	0.06230082
127	0xbcbe24f5	-0.023210982
128	0x3c28ca5b	0.010302152
129	0x3ddaa5d9	0.10676164
130	0xbdf6ec43	-0.12056782
131	0x3e118190	0.1420958
132	0xbd4c983d	-0.049949873
133	0x3c25cea5	0.010120069
134	0x3e260de6	0.1621624
135	0xbccf63b0	-0.02531609
136	0xbe3983a3	-0.18116622
137	0xbd8f266e	-0.06989752
138	0xbe8fb7fe	-0.28070062
139	0x3e2603ad	0.1621234
140	0xbcb9b067	-0.022667123
141	0xbebcf876	-0.3690831
142	0x3ec08db6	0.37608117
143	0x3e811ab6	0.2521569
144	0x3e5ffda1	0.21874095
145	0x3e238059	0.1596693
146	0xbe6b1773	-0.22958164
147	0xbe1f1b6f	-0.15537809
148	0xbe3a4c0c	-0.18193072
149	0x3ea286a6	0.31743354
150	0xbefe773d	-0.49700347
151	0xbdea4b85	-0.114401855
152	0xbce86f3e	-0.028373357
153	0x3e738f4c	0.23785132
154	0x3ea7d139	0.32776812
155	0x3e11d43e	0.1424112
156	0xbc2bcc69	-0.010485747
157	0xbd39f1ec	-0.04539673
158	0x3ddc72bd	0.10764072
159	0xbd4447a3	-0.04791988
160	0xbd5a25b6	-0.05325862
161	0x3d8675f0	0.065654635
162	0xbe8941c6	-0.26807994
163	0xbdcf84b7	-0.10132735
164	0x3d5ccd42	0.053906687
165	0x3da375c2	0.07981445
166	0x3dfd41d3	0.123660706
167	0x3e55995d	0.20859285
168	0xbe3f3745	-0.18673427
169	0x3e62bed1	0.22143103
170	0xbda06a0a	-0.07832725
171	0xbe4ef98f	-0.20212387
172	0xbd9511a8	-0.07278758
173	0xbe7b7f63	-0.24560313
174	0x3d4ad2e5	0.04951753
175	0xbe2542d5	-0.16138776
176	0x3e583be3	0.21116595
177	0x3e6cc7d8	0.2312311
178	0x3c07c881	0.00828755
179	0x3deae020	0.1146853
180	0x3ebe2ce4	0.37143624
181	0x3e750c34	0.23930436
182	0x3db9977f	0.09062099
183	0x3ddb6fa1	0.10714651
184	0xbe090185	-0.13379486
185	0xbca889c6	-0.020573508
186	0xbded6565	-0.11591605
187	0xbd99ce2e	-0.07510029
188	0x3d6c307a	0.05766342
189	0x3e4ce1e9	0.20008053
190	0x3daca0e0	0.08429122
191	0x3da6fce4	0.08153704
192	0x3e658db9	0.22417344
193	0x3bea6564	0.0071532
194	0x3eefefbc	0.4686259
195	0x3eb4b8ff	0.3529739
196	0xbe1d4e6e	-0.1536195
197	0xbd6640ee	-0.056214266
198	0x3ea439a3	0.32075223
199	0x3e101219	0.14069404
200	0xbd01a64a	-0.031652726
201	0xbe79abbe	-0.2438192
202	0xbe061adb	-0.13096182
203	0xbce38fc6	-0.027778517
204	0x3e16a5e1	0.14711715
205	0xbdb413bd	-0.08792827
206	0x3e0f3034	0.13983232
207	0xbe82b49a	-0.25528413
208	0x3e48b4cd	0.1960022
209	0x3ebb9f1b	0.36644825
210	0x3ec80d37	0.39072582
211	0xbe5102c2	-0.20411208
212	0x3f385e0c	0.72018504
213	0xbe3b31ee	-0.18280765
214	0xbd501ace	-0.050806813
215	0x3d089faf	0.03335541
216	0xbd42dfcd	-0.047576714
217	0x3d9e01a4	0.07715157
218	0xbdd61f2a	-0.10455163
219	0x3d7ff120	0.062485814
220	0x3e3a76bc	0.18209356
221	0x3e8d056e	0.27543205
222	0x3dac8a5c	0.084248275
223	0x3dc12765	0.09431342
224	0x3eef0624	0.46684372
225	0xbcf9461a	-0.030428935
226	0x3e10b70f	0.14132331
227	0x3ed70490	0.41995668
228	0x3e26e788	0.1629926
229	0x3cad853d	0.021181697
230	0x3eb77f25	0.3583919
231	0xbd03fbd3	-0.03222258
232	0x3eda6703	0.42656717
233	0xbd8afd36	-0.067865774
234	0x3eb78320	0.35842228
235	0x3eb0a1a7	0.3449833
236	0x3cb439dd	0.022000248
237	0xbe0207ff	-0.12698363
238	0xbe2bb327	-0.1676756
239	0x3dce7ad7	0.100820236
240	0x3e8847b6	0.2661721
241	0x3d5b9766	0.05361118
242	0x3e0a1876	0.13485894
243	0x3dcc5eb3	0.09979
244	0x3e2cd936	0.16879734
245	0x3e291a14	0.16513854
246	0x3e3e7bbc	0.18601888
247	0x3e9d7856	0.30755872
248	0x3f01694c	0.50551295
249	0x3ce66813	0.028125798
250	0xbd8cd930	-0.06877363
251	0x3b8c8d2d	0.0042892904
252	0x3e980734	0.29692996
253	0xbe150e79	-0.14556302
254	0x3c951278	0.018197283
255	0x3e8b9d27	0.27268335

Linear2.weight f4 [2, 64]
0	0x3d7d1644	0.061788812
1	0x3e6e092f	0.23245691
2	0x3dbe2489	0.09284312
3	0x3e04e3aa	0.12977472
4	0xbf3ea284	-0.7446673
5	0x3ce5db1a	0.028058577
6	0x3e9f05c6	0.31059092
7	0xbdb6a454	-0.08918062
8	0xbbd1a014	-0.0063972566
9	0xbcf7c524	-0.030245371
10	0xbf87cc69	-1.0609256
11	0x3e0d273e	0.13784501
12	0x3e7148fe	0.23563
13	0xbf311e6c	-0.69187045
14	0x3e435fe6	0.19079551
15	0x3e13d11c	0.14435238
16	0x3dd2bc6b	0.10289844
17	0xbd9f89df	-0.07789969
18	0x3db5ae41	0.08871127
19	0xbe130621	-0.14357807
20	0xbdbb3f1f	-0.09142899
21	0xbec9f99b	-0.39448246
22	0xbda5702f	-0.08078038
23	0xbe24e196	-0.16101679
24	0x3e0ad3cf	0.13557361
25	0x3f10fa1b	0.5663163
26	0x3f23bd12	0.63960373
27	0x3f19e77f	0.6011886
28	0xbe75b6da	-0.23995534
29	0xbe305a77	-0.1722201
30	0x3d64f55d	0.05589806
31	0xbedb0c8f	-0.4278302
32	0xbd9e7dc2	-0.0773883
33	0xbe1d52f9	-0.15363683
34	0x3deec2a3	0.11658218
35	0xbe1d6197	-0.15369259
36	0xbd1251d8	-0.035722584
37	0xbe80c984	-0.25153744
38	0xbe5a782c	-0.21334904
39	0x3d7c641c	0.06161891
40	0x3e72d32e	0.23713371
41	0x3f7eab1f	0.9947986
42	0x3da35cbf	0.07976674
43	0xbf02d932	-0.51112664
44	0xbe6e1cc8	-0.23253167
45	0xbd9f3c6b	-0.07775196
46	0xbb83f2bc	-0.004026739
47	0xbee0dc09	-0.43917874
48	0xbda2d5d8	-0.07950944
49	0x3e688651	0.22707488
50	0x3df14678	0.11781019
51	0x3ed0c930	0.40778494
52	0x3c4f3668	0.012647249
53	0x3f14d89e	0.5814303
54	0x3fc855bb	1.5651163
55	0x3c88503e	0.016639825
56	0x3d77e82c	0.06052415
57	0xbf752e20	-0.95773506
58	0xbec9b3a9	-0.39394882
59	0xbdf4a013	-0.11944594
60	0x3db8763f	0.09006929
61	0x3da027e2	0.07820107
62	0x3f08daaa	0.53458655
63	0x3f2ba010	0.6704111
64	0x3d92a213	0.071598195
65	0x3e427c4a	0.18992725
66	0x3c322589	0.010873207
67	0x3e867a51	0.26265195
68	0xbf531219	-0.8244949
69	0x3c1a4fb9	0.009418421
70	0x3e81fad6	0.25386685
71	0xbea6c20a	-0.32569915
72	0x3d6549c7	0.055978563
73	0x3d0bc719	0.03412542
74	0xbfaa8256	-1.3321025
75	0x3df9069e	0.12159465
76	0x3bde7e6b	0.0067899725
77	0xbf18de99	-0.5971466
78	0x3df2f7bb	0.11863657
79	0x3e966371	0.29372743
80	0x3db21bf5	0.08696739
81	0x3cacb34b	0.021081587
82	0x3e534a44	0.20633799
83	0xbe5c3206	-0.21503457
84	0xbdccdd89	-0.10003192
85	0xbeb18a99	-0.34676054
86	0xbe8511d6	-0.2599017
87	0xbcf3c73b	-0.029758086
88	0x3ca8ffef	0.020629851
89	0x3f0fdd47	0.5619702
90	0x3f67cfe9	0.9055162
91	0x3f1340b9	0.57520634
92	0xbe6bac93	-0.2301505
93	0xbe5fd492	-0.21858433
94	0x3d493203	0.04911996
95	0xbec4c5fb	-0.38432297
96	0xbd7aefc1	-0.061263803
97	0xbe72aa24	-0.23697716
98	0x3d9e4950	0.07728827
99	0xbd6f6ad5	-0.058451492
100	0xbdca910f	-0.09890949
101	0xbe472cdd	-0.19450708
102	0xbe77198c	-0.24130839
103	0x3e017586	0.12642488
104	0x3e288d2f	0.16460107
105	0x3f77ddbf	0.9682273
106	0xbc34406d	-0.011001688
107	0xbf06dd40	-0.5268135
108	0xbebfbbbb	-0.37447914
109	0xbd813abd	-0.063100316
110	0xbc17de55	-0.009269317
111	0xbe9e2af9	-0.3089216
112	0xbe530be6	-0.20610008
113	0x3e4ef5fd	0.20211025
114	0x3d223f91	0.039611403
115	0x3f142bd6	0.5787939
116	0x3e24af62	0.16082528
117	0x3f049f57	0.51805633
118	0x3fe239a9	1.7673846
119	0x3d63ac9c	0.055584535
120	0x3cc5dc3b	0.024152866
121	0xbfa56c49	-1.2923671
122	0xbeb2f146	-0.34949702
123	0xbe022b55	-0.12711842
124	0x3d8f2f11	0.06991399
125	0x3dd4607d	0.10369966
126	0x3edc0a08	0.42976403
127	0x3edf085b	0.43561062

Linear2.bias f4 [2]
0	0x3e3bcef3	0.18340664
1	0x3e2f8e7b	0.17144196
